{"format": "graph-model", "generatedBy": "2.19.0", "convertedBy": "TensorFlow.js Converter v4.22.0", "signature": {"inputs": {"keras_tensor": {"name": "keras_tensor:0", "dtype": "DT_FLOAT", "tensorShape": {"dim": [{"size": "-1"}, {"size": "128"}, {"size": "64"}, {"size": "1"}]}}}, "outputs": {"output_1": {"name": "Identity_1:0", "dtype": "DT_FLOAT", "tensorShape": {"dim": [{"size": "-1"}, {"size": "5"}]}}, "output_0": {"name": "Identity:0", "dtype": "DT_FLOAT", "tensorShape": {"dim": [{"size": "-1"}, {"size": "1"}]}}}}, "modelTopology": {"node": [{"name": "StatefulPartitionedCall/functional_1/dense_2/Cast/ReadVariableOp", "op": "Const", "attr": {"value": {"tensor": {"dtype": "DT_FLOAT", "tensorShape": {"dim": [{"size": "1280"}, {"size": "64"}]}}}, "dtype": {"type": "DT_FLOAT"}}}, {"name": "StatefulPartitionedCall/functional_1/dense_2/BiasAdd/ReadVariableOp", "op": "Const", "attr": {"value": {"tensor": {"dtype": "DT_FLOAT", "tensorShape": {"dim": [{"size": "64"}]}}}, "dtype": {"type": "DT_FLOAT"}}}, {"name": "StatefulPartitionedCall/functional_1/heaven_1/Cast/ReadVariableOp", "op": "Const", "attr": {"value": {"tensor": {"dtype": "DT_FLOAT", "tensorShape": {"dim": [{"size": "64"}, {"size": "1"}]}}}, "dtype": {"type": "DT_FLOAT"}}}, {"name": "StatefulPartitionedCall/functional_1/heaven_1/Add/ReadVariableOp", "op": "Const", "attr": {"value": {"tensor": {"dtype": "DT_FLOAT", "tensorShape": {"dim": [{"size": "1"}]}}}, "dtype": {"type": "DT_FLOAT"}}}, {"name": "StatefulPartitionedCall/functional_1/mobilenetv2_0.35_224_1/block_15_project_BN_1/batchnorm/sub", "op": "Const", "attr": {"value": {"tensor": {"dtype": "DT_FLOAT", "tensorShape": {"dim": [{"size": "56"}]}}}, "dtype": {"type": "DT_FLOAT"}}}, {"name": "StatefulPartitionedCall/functional_1/mobilenetv2_0.35_224_1/block_14_project_BN_1/batchnorm/sub", "op": "Const", "attr": {"value": {"tensor": {"dtype": "DT_FLOAT", "tensorShape": {"dim": [{"size": "56"}]}}}, "dtype": {"type": "DT_FLOAT"}}}, {"name": "StatefulPartitionedCall/functional_1/mobilenetv2_0.35_224_1/block_12_project_BN_1/batchnorm/sub", "op": "Const", "attr": {"value": {"tensor": {"dtype": "DT_FLOAT", "tensorShape": {"dim": [{"size": "32"}]}}}, "dtype": {"type": "DT_FLOAT"}}}, {"name": "StatefulPartitionedCall/functional_1/mobilenetv2_0.35_224_1/block_11_project_BN_1/batchnorm/sub", "op": "Const", "attr": {"value": {"tensor": {"dtype": "DT_FLOAT", "tensorShape": {"dim": [{"size": "32"}]}}}, "dtype": {"type": "DT_FLOAT"}}}, {"name": "StatefulPartitionedCall/functional_1/mobilenetv2_0.35_224_1/block_9_project_BN_1/batchnorm/sub", "op": "Const", "attr": {"value": {"tensor": {"dtype": "DT_FLOAT", "tensorShape": {"dim": [{"size": "24"}]}}}, "dtype": {"type": "DT_FLOAT"}}}, {"name": "StatefulPartitionedCall/functional_1/mobilenetv2_0.35_224_1/block_8_project_BN_1/batchnorm/sub", "op": "Const", "attr": {"value": {"tensor": {"dtype": "DT_FLOAT", "tensorShape": {"dim": [{"size": "24"}]}}}, "dtype": {"type": "DT_FLOAT"}}}, {"name": "StatefulPartitionedCall/functional_1/mobilenetv2_0.35_224_1/block_7_project_BN_1/batchnorm/sub", "op": "Const", "attr": {"value": {"tensor": {"dtype": "DT_FLOAT", "tensorShape": {"dim": [{"size": "24"}]}}}, "dtype": {"type": "DT_FLOAT"}}}, {"name": "StatefulPartitionedCall/functional_1/mobilenetv2_0.35_224_1/block_5_project_BN_1/batchnorm/sub", "op": "Const", "attr": {"value": {"tensor": {"dtype": "DT_FLOAT", "tensorShape": {"dim": [{"size": "16"}]}}}, "dtype": {"type": "DT_FLOAT"}}}, {"name": "StatefulPartitionedCall/functional_1/mobilenetv2_0.35_224_1/block_4_project_BN_1/batchnorm/sub", "op": "Const", "attr": {"value": {"tensor": {"dtype": "DT_FLOAT", "tensorShape": {"dim": [{"size": "16"}]}}}, "dtype": {"type": "DT_FLOAT"}}}, {"name": "StatefulPartitionedCall/functional_1/mobilenetv2_0.35_224_1/block_2_project_BN_1/batchnorm/sub", "op": "Const", "attr": {"value": {"tensor": {"dtype": "DT_FLOAT", "tensorShape": {"dim": [{"size": "8"}]}}}, "dtype": {"type": "DT_FLOAT"}}}, {"name": "StatefulPartitionedCall/functional_1/concatenate_1/concat/axis", "op": "Const", "attr": {"value": {"tensor": {"dtype": "DT_INT32", "tensorShape": {}}}, "dtype": {"type": "DT_INT32"}}}, {"name": "StatefulPartitionedCall/functional_1/rescaling_1/Cast/x", "op": "Const", "attr": {"value": {"tensor": {"dtype": "DT_FLOAT", "tensorShape": {}}}, "dtype": {"type": "DT_FLOAT"}}}, {"name": "StatefulPartitionedCall/functional_1/rescaling_1/Cast_1/x", "op": "Const", "attr": {"value": {"tensor": {"dtype": "DT_FLOAT", "tensorShape": {}}}, "dtype": {"type": "DT_FLOAT"}}}, {"name": "StatefulPartitionedCall/functional_1/mobilenetv2_0.35_224_1/Conv1_1/convolution/merged_input", "op": "Const", "attr": {"value": {"tensor": {"dtype": "DT_FLOAT", "tensorShape": {"dim": [{"size": "3"}, {"size": "3"}, {"size": "3"}, {"size": "16"}]}}}, "dtype": {"type": "DT_FLOAT"}}}, {"name": "StatefulPartitionedCall/functional_1/mobilenetv2_0.35_224_1/bn_Conv1_1/batchnorm/sub", "op": "Const", "attr": {"value": {"tensor": {"dtype": "DT_FLOAT", "tensorShape": {"dim": [{"size": "16"}]}}}, "dtype": {"type": "DT_FLOAT"}}}, {"name": "StatefulPartitionedCall/functional_1/mobilenetv2_0.35_224_1/expanded_conv_depthwise_1/depthwise/ReadVariableOp", "op": "Const", "attr": {"value": {"tensor": {"dtype": "DT_FLOAT", "tensorShape": {"dim": [{"size": "3"}, {"size": "3"}, {"size": "16"}, {"size": "1"}]}}}, "dtype": {"type": "DT_FLOAT"}}}, {"name": "StatefulPartitionedCall/functional_1/mobilenetv2_0.35_224_1/expanded_conv_depthwise_BN_1/batchnorm/mul", "op": "Const", "attr": {"value": {"tensor": {"dtype": "DT_FLOAT", "tensorShape": {"dim": [{"size": "16"}]}}}, "dtype": {"type": "DT_FLOAT"}}}, {"name": "StatefulPartitionedCall/functional_1/mobilenetv2_0.35_224_1/expanded_conv_depthwise_BN_1/batchnorm/sub", "op": "Const", "attr": {"value": {"tensor": {"dtype": "DT_FLOAT", "tensorShape": {"dim": [{"size": "16"}]}}}, "dtype": {"type": "DT_FLOAT"}}}, {"name": "StatefulPartitionedCall/functional_1/mobilenetv2_0.35_224_1/expanded_conv_project_1/convolution/merged_input", "op": "Const", "attr": {"value": {"tensor": {"dtype": "DT_FLOAT", "tensorShape": {"dim": [{"size": "1"}, {"size": "1"}, {"size": "16"}, {"size": "8"}]}}}, "dtype": {"type": "DT_FLOAT"}}}, {"name": "StatefulPartitionedCall/functional_1/mobilenetv2_0.35_224_1/expanded_conv_project_BN_1/batchnorm/sub", "op": "Const", "attr": {"value": {"tensor": {"dtype": "DT_FLOAT", "tensorShape": {"dim": [{"size": "8"}]}}}, "dtype": {"type": "DT_FLOAT"}}}, {"name": "StatefulPartitionedCall/functional_1/mobilenetv2_0.35_224_1/block_1_expand_1/convolution/merged_input", "op": "Const", "attr": {"value": {"tensor": {"dtype": "DT_FLOAT", "tensorShape": {"dim": [{"size": "1"}, {"size": "1"}, {"size": "8"}, {"size": "48"}]}}}, "dtype": {"type": "DT_FLOAT"}}}, {"name": "StatefulPartitionedCall/functional_1/mobilenetv2_0.35_224_1/block_1_expand_BN_1/batchnorm/sub", "op": "Const", "attr": {"value": {"tensor": {"dtype": "DT_FLOAT", "tensorShape": {"dim": [{"size": "48"}]}}}, "dtype": {"type": "DT_FLOAT"}}}, {"name": "StatefulPartitionedCall/functional_1/mobilenetv2_0.35_224_1/block_1_pad_1/Const", "op": "Const", "attr": {"value": {"tensor": {"dtype": "DT_INT32", "tensorShape": {"dim": [{"size": "4"}, {"size": "2"}]}}}, "dtype": {"type": "DT_INT32"}}}, {"name": "StatefulPartitionedCall/functional_1/mobilenetv2_0.35_224_1/block_1_depthwise_1/depthwise/ReadVariableOp", "op": "Const", "attr": {"value": {"tensor": {"dtype": "DT_FLOAT", "tensorShape": {"dim": [{"size": "3"}, {"size": "3"}, {"size": "48"}, {"size": "1"}]}}}, "dtype": {"type": "DT_FLOAT"}}}, {"name": "StatefulPartitionedCall/functional_1/mobilenetv2_0.35_224_1/block_1_depthwise_BN_1/batchnorm/mul", "op": "Const", "attr": {"value": {"tensor": {"dtype": "DT_FLOAT", "tensorShape": {"dim": [{"size": "48"}]}}}, "dtype": {"type": "DT_FLOAT"}}}, {"name": "StatefulPartitionedCall/functional_1/mobilenetv2_0.35_224_1/block_1_depthwise_BN_1/batchnorm/sub", "op": "Const", "attr": {"value": {"tensor": {"dtype": "DT_FLOAT", "tensorShape": {"dim": [{"size": "48"}]}}}, "dtype": {"type": "DT_FLOAT"}}}, {"name": "StatefulPartitionedCall/functional_1/mobilenetv2_0.35_224_1/block_1_project_1/convolution/merged_input", "op": "Const", "attr": {"value": {"tensor": {"dtype": "DT_FLOAT", "tensorShape": {"dim": [{"size": "1"}, {"size": "1"}, {"size": "48"}, {"size": "8"}]}}}, "dtype": {"type": "DT_FLOAT"}}}, {"name": "StatefulPartitionedCall/functional_1/mobilenetv2_0.35_224_1/block_1_project_BN_1/batchnorm/sub", "op": "Const", "attr": {"value": {"tensor": {"dtype": "DT_FLOAT", "tensorShape": {"dim": [{"size": "8"}]}}}, "dtype": {"type": "DT_FLOAT"}}}, {"name": "StatefulPartitionedCall/functional_1/mobilenetv2_0.35_224_1/block_2_expand_1/convolution/merged_input", "op": "Const", "attr": {"value": {"tensor": {"dtype": "DT_FLOAT", "tensorShape": {"dim": [{"size": "1"}, {"size": "1"}, {"size": "8"}, {"size": "48"}]}}}, "dtype": {"type": "DT_FLOAT"}}}, {"name": "StatefulPartitionedCall/functional_1/mobilenetv2_0.35_224_1/block_2_expand_BN_1/batchnorm/sub", "op": "Const", "attr": {"value": {"tensor": {"dtype": "DT_FLOAT", "tensorShape": {"dim": [{"size": "48"}]}}}, "dtype": {"type": "DT_FLOAT"}}}, {"name": "StatefulPartitionedCall/functional_1/mobilenetv2_0.35_224_1/block_2_depthwise_1/depthwise/ReadVariableOp", "op": "Const", "attr": {"value": {"tensor": {"dtype": "DT_FLOAT", "tensorShape": {"dim": [{"size": "3"}, {"size": "3"}, {"size": "48"}, {"size": "1"}]}}}, "dtype": {"type": "DT_FLOAT"}}}, {"name": "StatefulPartitionedCall/functional_1/mobilenetv2_0.35_224_1/block_2_depthwise_BN_1/batchnorm/mul", "op": "Const", "attr": {"value": {"tensor": {"dtype": "DT_FLOAT", "tensorShape": {"dim": [{"size": "48"}]}}}, "dtype": {"type": "DT_FLOAT"}}}, {"name": "StatefulPartitionedCall/functional_1/mobilenetv2_0.35_224_1/block_2_depthwise_BN_1/batchnorm/sub", "op": "Const", "attr": {"value": {"tensor": {"dtype": "DT_FLOAT", "tensorShape": {"dim": [{"size": "48"}]}}}, "dtype": {"type": "DT_FLOAT"}}}, {"name": "StatefulPartitionedCall/functional_1/mobilenetv2_0.35_224_1/block_2_project_1/convolution/merged_input", "op": "Const", "attr": {"value": {"tensor": {"dtype": "DT_FLOAT", "tensorShape": {"dim": [{"size": "1"}, {"size": "1"}, {"size": "48"}, {"size": "8"}]}}}, "dtype": {"type": "DT_FLOAT"}}}, {"name": "StatefulPartitionedCall/functional_1/mobilenetv2_0.35_224_1/block_3_expand_1/convolution/merged_input", "op": "Const", "attr": {"value": {"tensor": {"dtype": "DT_FLOAT", "tensorShape": {"dim": [{"size": "1"}, {"size": "1"}, {"size": "8"}, {"size": "48"}]}}}, "dtype": {"type": "DT_FLOAT"}}}, {"name": "StatefulPartitionedCall/functional_1/mobilenetv2_0.35_224_1/block_3_expand_BN_1/batchnorm/sub", "op": "Const", "attr": {"value": {"tensor": {"dtype": "DT_FLOAT", "tensorShape": {"dim": [{"size": "48"}]}}}, "dtype": {"type": "DT_FLOAT"}}}, {"name": "StatefulPartitionedCall/functional_1/mobilenetv2_0.35_224_1/block_3_pad_1/Const", "op": "Const", "attr": {"value": {"tensor": {"dtype": "DT_INT32", "tensorShape": {"dim": [{"size": "4"}, {"size": "2"}]}}}, "dtype": {"type": "DT_INT32"}}}, {"name": "StatefulPartitionedCall/functional_1/mobilenetv2_0.35_224_1/block_3_depthwise_1/depthwise/ReadVariableOp", "op": "Const", "attr": {"value": {"tensor": {"dtype": "DT_FLOAT", "tensorShape": {"dim": [{"size": "3"}, {"size": "3"}, {"size": "48"}, {"size": "1"}]}}}, "dtype": {"type": "DT_FLOAT"}}}, {"name": "StatefulPartitionedCall/functional_1/mobilenetv2_0.35_224_1/block_3_depthwise_BN_1/batchnorm/mul", "op": "Const", "attr": {"value": {"tensor": {"dtype": "DT_FLOAT", "tensorShape": {"dim": [{"size": "48"}]}}}, "dtype": {"type": "DT_FLOAT"}}}, {"name": "StatefulPartitionedCall/functional_1/mobilenetv2_0.35_224_1/block_3_depthwise_BN_1/batchnorm/sub", "op": "Const", "attr": {"value": {"tensor": {"dtype": "DT_FLOAT", "tensorShape": {"dim": [{"size": "48"}]}}}, "dtype": {"type": "DT_FLOAT"}}}, {"name": "StatefulPartitionedCall/functional_1/mobilenetv2_0.35_224_1/block_3_project_1/convolution/merged_input", "op": "Const", "attr": {"value": {"tensor": {"dtype": "DT_FLOAT", "tensorShape": {"dim": [{"size": "1"}, {"size": "1"}, {"size": "48"}, {"size": "16"}]}}}, "dtype": {"type": "DT_FLOAT"}}}, {"name": "StatefulPartitionedCall/functional_1/mobilenetv2_0.35_224_1/block_3_project_BN_1/batchnorm/sub", "op": "Const", "attr": {"value": {"tensor": {"dtype": "DT_FLOAT", "tensorShape": {"dim": [{"size": "16"}]}}}, "dtype": {"type": "DT_FLOAT"}}}, {"name": "StatefulPartitionedCall/functional_1/mobilenetv2_0.35_224_1/block_4_expand_1/convolution/merged_input", "op": "Const", "attr": {"value": {"tensor": {"dtype": "DT_FLOAT", "tensorShape": {"dim": [{"size": "1"}, {"size": "1"}, {"size": "16"}, {"size": "96"}]}}}, "dtype": {"type": "DT_FLOAT"}}}, {"name": "StatefulPartitionedCall/functional_1/mobilenetv2_0.35_224_1/block_4_expand_BN_1/batchnorm/sub", "op": "Const", "attr": {"value": {"tensor": {"dtype": "DT_FLOAT", "tensorShape": {"dim": [{"size": "96"}]}}}, "dtype": {"type": "DT_FLOAT"}}}, {"name": "StatefulPartitionedCall/functional_1/mobilenetv2_0.35_224_1/block_4_depthwise_1/depthwise/ReadVariableOp", "op": "Const", "attr": {"value": {"tensor": {"dtype": "DT_FLOAT", "tensorShape": {"dim": [{"size": "3"}, {"size": "3"}, {"size": "96"}, {"size": "1"}]}}}, "dtype": {"type": "DT_FLOAT"}}}, {"name": "StatefulPartitionedCall/functional_1/mobilenetv2_0.35_224_1/block_4_depthwise_BN_1/batchnorm/mul", "op": "Const", "attr": {"value": {"tensor": {"dtype": "DT_FLOAT", "tensorShape": {"dim": [{"size": "96"}]}}}, "dtype": {"type": "DT_FLOAT"}}}, {"name": "StatefulPartitionedCall/functional_1/mobilenetv2_0.35_224_1/block_4_depthwise_BN_1/batchnorm/sub", "op": "Const", "attr": {"value": {"tensor": {"dtype": "DT_FLOAT", "tensorShape": {"dim": [{"size": "96"}]}}}, "dtype": {"type": "DT_FLOAT"}}}, {"name": "StatefulPartitionedCall/functional_1/mobilenetv2_0.35_224_1/block_4_project_1/convolution/merged_input", "op": "Const", "attr": {"value": {"tensor": {"dtype": "DT_FLOAT", "tensorShape": {"dim": [{"size": "1"}, {"size": "1"}, {"size": "96"}, {"size": "16"}]}}}, "dtype": {"type": "DT_FLOAT"}}}, {"name": "StatefulPartitionedCall/functional_1/mobilenetv2_0.35_224_1/block_5_expand_1/convolution/merged_input", "op": "Const", "attr": {"value": {"tensor": {"dtype": "DT_FLOAT", "tensorShape": {"dim": [{"size": "1"}, {"size": "1"}, {"size": "16"}, {"size": "96"}]}}}, "dtype": {"type": "DT_FLOAT"}}}, {"name": "StatefulPartitionedCall/functional_1/mobilenetv2_0.35_224_1/block_5_expand_BN_1/batchnorm/sub", "op": "Const", "attr": {"value": {"tensor": {"dtype": "DT_FLOAT", "tensorShape": {"dim": [{"size": "96"}]}}}, "dtype": {"type": "DT_FLOAT"}}}, {"name": "StatefulPartitionedCall/functional_1/mobilenetv2_0.35_224_1/block_5_depthwise_1/depthwise/ReadVariableOp", "op": "Const", "attr": {"value": {"tensor": {"dtype": "DT_FLOAT", "tensorShape": {"dim": [{"size": "3"}, {"size": "3"}, {"size": "96"}, {"size": "1"}]}}}, "dtype": {"type": "DT_FLOAT"}}}, {"name": "StatefulPartitionedCall/functional_1/mobilenetv2_0.35_224_1/block_5_depthwise_BN_1/batchnorm/mul", "op": "Const", "attr": {"value": {"tensor": {"dtype": "DT_FLOAT", "tensorShape": {"dim": [{"size": "96"}]}}}, "dtype": {"type": "DT_FLOAT"}}}, {"name": "StatefulPartitionedCall/functional_1/mobilenetv2_0.35_224_1/block_5_depthwise_BN_1/batchnorm/sub", "op": "Const", "attr": {"value": {"tensor": {"dtype": "DT_FLOAT", "tensorShape": {"dim": [{"size": "96"}]}}}, "dtype": {"type": "DT_FLOAT"}}}, {"name": "StatefulPartitionedCall/functional_1/mobilenetv2_0.35_224_1/block_5_project_1/convolution/merged_input", "op": "Const", "attr": {"value": {"tensor": {"dtype": "DT_FLOAT", "tensorShape": {"dim": [{"size": "1"}, {"size": "1"}, {"size": "96"}, {"size": "16"}]}}}, "dtype": {"type": "DT_FLOAT"}}}, {"name": "StatefulPartitionedCall/functional_1/mobilenetv2_0.35_224_1/block_6_expand_1/convolution/merged_input", "op": "Const", "attr": {"value": {"tensor": {"dtype": "DT_FLOAT", "tensorShape": {"dim": [{"size": "1"}, {"size": "1"}, {"size": "16"}, {"size": "96"}]}}}, "dtype": {"type": "DT_FLOAT"}}}, {"name": "StatefulPartitionedCall/functional_1/mobilenetv2_0.35_224_1/block_6_expand_BN_1/batchnorm/sub", "op": "Const", "attr": {"value": {"tensor": {"dtype": "DT_FLOAT", "tensorShape": {"dim": [{"size": "96"}]}}}, "dtype": {"type": "DT_FLOAT"}}}, {"name": "StatefulPartitionedCall/functional_1/mobilenetv2_0.35_224_1/block_6_pad_1/Const", "op": "Const", "attr": {"value": {"tensor": {"dtype": "DT_INT32", "tensorShape": {"dim": [{"size": "4"}, {"size": "2"}]}}}, "dtype": {"type": "DT_INT32"}}}, {"name": "StatefulPartitionedCall/functional_1/mobilenetv2_0.35_224_1/block_6_depthwise_1/depthwise/ReadVariableOp", "op": "Const", "attr": {"value": {"tensor": {"dtype": "DT_FLOAT", "tensorShape": {"dim": [{"size": "3"}, {"size": "3"}, {"size": "96"}, {"size": "1"}]}}}, "dtype": {"type": "DT_FLOAT"}}}, {"name": "StatefulPartitionedCall/functional_1/mobilenetv2_0.35_224_1/block_6_depthwise_BN_1/batchnorm/mul", "op": "Const", "attr": {"value": {"tensor": {"dtype": "DT_FLOAT", "tensorShape": {"dim": [{"size": "96"}]}}}, "dtype": {"type": "DT_FLOAT"}}}, {"name": "StatefulPartitionedCall/functional_1/mobilenetv2_0.35_224_1/block_6_depthwise_BN_1/batchnorm/sub", "op": "Const", "attr": {"value": {"tensor": {"dtype": "DT_FLOAT", "tensorShape": {"dim": [{"size": "96"}]}}}, "dtype": {"type": "DT_FLOAT"}}}, {"name": "StatefulPartitionedCall/functional_1/mobilenetv2_0.35_224_1/block_6_project_1/convolution/merged_input", "op": "Const", "attr": {"value": {"tensor": {"dtype": "DT_FLOAT", "tensorShape": {"dim": [{"size": "1"}, {"size": "1"}, {"size": "96"}, {"size": "24"}]}}}, "dtype": {"type": "DT_FLOAT"}}}, {"name": "StatefulPartitionedCall/functional_1/mobilenetv2_0.35_224_1/block_6_project_BN_1/batchnorm/sub", "op": "Const", "attr": {"value": {"tensor": {"dtype": "DT_FLOAT", "tensorShape": {"dim": [{"size": "24"}]}}}, "dtype": {"type": "DT_FLOAT"}}}, {"name": "StatefulPartitionedCall/functional_1/mobilenetv2_0.35_224_1/block_7_expand_1/convolution/merged_input", "op": "Const", "attr": {"value": {"tensor": {"dtype": "DT_FLOAT", "tensorShape": {"dim": [{"size": "1"}, {"size": "1"}, {"size": "24"}, {"size": "144"}]}}}, "dtype": {"type": "DT_FLOAT"}}}, {"name": "StatefulPartitionedCall/functional_1/mobilenetv2_0.35_224_1/block_7_expand_BN_1/batchnorm/sub", "op": "Const", "attr": {"value": {"tensor": {"dtype": "DT_FLOAT", "tensorShape": {"dim": [{"size": "144"}]}}}, "dtype": {"type": "DT_FLOAT"}}}, {"name": "StatefulPartitionedCall/functional_1/mobilenetv2_0.35_224_1/block_7_depthwise_1/depthwise/ReadVariableOp", "op": "Const", "attr": {"value": {"tensor": {"dtype": "DT_FLOAT", "tensorShape": {"dim": [{"size": "3"}, {"size": "3"}, {"size": "144"}, {"size": "1"}]}}}, "dtype": {"type": "DT_FLOAT"}}}, {"name": "StatefulPartitionedCall/functional_1/mobilenetv2_0.35_224_1/block_7_depthwise_BN_1/batchnorm/mul", "op": "Const", "attr": {"value": {"tensor": {"dtype": "DT_FLOAT", "tensorShape": {"dim": [{"size": "144"}]}}}, "dtype": {"type": "DT_FLOAT"}}}, {"name": "StatefulPartitionedCall/functional_1/mobilenetv2_0.35_224_1/block_7_depthwise_BN_1/batchnorm/sub", "op": "Const", "attr": {"value": {"tensor": {"dtype": "DT_FLOAT", "tensorShape": {"dim": [{"size": "144"}]}}}, "dtype": {"type": "DT_FLOAT"}}}, {"name": "StatefulPartitionedCall/functional_1/mobilenetv2_0.35_224_1/block_7_project_1/convolution/merged_input", "op": "Const", "attr": {"value": {"tensor": {"dtype": "DT_FLOAT", "tensorShape": {"dim": [{"size": "1"}, {"size": "1"}, {"size": "144"}, {"size": "24"}]}}}, "dtype": {"type": "DT_FLOAT"}}}, {"name": "StatefulPartitionedCall/functional_1/mobilenetv2_0.35_224_1/block_8_expand_1/convolution/merged_input", "op": "Const", "attr": {"value": {"tensor": {"dtype": "DT_FLOAT", "tensorShape": {"dim": [{"size": "1"}, {"size": "1"}, {"size": "24"}, {"size": "144"}]}}}, "dtype": {"type": "DT_FLOAT"}}}, {"name": "StatefulPartitionedCall/functional_1/mobilenetv2_0.35_224_1/block_8_expand_BN_1/batchnorm/sub", "op": "Const", "attr": {"value": {"tensor": {"dtype": "DT_FLOAT", "tensorShape": {"dim": [{"size": "144"}]}}}, "dtype": {"type": "DT_FLOAT"}}}, {"name": "StatefulPartitionedCall/functional_1/mobilenetv2_0.35_224_1/block_8_depthwise_1/depthwise/ReadVariableOp", "op": "Const", "attr": {"value": {"tensor": {"dtype": "DT_FLOAT", "tensorShape": {"dim": [{"size": "3"}, {"size": "3"}, {"size": "144"}, {"size": "1"}]}}}, "dtype": {"type": "DT_FLOAT"}}}, {"name": "StatefulPartitionedCall/functional_1/mobilenetv2_0.35_224_1/block_8_depthwise_BN_1/batchnorm/mul", "op": "Const", "attr": {"value": {"tensor": {"dtype": "DT_FLOAT", "tensorShape": {"dim": [{"size": "144"}]}}}, "dtype": {"type": "DT_FLOAT"}}}, {"name": "StatefulPartitionedCall/functional_1/mobilenetv2_0.35_224_1/block_8_depthwise_BN_1/batchnorm/sub", "op": "Const", "attr": {"value": {"tensor": {"dtype": "DT_FLOAT", "tensorShape": {"dim": [{"size": "144"}]}}}, "dtype": {"type": "DT_FLOAT"}}}, {"name": "StatefulPartitionedCall/functional_1/mobilenetv2_0.35_224_1/block_8_project_1/convolution/merged_input", "op": "Const", "attr": {"value": {"tensor": {"dtype": "DT_FLOAT", "tensorShape": {"dim": [{"size": "1"}, {"size": "1"}, {"size": "144"}, {"size": "24"}]}}}, "dtype": {"type": "DT_FLOAT"}}}, {"name": "StatefulPartitionedCall/functional_1/mobilenetv2_0.35_224_1/block_9_expand_1/convolution/merged_input", "op": "Const", "attr": {"value": {"tensor": {"dtype": "DT_FLOAT", "tensorShape": {"dim": [{"size": "1"}, {"size": "1"}, {"size": "24"}, {"size": "144"}]}}}, "dtype": {"type": "DT_FLOAT"}}}, {"name": "StatefulPartitionedCall/functional_1/mobilenetv2_0.35_224_1/block_9_expand_BN_1/batchnorm/sub", "op": "Const", "attr": {"value": {"tensor": {"dtype": "DT_FLOAT", "tensorShape": {"dim": [{"size": "144"}]}}}, "dtype": {"type": "DT_FLOAT"}}}, {"name": "StatefulPartitionedCall/functional_1/mobilenetv2_0.35_224_1/block_9_depthwise_1/depthwise/ReadVariableOp", "op": "Const", "attr": {"value": {"tensor": {"dtype": "DT_FLOAT", "tensorShape": {"dim": [{"size": "3"}, {"size": "3"}, {"size": "144"}, {"size": "1"}]}}}, "dtype": {"type": "DT_FLOAT"}}}, {"name": "StatefulPartitionedCall/functional_1/mobilenetv2_0.35_224_1/block_9_depthwise_BN_1/batchnorm/mul", "op": "Const", "attr": {"value": {"tensor": {"dtype": "DT_FLOAT", "tensorShape": {"dim": [{"size": "144"}]}}}, "dtype": {"type": "DT_FLOAT"}}}, {"name": "StatefulPartitionedCall/functional_1/mobilenetv2_0.35_224_1/block_9_depthwise_BN_1/batchnorm/sub", "op": "Const", "attr": {"value": {"tensor": {"dtype": "DT_FLOAT", "tensorShape": {"dim": [{"size": "144"}]}}}, "dtype": {"type": "DT_FLOAT"}}}, {"name": "StatefulPartitionedCall/functional_1/mobilenetv2_0.35_224_1/block_9_project_1/convolution/merged_input", "op": "Const", "attr": {"value": {"tensor": {"dtype": "DT_FLOAT", "tensorShape": {"dim": [{"size": "1"}, {"size": "1"}, {"size": "144"}, {"size": "24"}]}}}, "dtype": {"type": "DT_FLOAT"}}}, {"name": "StatefulPartitionedCall/functional_1/mobilenetv2_0.35_224_1/block_10_expand_1/convolution/merged_input", "op": "Const", "attr": {"value": {"tensor": {"dtype": "DT_FLOAT", "tensorShape": {"dim": [{"size": "1"}, {"size": "1"}, {"size": "24"}, {"size": "144"}]}}}, "dtype": {"type": "DT_FLOAT"}}}, {"name": "StatefulPartitionedCall/functional_1/mobilenetv2_0.35_224_1/block_10_expand_BN_1/batchnorm/sub", "op": "Const", "attr": {"value": {"tensor": {"dtype": "DT_FLOAT", "tensorShape": {"dim": [{"size": "144"}]}}}, "dtype": {"type": "DT_FLOAT"}}}, {"name": "StatefulPartitionedCall/functional_1/mobilenetv2_0.35_224_1/block_10_depthwise_1/depthwise/ReadVariableOp", "op": "Const", "attr": {"value": {"tensor": {"dtype": "DT_FLOAT", "tensorShape": {"dim": [{"size": "3"}, {"size": "3"}, {"size": "144"}, {"size": "1"}]}}}, "dtype": {"type": "DT_FLOAT"}}}, {"name": "StatefulPartitionedCall/functional_1/mobilenetv2_0.35_224_1/block_10_depthwise_BN_1/batchnorm/mul", "op": "Const", "attr": {"value": {"tensor": {"dtype": "DT_FLOAT", "tensorShape": {"dim": [{"size": "144"}]}}}, "dtype": {"type": "DT_FLOAT"}}}, {"name": "StatefulPartitionedCall/functional_1/mobilenetv2_0.35_224_1/block_10_depthwise_BN_1/batchnorm/sub", "op": "Const", "attr": {"value": {"tensor": {"dtype": "DT_FLOAT", "tensorShape": {"dim": [{"size": "144"}]}}}, "dtype": {"type": "DT_FLOAT"}}}, {"name": "StatefulPartitionedCall/functional_1/mobilenetv2_0.35_224_1/block_10_project_1/convolution/merged_input", "op": "Const", "attr": {"value": {"tensor": {"dtype": "DT_FLOAT", "tensorShape": {"dim": [{"size": "1"}, {"size": "1"}, {"size": "144"}, {"size": "32"}]}}}, "dtype": {"type": "DT_FLOAT"}}}, {"name": "StatefulPartitionedCall/functional_1/mobilenetv2_0.35_224_1/block_10_project_BN_1/batchnorm/sub", "op": "Const", "attr": {"value": {"tensor": {"dtype": "DT_FLOAT", "tensorShape": {"dim": [{"size": "32"}]}}}, "dtype": {"type": "DT_FLOAT"}}}, {"name": "StatefulPartitionedCall/functional_1/mobilenetv2_0.35_224_1/block_11_expand_1/convolution/merged_input", "op": "Const", "attr": {"value": {"tensor": {"dtype": "DT_FLOAT", "tensorShape": {"dim": [{"size": "1"}, {"size": "1"}, {"size": "32"}, {"size": "192"}]}}}, "dtype": {"type": "DT_FLOAT"}}}, {"name": "StatefulPartitionedCall/functional_1/mobilenetv2_0.35_224_1/block_11_expand_BN_1/batchnorm/sub", "op": "Const", "attr": {"value": {"tensor": {"dtype": "DT_FLOAT", "tensorShape": {"dim": [{"size": "192"}]}}}, "dtype": {"type": "DT_FLOAT"}}}, {"name": "StatefulPartitionedCall/functional_1/mobilenetv2_0.35_224_1/block_11_depthwise_1/depthwise/ReadVariableOp", "op": "Const", "attr": {"value": {"tensor": {"dtype": "DT_FLOAT", "tensorShape": {"dim": [{"size": "3"}, {"size": "3"}, {"size": "192"}, {"size": "1"}]}}}, "dtype": {"type": "DT_FLOAT"}}}, {"name": "StatefulPartitionedCall/functional_1/mobilenetv2_0.35_224_1/block_11_depthwise_BN_1/batchnorm/mul", "op": "Const", "attr": {"value": {"tensor": {"dtype": "DT_FLOAT", "tensorShape": {"dim": [{"size": "192"}]}}}, "dtype": {"type": "DT_FLOAT"}}}, {"name": "StatefulPartitionedCall/functional_1/mobilenetv2_0.35_224_1/block_11_depthwise_BN_1/batchnorm/sub", "op": "Const", "attr": {"value": {"tensor": {"dtype": "DT_FLOAT", "tensorShape": {"dim": [{"size": "192"}]}}}, "dtype": {"type": "DT_FLOAT"}}}, {"name": "StatefulPartitionedCall/functional_1/mobilenetv2_0.35_224_1/block_11_project_1/convolution/merged_input", "op": "Const", "attr": {"value": {"tensor": {"dtype": "DT_FLOAT", "tensorShape": {"dim": [{"size": "1"}, {"size": "1"}, {"size": "192"}, {"size": "32"}]}}}, "dtype": {"type": "DT_FLOAT"}}}, {"name": "StatefulPartitionedCall/functional_1/mobilenetv2_0.35_224_1/block_12_expand_1/convolution/merged_input", "op": "Const", "attr": {"value": {"tensor": {"dtype": "DT_FLOAT", "tensorShape": {"dim": [{"size": "1"}, {"size": "1"}, {"size": "32"}, {"size": "192"}]}}}, "dtype": {"type": "DT_FLOAT"}}}, {"name": "StatefulPartitionedCall/functional_1/mobilenetv2_0.35_224_1/block_12_expand_BN_1/batchnorm/sub", "op": "Const", "attr": {"value": {"tensor": {"dtype": "DT_FLOAT", "tensorShape": {"dim": [{"size": "192"}]}}}, "dtype": {"type": "DT_FLOAT"}}}, {"name": "StatefulPartitionedCall/functional_1/mobilenetv2_0.35_224_1/block_12_depthwise_1/depthwise/ReadVariableOp", "op": "Const", "attr": {"value": {"tensor": {"dtype": "DT_FLOAT", "tensorShape": {"dim": [{"size": "3"}, {"size": "3"}, {"size": "192"}, {"size": "1"}]}}}, "dtype": {"type": "DT_FLOAT"}}}, {"name": "StatefulPartitionedCall/functional_1/mobilenetv2_0.35_224_1/block_12_depthwise_BN_1/batchnorm/mul", "op": "Const", "attr": {"value": {"tensor": {"dtype": "DT_FLOAT", "tensorShape": {"dim": [{"size": "192"}]}}}, "dtype": {"type": "DT_FLOAT"}}}, {"name": "StatefulPartitionedCall/functional_1/mobilenetv2_0.35_224_1/block_12_depthwise_BN_1/batchnorm/sub", "op": "Const", "attr": {"value": {"tensor": {"dtype": "DT_FLOAT", "tensorShape": {"dim": [{"size": "192"}]}}}, "dtype": {"type": "DT_FLOAT"}}}, {"name": "StatefulPartitionedCall/functional_1/mobilenetv2_0.35_224_1/block_12_project_1/convolution/merged_input", "op": "Const", "attr": {"value": {"tensor": {"dtype": "DT_FLOAT", "tensorShape": {"dim": [{"size": "1"}, {"size": "1"}, {"size": "192"}, {"size": "32"}]}}}, "dtype": {"type": "DT_FLOAT"}}}, {"name": "StatefulPartitionedCall/functional_1/mobilenetv2_0.35_224_1/block_13_expand_1/convolution/merged_input", "op": "Const", "attr": {"value": {"tensor": {"dtype": "DT_FLOAT", "tensorShape": {"dim": [{"size": "1"}, {"size": "1"}, {"size": "32"}, {"size": "192"}]}}}, "dtype": {"type": "DT_FLOAT"}}}, {"name": "StatefulPartitionedCall/functional_1/mobilenetv2_0.35_224_1/block_13_expand_BN_1/batchnorm/sub", "op": "Const", "attr": {"value": {"tensor": {"dtype": "DT_FLOAT", "tensorShape": {"dim": [{"size": "192"}]}}}, "dtype": {"type": "DT_FLOAT"}}}, {"name": "StatefulPartitionedCall/functional_1/mobilenetv2_0.35_224_1/block_13_pad_1/Const", "op": "Const", "attr": {"value": {"tensor": {"dtype": "DT_INT32", "tensorShape": {"dim": [{"size": "4"}, {"size": "2"}]}}}, "dtype": {"type": "DT_INT32"}}}, {"name": "StatefulPartitionedCall/functional_1/mobilenetv2_0.35_224_1/block_13_depthwise_1/depthwise/ReadVariableOp", "op": "Const", "attr": {"value": {"tensor": {"dtype": "DT_FLOAT", "tensorShape": {"dim": [{"size": "3"}, {"size": "3"}, {"size": "192"}, {"size": "1"}]}}}, "dtype": {"type": "DT_FLOAT"}}}, {"name": "StatefulPartitionedCall/functional_1/mobilenetv2_0.35_224_1/block_13_depthwise_BN_1/batchnorm/mul", "op": "Const", "attr": {"value": {"tensor": {"dtype": "DT_FLOAT", "tensorShape": {"dim": [{"size": "192"}]}}}, "dtype": {"type": "DT_FLOAT"}}}, {"name": "StatefulPartitionedCall/functional_1/mobilenetv2_0.35_224_1/block_13_depthwise_BN_1/batchnorm/sub", "op": "Const", "attr": {"value": {"tensor": {"dtype": "DT_FLOAT", "tensorShape": {"dim": [{"size": "192"}]}}}, "dtype": {"type": "DT_FLOAT"}}}, {"name": "StatefulPartitionedCall/functional_1/mobilenetv2_0.35_224_1/block_13_project_1/convolution/merged_input", "op": "Const", "attr": {"value": {"tensor": {"dtype": "DT_FLOAT", "tensorShape": {"dim": [{"size": "1"}, {"size": "1"}, {"size": "192"}, {"size": "56"}]}}}, "dtype": {"type": "DT_FLOAT"}}}, {"name": "StatefulPartitionedCall/functional_1/mobilenetv2_0.35_224_1/block_13_project_BN_1/batchnorm/sub", "op": "Const", "attr": {"value": {"tensor": {"dtype": "DT_FLOAT", "tensorShape": {"dim": [{"size": "56"}]}}}, "dtype": {"type": "DT_FLOAT"}}}, {"name": "StatefulPartitionedCall/functional_1/mobilenetv2_0.35_224_1/block_14_expand_1/convolution/merged_input", "op": "Const", "attr": {"value": {"tensor": {"dtype": "DT_FLOAT", "tensorShape": {"dim": [{"size": "1"}, {"size": "1"}, {"size": "56"}, {"size": "336"}]}}}, "dtype": {"type": "DT_FLOAT"}}}, {"name": "StatefulPartitionedCall/functional_1/mobilenetv2_0.35_224_1/block_14_expand_BN_1/batchnorm/sub", "op": "Const", "attr": {"value": {"tensor": {"dtype": "DT_FLOAT", "tensorShape": {"dim": [{"size": "336"}]}}}, "dtype": {"type": "DT_FLOAT"}}}, {"name": "StatefulPartitionedCall/functional_1/mobilenetv2_0.35_224_1/block_14_depthwise_1/depthwise/ReadVariableOp", "op": "Const", "attr": {"value": {"tensor": {"dtype": "DT_FLOAT", "tensorShape": {"dim": [{"size": "3"}, {"size": "3"}, {"size": "336"}, {"size": "1"}]}}}, "dtype": {"type": "DT_FLOAT"}}}, {"name": "StatefulPartitionedCall/functional_1/mobilenetv2_0.35_224_1/block_14_depthwise_BN_1/batchnorm/mul", "op": "Const", "attr": {"value": {"tensor": {"dtype": "DT_FLOAT", "tensorShape": {"dim": [{"size": "336"}]}}}, "dtype": {"type": "DT_FLOAT"}}}, {"name": "StatefulPartitionedCall/functional_1/mobilenetv2_0.35_224_1/block_14_depthwise_BN_1/batchnorm/sub", "op": "Const", "attr": {"value": {"tensor": {"dtype": "DT_FLOAT", "tensorShape": {"dim": [{"size": "336"}]}}}, "dtype": {"type": "DT_FLOAT"}}}, {"name": "StatefulPartitionedCall/functional_1/mobilenetv2_0.35_224_1/block_14_project_1/convolution/merged_input", "op": "Const", "attr": {"value": {"tensor": {"dtype": "DT_FLOAT", "tensorShape": {"dim": [{"size": "1"}, {"size": "1"}, {"size": "336"}, {"size": "56"}]}}}, "dtype": {"type": "DT_FLOAT"}}}, {"name": "StatefulPartitionedCall/functional_1/mobilenetv2_0.35_224_1/block_15_expand_1/convolution/merged_input", "op": "Const", "attr": {"value": {"tensor": {"dtype": "DT_FLOAT", "tensorShape": {"dim": [{"size": "1"}, {"size": "1"}, {"size": "56"}, {"size": "336"}]}}}, "dtype": {"type": "DT_FLOAT"}}}, {"name": "StatefulPartitionedCall/functional_1/mobilenetv2_0.35_224_1/block_15_expand_BN_1/batchnorm/sub", "op": "Const", "attr": {"value": {"tensor": {"dtype": "DT_FLOAT", "tensorShape": {"dim": [{"size": "336"}]}}}, "dtype": {"type": "DT_FLOAT"}}}, {"name": "StatefulPartitionedCall/functional_1/mobilenetv2_0.35_224_1/block_15_depthwise_1/depthwise/ReadVariableOp", "op": "Const", "attr": {"value": {"tensor": {"dtype": "DT_FLOAT", "tensorShape": {"dim": [{"size": "3"}, {"size": "3"}, {"size": "336"}, {"size": "1"}]}}}, "dtype": {"type": "DT_FLOAT"}}}, {"name": "StatefulPartitionedCall/functional_1/mobilenetv2_0.35_224_1/block_15_depthwise_BN_1/batchnorm/mul", "op": "Const", "attr": {"value": {"tensor": {"dtype": "DT_FLOAT", "tensorShape": {"dim": [{"size": "336"}]}}}, "dtype": {"type": "DT_FLOAT"}}}, {"name": "StatefulPartitionedCall/functional_1/mobilenetv2_0.35_224_1/block_15_depthwise_BN_1/batchnorm/sub", "op": "Const", "attr": {"value": {"tensor": {"dtype": "DT_FLOAT", "tensorShape": {"dim": [{"size": "336"}]}}}, "dtype": {"type": "DT_FLOAT"}}}, {"name": "StatefulPartitionedCall/functional_1/mobilenetv2_0.35_224_1/block_15_project_1/convolution/merged_input", "op": "Const", "attr": {"value": {"tensor": {"dtype": "DT_FLOAT", "tensorShape": {"dim": [{"size": "1"}, {"size": "1"}, {"size": "336"}, {"size": "56"}]}}}, "dtype": {"type": "DT_FLOAT"}}}, {"name": "StatefulPartitionedCall/functional_1/mobilenetv2_0.35_224_1/block_16_expand_1/convolution/merged_input", "op": "Const", "attr": {"value": {"tensor": {"dtype": "DT_FLOAT", "tensorShape": {"dim": [{"size": "1"}, {"size": "1"}, {"size": "56"}, {"size": "336"}]}}}, "dtype": {"type": "DT_FLOAT"}}}, {"name": "StatefulPartitionedCall/functional_1/mobilenetv2_0.35_224_1/block_16_expand_BN_1/batchnorm/sub", "op": "Const", "attr": {"value": {"tensor": {"dtype": "DT_FLOAT", "tensorShape": {"dim": [{"size": "336"}]}}}, "dtype": {"type": "DT_FLOAT"}}}, {"name": "StatefulPartitionedCall/functional_1/mobilenetv2_0.35_224_1/block_16_depthwise_1/depthwise/ReadVariableOp", "op": "Const", "attr": {"value": {"tensor": {"dtype": "DT_FLOAT", "tensorShape": {"dim": [{"size": "3"}, {"size": "3"}, {"size": "336"}, {"size": "1"}]}}}, "dtype": {"type": "DT_FLOAT"}}}, {"name": "StatefulPartitionedCall/functional_1/mobilenetv2_0.35_224_1/block_16_depthwise_BN_1/batchnorm/mul", "op": "Const", "attr": {"value": {"tensor": {"dtype": "DT_FLOAT", "tensorShape": {"dim": [{"size": "336"}]}}}, "dtype": {"type": "DT_FLOAT"}}}, {"name": "StatefulPartitionedCall/functional_1/mobilenetv2_0.35_224_1/block_16_depthwise_BN_1/batchnorm/sub", "op": "Const", "attr": {"value": {"tensor": {"dtype": "DT_FLOAT", "tensorShape": {"dim": [{"size": "336"}]}}}, "dtype": {"type": "DT_FLOAT"}}}, {"name": "StatefulPartitionedCall/functional_1/mobilenetv2_0.35_224_1/block_16_project_1/convolution/merged_input", "op": "Const", "attr": {"value": {"tensor": {"dtype": "DT_FLOAT", "tensorShape": {"dim": [{"size": "1"}, {"size": "1"}, {"size": "336"}, {"size": "112"}]}}}, "dtype": {"type": "DT_FLOAT"}}}, {"name": "StatefulPartitionedCall/functional_1/mobilenetv2_0.35_224_1/block_16_project_BN_1/batchnorm/sub", "op": "Const", "attr": {"value": {"tensor": {"dtype": "DT_FLOAT", "tensorShape": {"dim": [{"size": "112"}]}}}, "dtype": {"type": "DT_FLOAT"}}}, {"name": "StatefulPartitionedCall/functional_1/mobilenetv2_0.35_224_1/Conv_1_1/convolution/merged_input", "op": "Const", "attr": {"value": {"tensor": {"dtype": "DT_FLOAT", "tensorShape": {"dim": [{"size": "1"}, {"size": "1"}, {"size": "112"}, {"size": "1280"}]}}}, "dtype": {"type": "DT_FLOAT"}}}, {"name": "StatefulPartitionedCall/functional_1/mobilenetv2_0.35_224_1/Conv_1_bn_1/batchnorm/sub", "op": "Const", "attr": {"value": {"tensor": {"dtype": "DT_FLOAT", "tensorShape": {"dim": [{"size": "1280"}]}}}, "dtype": {"type": "DT_FLOAT"}}}, {"name": "StatefulPartitionedCall/functional_1/global_average_pooling2d_1/Mean/reduction_indices", "op": "Const", "attr": {"value": {"tensor": {"dtype": "DT_INT32", "tensorShape": {"dim": [{"size": "2"}]}}}, "dtype": {"type": "DT_INT32"}}}, {"name": "StatefulPartitionedCall/functional_1/dense_1_1/Cast/ReadVariableOp", "op": "Const", "attr": {"value": {"tensor": {"dtype": "DT_FLOAT", "tensorShape": {"dim": [{"size": "1280"}, {"size": "64"}]}}}, "dtype": {"type": "DT_FLOAT"}}}, {"name": "StatefulPartitionedCall/functional_1/dense_1_1/BiasAdd/ReadVariableOp", "op": "Const", "attr": {"value": {"tensor": {"dtype": "DT_FLOAT", "tensorShape": {"dim": [{"size": "64"}]}}}, "dtype": {"type": "DT_FLOAT"}}}, {"name": "StatefulPartitionedCall/functional_1/earth_1/Cast/ReadVariableOp", "op": "Const", "attr": {"value": {"tensor": {"dtype": "DT_FLOAT", "tensorShape": {"dim": [{"size": "64"}, {"size": "5"}]}}}, "dtype": {"type": "DT_FLOAT"}}}, {"name": "StatefulPartitionedCall/functional_1/earth_1/BiasAdd/ReadVariableOp", "op": "Const", "attr": {"value": {"tensor": {"dtype": "DT_FLOAT", "tensorShape": {"dim": [{"size": "5"}]}}}, "dtype": {"type": "DT_FLOAT"}}}, {"name": "keras_tensor", "op": "Placeholder", "attr": {"shape": {"shape": {"dim": [{"size": "-1"}, {"size": "128"}, {"size": "64"}, {"size": "1"}]}}, "dtype": {"type": "DT_FLOAT"}}}, {"name": "StatefulPartitionedCall/functional_1/concatenate_1/concat", "op": "ConcatV2", "input": ["keras_tensor", "keras_tensor", "keras_tensor", "StatefulPartitionedCall/functional_1/concatenate_1/concat/axis"], "attr": {"N": {"i": "3"}, "Tidx": {"type": "DT_INT32"}, "T": {"type": "DT_FLOAT"}}}, {"name": "StatefulPartitionedCall/functional_1/rescaling_1/mul", "op": "Mul", "input": ["StatefulPartitionedCall/functional_1/concatenate_1/concat", "StatefulPartitionedCall/functional_1/rescaling_1/Cast/x"], "attr": {"T": {"type": "DT_FLOAT"}}}, {"name": "StatefulPartitionedCall/functional_1/rescaling_1/add", "op": "AddV2", "input": ["StatefulPartitionedCall/functional_1/rescaling_1/mul", "StatefulPartitionedCall/functional_1/rescaling_1/Cast_1/x"], "attr": {"T": {"type": "DT_FLOAT"}}}, {"name": "StatefulPartitionedCall/functional_1/mobilenetv2_0.35_224_1/Conv1_relu_1/Relu6", "op": "_FusedConv2D", "input": ["StatefulPartitionedCall/functional_1/rescaling_1/add", "StatefulPartitionedCall/functional_1/mobilenetv2_0.35_224_1/Conv1_1/convolution/merged_input", "StatefulPartitionedCall/functional_1/mobilenetv2_0.35_224_1/bn_Conv1_1/batchnorm/sub"], "device": "/device:CPU:0", "attr": {"num_host_args": {"i": "0"}, "data_format": {"s": "TkhXQw=="}, "filter_format": {"s": "SFdJTw=="}, "fused_ops": {"list": {"s": ["Qmlhc0FkZA==", "UmVsdTY="]}}, "num_args": {"i": "1"}, "strides": {"list": {"i": ["1", "2", "2", "1"]}}, "TArgs": {"list": {"type": ["DT_FLOAT"]}}, "padding": {"s": "U0FNRQ=="}, "use_cudnn_on_gpu": {"b": true}, "leakyrelu_alpha": {"f": 0.2}, "epsilon": {"f": 0.0}, "T": {"type": "DT_FLOAT"}, "explicit_paddings": {"list": {}}, "dilations": {"list": {"i": ["1", "1", "1", "1"]}}}}, {"name": "StatefulPartitionedCall/functional_1/mobilenetv2_0.35_224_1/expanded_conv_depthwise_1/depthwise", "op": "DepthwiseConv2dNative", "input": ["StatefulPartitionedCall/functional_1/mobilenetv2_0.35_224_1/Conv1_relu_1/Relu6", "StatefulPartitionedCall/functional_1/mobilenetv2_0.35_224_1/expanded_conv_depthwise_1/depthwise/ReadVariableOp"], "attr": {"padding": {"s": "U0FNRQ=="}, "data_format": {"s": "TkhXQw=="}, "T": {"type": "DT_FLOAT"}, "explicit_paddings": {"list": {}}, "dilations": {"list": {"i": ["1", "1", "1", "1"]}}, "strides": {"list": {"i": ["1", "1", "1", "1"]}}}}, {"name": "StatefulPartitionedCall/functional_1/mobilenetv2_0.35_224_1/expanded_conv_depthwise_BN_1/batchnorm/mul_1", "op": "Mul", "input": ["StatefulPartitionedCall/functional_1/mobilenetv2_0.35_224_1/expanded_conv_depthwise_1/depthwise", "StatefulPartitionedCall/functional_1/mobilenetv2_0.35_224_1/expanded_conv_depthwise_BN_1/batchnorm/mul"], "attr": {"T": {"type": "DT_FLOAT"}}}, {"name": "StatefulPartitionedCall/functional_1/mobilenetv2_0.35_224_1/expanded_conv_depthwise_BN_1/batchnorm/add_1", "op": "AddV2", "input": ["StatefulPartitionedCall/functional_1/mobilenetv2_0.35_224_1/expanded_conv_depthwise_BN_1/batchnorm/mul_1", "StatefulPartitionedCall/functional_1/mobilenetv2_0.35_224_1/expanded_conv_depthwise_BN_1/batchnorm/sub"], "attr": {"T": {"type": "DT_FLOAT"}}}, {"name": "StatefulPartitionedCall/functional_1/mobilenetv2_0.35_224_1/expanded_conv_depthwise_relu_1/Relu6", "op": "Relu6", "input": ["StatefulPartitionedCall/functional_1/mobilenetv2_0.35_224_1/expanded_conv_depthwise_BN_1/batchnorm/add_1"], "attr": {"T": {"type": "DT_FLOAT"}}}, {"name": "StatefulPartitionedCall/functional_1/mobilenetv2_0.35_224_1/expanded_conv_project_BN_1/batchnorm/add_1", "op": "_FusedConv2D", "input": ["StatefulPartitionedCall/functional_1/mobilenetv2_0.35_224_1/expanded_conv_depthwise_relu_1/Relu6", "StatefulPartitionedCall/functional_1/mobilenetv2_0.35_224_1/expanded_conv_project_1/convolution/merged_input", "StatefulPartitionedCall/functional_1/mobilenetv2_0.35_224_1/expanded_conv_project_BN_1/batchnorm/sub"], "device": "/device:CPU:0", "attr": {"num_host_args": {"i": "0"}, "data_format": {"s": "TkhXQw=="}, "filter_format": {"s": "SFdJTw=="}, "fused_ops": {"list": {"s": ["Qmlhc0FkZA=="]}}, "num_args": {"i": "1"}, "strides": {"list": {"i": ["1", "1", "1", "1"]}}, "TArgs": {"list": {"type": ["DT_FLOAT"]}}, "padding": {"s": "U0FNRQ=="}, "use_cudnn_on_gpu": {"b": true}, "leakyrelu_alpha": {"f": 0.2}, "epsilon": {"f": 0.0}, "T": {"type": "DT_FLOAT"}, "explicit_paddings": {"list": {}}, "dilations": {"list": {"i": ["1", "1", "1", "1"]}}}}, {"name": "StatefulPartitionedCall/functional_1/mobilenetv2_0.35_224_1/block_1_expand_relu_1/Relu6", "op": "_FusedConv2D", "input": ["StatefulPartitionedCall/functional_1/mobilenetv2_0.35_224_1/expanded_conv_project_BN_1/batchnorm/add_1", "StatefulPartitionedCall/functional_1/mobilenetv2_0.35_224_1/block_1_expand_1/convolution/merged_input", "StatefulPartitionedCall/functional_1/mobilenetv2_0.35_224_1/block_1_expand_BN_1/batchnorm/sub"], "device": "/device:CPU:0", "attr": {"num_host_args": {"i": "0"}, "data_format": {"s": "TkhXQw=="}, "filter_format": {"s": "SFdJTw=="}, "strides": {"list": {"i": ["1", "1", "1", "1"]}}, "num_args": {"i": "1"}, "fused_ops": {"list": {"s": ["Qmlhc0FkZA==", "UmVsdTY="]}}, "TArgs": {"list": {"type": ["DT_FLOAT"]}}, "padding": {"s": "U0FNRQ=="}, "use_cudnn_on_gpu": {"b": true}, "leakyrelu_alpha": {"f": 0.2}, "epsilon": {"f": 0.0}, "T": {"type": "DT_FLOAT"}, "explicit_paddings": {"list": {}}, "dilations": {"list": {"i": ["1", "1", "1", "1"]}}}}, {"name": "StatefulPartitionedCall/functional_1/mobilenetv2_0.35_224_1/block_1_pad_1/Pad", "op": "Pad", "input": ["StatefulPartitionedCall/functional_1/mobilenetv2_0.35_224_1/block_1_expand_relu_1/Relu6", "StatefulPartitionedCall/functional_1/mobilenetv2_0.35_224_1/block_1_pad_1/Const"], "attr": {"Tpaddings": {"type": "DT_INT32"}, "T": {"type": "DT_FLOAT"}}}, {"name": "StatefulPartitionedCall/functional_1/mobilenetv2_0.35_224_1/block_1_depthwise_1/depthwise", "op": "DepthwiseConv2dNative", "input": ["StatefulPartitionedCall/functional_1/mobilenetv2_0.35_224_1/block_1_pad_1/Pad", "StatefulPartitionedCall/functional_1/mobilenetv2_0.35_224_1/block_1_depthwise_1/depthwise/ReadVariableOp"], "attr": {"padding": {"s": "VkFMSUQ="}, "data_format": {"s": "TkhXQw=="}, "T": {"type": "DT_FLOAT"}, "explicit_paddings": {"list": {}}, "dilations": {"list": {"i": ["1", "1", "1", "1"]}}, "strides": {"list": {"i": ["1", "2", "2", "1"]}}}}, {"name": "StatefulPartitionedCall/functional_1/mobilenetv2_0.35_224_1/block_1_depthwise_BN_1/batchnorm/mul_1", "op": "Mul", "input": ["StatefulPartitionedCall/functional_1/mobilenetv2_0.35_224_1/block_1_depthwise_1/depthwise", "StatefulPartitionedCall/functional_1/mobilenetv2_0.35_224_1/block_1_depthwise_BN_1/batchnorm/mul"], "attr": {"T": {"type": "DT_FLOAT"}}}, {"name": "StatefulPartitionedCall/functional_1/mobilenetv2_0.35_224_1/block_1_depthwise_BN_1/batchnorm/add_1", "op": "AddV2", "input": ["StatefulPartitionedCall/functional_1/mobilenetv2_0.35_224_1/block_1_depthwise_BN_1/batchnorm/mul_1", "StatefulPartitionedCall/functional_1/mobilenetv2_0.35_224_1/block_1_depthwise_BN_1/batchnorm/sub"], "attr": {"T": {"type": "DT_FLOAT"}}}, {"name": "StatefulPartitionedCall/functional_1/mobilenetv2_0.35_224_1/block_1_depthwise_relu_1/Relu6", "op": "Relu6", "input": ["StatefulPartitionedCall/functional_1/mobilenetv2_0.35_224_1/block_1_depthwise_BN_1/batchnorm/add_1"], "attr": {"T": {"type": "DT_FLOAT"}}}, {"name": "StatefulPartitionedCall/functional_1/mobilenetv2_0.35_224_1/block_1_project_BN_1/batchnorm/add_1", "op": "_FusedConv2D", "input": ["StatefulPartitionedCall/functional_1/mobilenetv2_0.35_224_1/block_1_depthwise_relu_1/Relu6", "StatefulPartitionedCall/functional_1/mobilenetv2_0.35_224_1/block_1_project_1/convolution/merged_input", "StatefulPartitionedCall/functional_1/mobilenetv2_0.35_224_1/block_1_project_BN_1/batchnorm/sub"], "device": "/device:CPU:0", "attr": {"num_host_args": {"i": "0"}, "data_format": {"s": "TkhXQw=="}, "filter_format": {"s": "SFdJTw=="}, "fused_ops": {"list": {"s": ["Qmlhc0FkZA=="]}}, "num_args": {"i": "1"}, "strides": {"list": {"i": ["1", "1", "1", "1"]}}, "TArgs": {"list": {"type": ["DT_FLOAT"]}}, "padding": {"s": "U0FNRQ=="}, "use_cudnn_on_gpu": {"b": true}, "leakyrelu_alpha": {"f": 0.2}, "epsilon": {"f": 0.0}, "T": {"type": "DT_FLOAT"}, "explicit_paddings": {"list": {}}, "dilations": {"list": {"i": ["1", "1", "1", "1"]}}}}, {"name": "StatefulPartitionedCall/functional_1/mobilenetv2_0.35_224_1/block_2_expand_relu_1/Relu6", "op": "_FusedConv2D", "input": ["StatefulPartitionedCall/functional_1/mobilenetv2_0.35_224_1/block_1_project_BN_1/batchnorm/add_1", "StatefulPartitionedCall/functional_1/mobilenetv2_0.35_224_1/block_2_expand_1/convolution/merged_input", "StatefulPartitionedCall/functional_1/mobilenetv2_0.35_224_1/block_2_expand_BN_1/batchnorm/sub"], "device": "/device:CPU:0", "attr": {"num_host_args": {"i": "0"}, "data_format": {"s": "TkhXQw=="}, "filter_format": {"s": "SFdJTw=="}, "fused_ops": {"list": {"s": ["Qmlhc0FkZA==", "UmVsdTY="]}}, "num_args": {"i": "1"}, "strides": {"list": {"i": ["1", "1", "1", "1"]}}, "TArgs": {"list": {"type": ["DT_FLOAT"]}}, "padding": {"s": "U0FNRQ=="}, "use_cudnn_on_gpu": {"b": true}, "leakyrelu_alpha": {"f": 0.2}, "epsilon": {"f": 0.0}, "T": {"type": "DT_FLOAT"}, "explicit_paddings": {"list": {}}, "dilations": {"list": {"i": ["1", "1", "1", "1"]}}}}, {"name": "StatefulPartitionedCall/functional_1/mobilenetv2_0.35_224_1/block_2_depthwise_1/depthwise", "op": "DepthwiseConv2dNative", "input": ["StatefulPartitionedCall/functional_1/mobilenetv2_0.35_224_1/block_2_expand_relu_1/Relu6", "StatefulPartitionedCall/functional_1/mobilenetv2_0.35_224_1/block_2_depthwise_1/depthwise/ReadVariableOp"], "attr": {"padding": {"s": "U0FNRQ=="}, "data_format": {"s": "TkhXQw=="}, "T": {"type": "DT_FLOAT"}, "explicit_paddings": {"list": {}}, "dilations": {"list": {"i": ["1", "1", "1", "1"]}}, "strides": {"list": {"i": ["1", "1", "1", "1"]}}}}, {"name": "StatefulPartitionedCall/functional_1/mobilenetv2_0.35_224_1/block_2_depthwise_BN_1/batchnorm/mul_1", "op": "Mul", "input": ["StatefulPartitionedCall/functional_1/mobilenetv2_0.35_224_1/block_2_depthwise_1/depthwise", "StatefulPartitionedCall/functional_1/mobilenetv2_0.35_224_1/block_2_depthwise_BN_1/batchnorm/mul"], "attr": {"T": {"type": "DT_FLOAT"}}}, {"name": "StatefulPartitionedCall/functional_1/mobilenetv2_0.35_224_1/block_2_depthwise_BN_1/batchnorm/add_1", "op": "AddV2", "input": ["StatefulPartitionedCall/functional_1/mobilenetv2_0.35_224_1/block_2_depthwise_BN_1/batchnorm/mul_1", "StatefulPartitionedCall/functional_1/mobilenetv2_0.35_224_1/block_2_depthwise_BN_1/batchnorm/sub"], "attr": {"T": {"type": "DT_FLOAT"}}}, {"name": "StatefulPartitionedCall/functional_1/mobilenetv2_0.35_224_1/block_2_depthwise_relu_1/Relu6", "op": "Relu6", "input": ["StatefulPartitionedCall/functional_1/mobilenetv2_0.35_224_1/block_2_depthwise_BN_1/batchnorm/add_1"], "attr": {"T": {"type": "DT_FLOAT"}}}, {"name": "StatefulPartitionedCall/functional_1/mobilenetv2_0.35_224_1/block_2_project_BN_1/batchnorm/mul_1", "op": "Conv2D", "input": ["StatefulPartitionedCall/functional_1/mobilenetv2_0.35_224_1/block_2_depthwise_relu_1/Relu6", "StatefulPartitionedCall/functional_1/mobilenetv2_0.35_224_1/block_2_project_1/convolution/merged_input"], "device": "/device:CPU:0", "attr": {"padding": {"s": "U0FNRQ=="}, "data_format": {"s": "TkhXQw=="}, "strides": {"list": {"i": ["1", "1", "1", "1"]}}, "use_cudnn_on_gpu": {"b": true}, "T": {"type": "DT_FLOAT"}, "explicit_paddings": {"list": {}}, "dilations": {"list": {"i": ["1", "1", "1", "1"]}}}}, {"name": "StatefulPartitionedCall/functional_1/mobilenetv2_0.35_224_1/block_2_add_1/ArithmeticOptimizer/AddOpsRewrite_Leaf_1_Add", "op": "AddN", "input": ["StatefulPartitionedCall/functional_1/mobilenetv2_0.35_224_1/block_1_project_BN_1/batchnorm/add_1", "StatefulPartitionedCall/functional_1/mobilenetv2_0.35_224_1/block_2_project_BN_1/batchnorm/mul_1"], "attr": {"N": {"i": "2"}, "T": {"type": "DT_FLOAT"}, "_grappler_ArithmeticOptimizer_AddOpsRewriteStage": {"b": true}}}, {"name": "StatefulPartitionedCall/functional_1/mobilenetv2_0.35_224_1/block_2_add_1/ArithmeticOptimizer/AddOpsRewrite_Add", "op": "AddV2", "input": ["StatefulPartitionedCall/functional_1/mobilenetv2_0.35_224_1/block_2_project_BN_1/batchnorm/sub", "StatefulPartitionedCall/functional_1/mobilenetv2_0.35_224_1/block_2_add_1/ArithmeticOptimizer/AddOpsRewrite_Leaf_1_Add"], "attr": {"T": {"type": "DT_FLOAT"}, "_grappler_ArithmeticOptimizer_AddOpsRewriteStage": {"b": true}}}, {"name": "StatefulPartitionedCall/functional_1/mobilenetv2_0.35_224_1/block_3_expand_relu_1/Relu6", "op": "_FusedConv2D", "input": ["StatefulPartitionedCall/functional_1/mobilenetv2_0.35_224_1/block_2_add_1/ArithmeticOptimizer/AddOpsRewrite_Add", "StatefulPartitionedCall/functional_1/mobilenetv2_0.35_224_1/block_3_expand_1/convolution/merged_input", "StatefulPartitionedCall/functional_1/mobilenetv2_0.35_224_1/block_3_expand_BN_1/batchnorm/sub"], "device": "/device:CPU:0", "attr": {"num_host_args": {"i": "0"}, "data_format": {"s": "TkhXQw=="}, "filter_format": {"s": "SFdJTw=="}, "strides": {"list": {"i": ["1", "1", "1", "1"]}}, "num_args": {"i": "1"}, "fused_ops": {"list": {"s": ["Qmlhc0FkZA==", "UmVsdTY="]}}, "TArgs": {"list": {"type": ["DT_FLOAT"]}}, "padding": {"s": "U0FNRQ=="}, "use_cudnn_on_gpu": {"b": true}, "leakyrelu_alpha": {"f": 0.2}, "epsilon": {"f": 0.0}, "T": {"type": "DT_FLOAT"}, "explicit_paddings": {"list": {}}, "dilations": {"list": {"i": ["1", "1", "1", "1"]}}}}, {"name": "StatefulPartitionedCall/functional_1/mobilenetv2_0.35_224_1/block_3_pad_1/Pad", "op": "Pad", "input": ["StatefulPartitionedCall/functional_1/mobilenetv2_0.35_224_1/block_3_expand_relu_1/Relu6", "StatefulPartitionedCall/functional_1/mobilenetv2_0.35_224_1/block_3_pad_1/Const"], "attr": {"Tpaddings": {"type": "DT_INT32"}, "T": {"type": "DT_FLOAT"}}}, {"name": "StatefulPartitionedCall/functional_1/mobilenetv2_0.35_224_1/block_3_depthwise_1/depthwise", "op": "DepthwiseConv2dNative", "input": ["StatefulPartitionedCall/functional_1/mobilenetv2_0.35_224_1/block_3_pad_1/Pad", "StatefulPartitionedCall/functional_1/mobilenetv2_0.35_224_1/block_3_depthwise_1/depthwise/ReadVariableOp"], "attr": {"padding": {"s": "VkFMSUQ="}, "data_format": {"s": "TkhXQw=="}, "T": {"type": "DT_FLOAT"}, "explicit_paddings": {"list": {}}, "dilations": {"list": {"i": ["1", "1", "1", "1"]}}, "strides": {"list": {"i": ["1", "2", "2", "1"]}}}}, {"name": "StatefulPartitionedCall/functional_1/mobilenetv2_0.35_224_1/block_3_depthwise_BN_1/batchnorm/mul_1", "op": "Mul", "input": ["StatefulPartitionedCall/functional_1/mobilenetv2_0.35_224_1/block_3_depthwise_1/depthwise", "StatefulPartitionedCall/functional_1/mobilenetv2_0.35_224_1/block_3_depthwise_BN_1/batchnorm/mul"], "attr": {"T": {"type": "DT_FLOAT"}}}, {"name": "StatefulPartitionedCall/functional_1/mobilenetv2_0.35_224_1/block_3_depthwise_BN_1/batchnorm/add_1", "op": "AddV2", "input": ["StatefulPartitionedCall/functional_1/mobilenetv2_0.35_224_1/block_3_depthwise_BN_1/batchnorm/mul_1", "StatefulPartitionedCall/functional_1/mobilenetv2_0.35_224_1/block_3_depthwise_BN_1/batchnorm/sub"], "attr": {"T": {"type": "DT_FLOAT"}}}, {"name": "StatefulPartitionedCall/functional_1/mobilenetv2_0.35_224_1/block_3_depthwise_relu_1/Relu6", "op": "Relu6", "input": ["StatefulPartitionedCall/functional_1/mobilenetv2_0.35_224_1/block_3_depthwise_BN_1/batchnorm/add_1"], "attr": {"T": {"type": "DT_FLOAT"}}}, {"name": "StatefulPartitionedCall/functional_1/mobilenetv2_0.35_224_1/block_3_project_BN_1/batchnorm/add_1", "op": "_FusedConv2D", "input": ["StatefulPartitionedCall/functional_1/mobilenetv2_0.35_224_1/block_3_depthwise_relu_1/Relu6", "StatefulPartitionedCall/functional_1/mobilenetv2_0.35_224_1/block_3_project_1/convolution/merged_input", "StatefulPartitionedCall/functional_1/mobilenetv2_0.35_224_1/block_3_project_BN_1/batchnorm/sub"], "device": "/device:CPU:0", "attr": {"num_host_args": {"i": "0"}, "data_format": {"s": "TkhXQw=="}, "filter_format": {"s": "SFdJTw=="}, "fused_ops": {"list": {"s": ["Qmlhc0FkZA=="]}}, "num_args": {"i": "1"}, "strides": {"list": {"i": ["1", "1", "1", "1"]}}, "TArgs": {"list": {"type": ["DT_FLOAT"]}}, "padding": {"s": "U0FNRQ=="}, "use_cudnn_on_gpu": {"b": true}, "leakyrelu_alpha": {"f": 0.2}, "epsilon": {"f": 0.0}, "T": {"type": "DT_FLOAT"}, "explicit_paddings": {"list": {}}, "dilations": {"list": {"i": ["1", "1", "1", "1"]}}}}, {"name": "StatefulPartitionedCall/functional_1/mobilenetv2_0.35_224_1/block_4_expand_relu_1/Relu6", "op": "_FusedConv2D", "input": ["StatefulPartitionedCall/functional_1/mobilenetv2_0.35_224_1/block_3_project_BN_1/batchnorm/add_1", "StatefulPartitionedCall/functional_1/mobilenetv2_0.35_224_1/block_4_expand_1/convolution/merged_input", "StatefulPartitionedCall/functional_1/mobilenetv2_0.35_224_1/block_4_expand_BN_1/batchnorm/sub"], "device": "/device:CPU:0", "attr": {"num_host_args": {"i": "0"}, "data_format": {"s": "TkhXQw=="}, "filter_format": {"s": "SFdJTw=="}, "fused_ops": {"list": {"s": ["Qmlhc0FkZA==", "UmVsdTY="]}}, "num_args": {"i": "1"}, "strides": {"list": {"i": ["1", "1", "1", "1"]}}, "TArgs": {"list": {"type": ["DT_FLOAT"]}}, "padding": {"s": "U0FNRQ=="}, "use_cudnn_on_gpu": {"b": true}, "leakyrelu_alpha": {"f": 0.2}, "epsilon": {"f": 0.0}, "T": {"type": "DT_FLOAT"}, "explicit_paddings": {"list": {}}, "dilations": {"list": {"i": ["1", "1", "1", "1"]}}}}, {"name": "StatefulPartitionedCall/functional_1/mobilenetv2_0.35_224_1/block_4_depthwise_1/depthwise", "op": "DepthwiseConv2dNative", "input": ["StatefulPartitionedCall/functional_1/mobilenetv2_0.35_224_1/block_4_expand_relu_1/Relu6", "StatefulPartitionedCall/functional_1/mobilenetv2_0.35_224_1/block_4_depthwise_1/depthwise/ReadVariableOp"], "attr": {"padding": {"s": "U0FNRQ=="}, "data_format": {"s": "TkhXQw=="}, "T": {"type": "DT_FLOAT"}, "explicit_paddings": {"list": {}}, "dilations": {"list": {"i": ["1", "1", "1", "1"]}}, "strides": {"list": {"i": ["1", "1", "1", "1"]}}}}, {"name": "StatefulPartitionedCall/functional_1/mobilenetv2_0.35_224_1/block_4_depthwise_BN_1/batchnorm/mul_1", "op": "Mul", "input": ["StatefulPartitionedCall/functional_1/mobilenetv2_0.35_224_1/block_4_depthwise_1/depthwise", "StatefulPartitionedCall/functional_1/mobilenetv2_0.35_224_1/block_4_depthwise_BN_1/batchnorm/mul"], "attr": {"T": {"type": "DT_FLOAT"}}}, {"name": "StatefulPartitionedCall/functional_1/mobilenetv2_0.35_224_1/block_4_depthwise_BN_1/batchnorm/add_1", "op": "AddV2", "input": ["StatefulPartitionedCall/functional_1/mobilenetv2_0.35_224_1/block_4_depthwise_BN_1/batchnorm/mul_1", "StatefulPartitionedCall/functional_1/mobilenetv2_0.35_224_1/block_4_depthwise_BN_1/batchnorm/sub"], "attr": {"T": {"type": "DT_FLOAT"}}}, {"name": "StatefulPartitionedCall/functional_1/mobilenetv2_0.35_224_1/block_4_depthwise_relu_1/Relu6", "op": "Relu6", "input": ["StatefulPartitionedCall/functional_1/mobilenetv2_0.35_224_1/block_4_depthwise_BN_1/batchnorm/add_1"], "attr": {"T": {"type": "DT_FLOAT"}}}, {"name": "StatefulPartitionedCall/functional_1/mobilenetv2_0.35_224_1/block_4_project_BN_1/batchnorm/mul_1", "op": "Conv2D", "input": ["StatefulPartitionedCall/functional_1/mobilenetv2_0.35_224_1/block_4_depthwise_relu_1/Relu6", "StatefulPartitionedCall/functional_1/mobilenetv2_0.35_224_1/block_4_project_1/convolution/merged_input"], "device": "/device:CPU:0", "attr": {"padding": {"s": "U0FNRQ=="}, "data_format": {"s": "TkhXQw=="}, "strides": {"list": {"i": ["1", "1", "1", "1"]}}, "use_cudnn_on_gpu": {"b": true}, "T": {"type": "DT_FLOAT"}, "explicit_paddings": {"list": {}}, "dilations": {"list": {"i": ["1", "1", "1", "1"]}}}}, {"name": "StatefulPartitionedCall/functional_1/mobilenetv2_0.35_224_1/block_4_add_1/ArithmeticOptimizer/AddOpsRewrite_Leaf_1_Add", "op": "AddN", "input": ["StatefulPartitionedCall/functional_1/mobilenetv2_0.35_224_1/block_3_project_BN_1/batchnorm/add_1", "StatefulPartitionedCall/functional_1/mobilenetv2_0.35_224_1/block_4_project_BN_1/batchnorm/mul_1"], "attr": {"N": {"i": "2"}, "T": {"type": "DT_FLOAT"}, "_grappler_ArithmeticOptimizer_AddOpsRewriteStage": {"b": true}}}, {"name": "StatefulPartitionedCall/functional_1/mobilenetv2_0.35_224_1/block_4_add_1/ArithmeticOptimizer/AddOpsRewrite_Add", "op": "AddV2", "input": ["StatefulPartitionedCall/functional_1/mobilenetv2_0.35_224_1/block_4_project_BN_1/batchnorm/sub", "StatefulPartitionedCall/functional_1/mobilenetv2_0.35_224_1/block_4_add_1/ArithmeticOptimizer/AddOpsRewrite_Leaf_1_Add"], "attr": {"T": {"type": "DT_FLOAT"}, "_grappler_ArithmeticOptimizer_AddOpsRewriteStage": {"b": true}}}, {"name": "StatefulPartitionedCall/functional_1/mobilenetv2_0.35_224_1/block_5_expand_relu_1/Relu6", "op": "_FusedConv2D", "input": ["StatefulPartitionedCall/functional_1/mobilenetv2_0.35_224_1/block_4_add_1/ArithmeticOptimizer/AddOpsRewrite_Add", "StatefulPartitionedCall/functional_1/mobilenetv2_0.35_224_1/block_5_expand_1/convolution/merged_input", "StatefulPartitionedCall/functional_1/mobilenetv2_0.35_224_1/block_5_expand_BN_1/batchnorm/sub"], "device": "/device:CPU:0", "attr": {"num_host_args": {"i": "0"}, "data_format": {"s": "TkhXQw=="}, "filter_format": {"s": "SFdJTw=="}, "strides": {"list": {"i": ["1", "1", "1", "1"]}}, "num_args": {"i": "1"}, "fused_ops": {"list": {"s": ["Qmlhc0FkZA==", "UmVsdTY="]}}, "TArgs": {"list": {"type": ["DT_FLOAT"]}}, "padding": {"s": "U0FNRQ=="}, "use_cudnn_on_gpu": {"b": true}, "leakyrelu_alpha": {"f": 0.2}, "epsilon": {"f": 0.0}, "T": {"type": "DT_FLOAT"}, "explicit_paddings": {"list": {}}, "dilations": {"list": {"i": ["1", "1", "1", "1"]}}}}, {"name": "StatefulPartitionedCall/functional_1/mobilenetv2_0.35_224_1/block_5_depthwise_1/depthwise", "op": "DepthwiseConv2dNative", "input": ["StatefulPartitionedCall/functional_1/mobilenetv2_0.35_224_1/block_5_expand_relu_1/Relu6", "StatefulPartitionedCall/functional_1/mobilenetv2_0.35_224_1/block_5_depthwise_1/depthwise/ReadVariableOp"], "attr": {"padding": {"s": "U0FNRQ=="}, "data_format": {"s": "TkhXQw=="}, "T": {"type": "DT_FLOAT"}, "explicit_paddings": {"list": {}}, "dilations": {"list": {"i": ["1", "1", "1", "1"]}}, "strides": {"list": {"i": ["1", "1", "1", "1"]}}}}, {"name": "StatefulPartitionedCall/functional_1/mobilenetv2_0.35_224_1/block_5_depthwise_BN_1/batchnorm/mul_1", "op": "Mul", "input": ["StatefulPartitionedCall/functional_1/mobilenetv2_0.35_224_1/block_5_depthwise_1/depthwise", "StatefulPartitionedCall/functional_1/mobilenetv2_0.35_224_1/block_5_depthwise_BN_1/batchnorm/mul"], "attr": {"T": {"type": "DT_FLOAT"}}}, {"name": "StatefulPartitionedCall/functional_1/mobilenetv2_0.35_224_1/block_5_depthwise_BN_1/batchnorm/add_1", "op": "AddV2", "input": ["StatefulPartitionedCall/functional_1/mobilenetv2_0.35_224_1/block_5_depthwise_BN_1/batchnorm/mul_1", "StatefulPartitionedCall/functional_1/mobilenetv2_0.35_224_1/block_5_depthwise_BN_1/batchnorm/sub"], "attr": {"T": {"type": "DT_FLOAT"}}}, {"name": "StatefulPartitionedCall/functional_1/mobilenetv2_0.35_224_1/block_5_depthwise_relu_1/Relu6", "op": "Relu6", "input": ["StatefulPartitionedCall/functional_1/mobilenetv2_0.35_224_1/block_5_depthwise_BN_1/batchnorm/add_1"], "attr": {"T": {"type": "DT_FLOAT"}}}, {"name": "StatefulPartitionedCall/functional_1/mobilenetv2_0.35_224_1/block_5_project_BN_1/batchnorm/mul_1", "op": "Conv2D", "input": ["StatefulPartitionedCall/functional_1/mobilenetv2_0.35_224_1/block_5_depthwise_relu_1/Relu6", "StatefulPartitionedCall/functional_1/mobilenetv2_0.35_224_1/block_5_project_1/convolution/merged_input"], "device": "/device:CPU:0", "attr": {"padding": {"s": "U0FNRQ=="}, "data_format": {"s": "TkhXQw=="}, "strides": {"list": {"i": ["1", "1", "1", "1"]}}, "use_cudnn_on_gpu": {"b": true}, "T": {"type": "DT_FLOAT"}, "explicit_paddings": {"list": {}}, "dilations": {"list": {"i": ["1", "1", "1", "1"]}}}}, {"name": "StatefulPartitionedCall/functional_1/mobilenetv2_0.35_224_1/block_5_add_1/ArithmeticOptimizer/AddOpsRewrite_Leaf_1_Add", "op": "AddN", "input": ["StatefulPartitionedCall/functional_1/mobilenetv2_0.35_224_1/block_4_add_1/ArithmeticOptimizer/AddOpsRewrite_Add", "StatefulPartitionedCall/functional_1/mobilenetv2_0.35_224_1/block_5_project_BN_1/batchnorm/mul_1"], "attr": {"N": {"i": "2"}, "T": {"type": "DT_FLOAT"}, "_grappler_ArithmeticOptimizer_AddOpsRewriteStage": {"b": true}}}, {"name": "StatefulPartitionedCall/functional_1/mobilenetv2_0.35_224_1/block_5_add_1/ArithmeticOptimizer/AddOpsRewrite_Add", "op": "AddV2", "input": ["StatefulPartitionedCall/functional_1/mobilenetv2_0.35_224_1/block_5_project_BN_1/batchnorm/sub", "StatefulPartitionedCall/functional_1/mobilenetv2_0.35_224_1/block_5_add_1/ArithmeticOptimizer/AddOpsRewrite_Leaf_1_Add"], "attr": {"T": {"type": "DT_FLOAT"}, "_grappler_ArithmeticOptimizer_AddOpsRewriteStage": {"b": true}}}, {"name": "StatefulPartitionedCall/functional_1/mobilenetv2_0.35_224_1/block_6_expand_relu_1/Relu6", "op": "_FusedConv2D", "input": ["StatefulPartitionedCall/functional_1/mobilenetv2_0.35_224_1/block_5_add_1/ArithmeticOptimizer/AddOpsRewrite_Add", "StatefulPartitionedCall/functional_1/mobilenetv2_0.35_224_1/block_6_expand_1/convolution/merged_input", "StatefulPartitionedCall/functional_1/mobilenetv2_0.35_224_1/block_6_expand_BN_1/batchnorm/sub"], "device": "/device:CPU:0", "attr": {"num_host_args": {"i": "0"}, "data_format": {"s": "TkhXQw=="}, "filter_format": {"s": "SFdJTw=="}, "fused_ops": {"list": {"s": ["Qmlhc0FkZA==", "UmVsdTY="]}}, "num_args": {"i": "1"}, "strides": {"list": {"i": ["1", "1", "1", "1"]}}, "TArgs": {"list": {"type": ["DT_FLOAT"]}}, "padding": {"s": "U0FNRQ=="}, "use_cudnn_on_gpu": {"b": true}, "leakyrelu_alpha": {"f": 0.2}, "epsilon": {"f": 0.0}, "T": {"type": "DT_FLOAT"}, "explicit_paddings": {"list": {}}, "dilations": {"list": {"i": ["1", "1", "1", "1"]}}}}, {"name": "StatefulPartitionedCall/functional_1/mobilenetv2_0.35_224_1/block_6_pad_1/Pad", "op": "Pad", "input": ["StatefulPartitionedCall/functional_1/mobilenetv2_0.35_224_1/block_6_expand_relu_1/Relu6", "StatefulPartitionedCall/functional_1/mobilenetv2_0.35_224_1/block_6_pad_1/Const"], "attr": {"Tpaddings": {"type": "DT_INT32"}, "T": {"type": "DT_FLOAT"}}}, {"name": "StatefulPartitionedCall/functional_1/mobilenetv2_0.35_224_1/block_6_depthwise_1/depthwise", "op": "DepthwiseConv2dNative", "input": ["StatefulPartitionedCall/functional_1/mobilenetv2_0.35_224_1/block_6_pad_1/Pad", "StatefulPartitionedCall/functional_1/mobilenetv2_0.35_224_1/block_6_depthwise_1/depthwise/ReadVariableOp"], "attr": {"padding": {"s": "VkFMSUQ="}, "data_format": {"s": "TkhXQw=="}, "T": {"type": "DT_FLOAT"}, "explicit_paddings": {"list": {}}, "dilations": {"list": {"i": ["1", "1", "1", "1"]}}, "strides": {"list": {"i": ["1", "2", "2", "1"]}}}}, {"name": "StatefulPartitionedCall/functional_1/mobilenetv2_0.35_224_1/block_6_depthwise_BN_1/batchnorm/mul_1", "op": "Mul", "input": ["StatefulPartitionedCall/functional_1/mobilenetv2_0.35_224_1/block_6_depthwise_1/depthwise", "StatefulPartitionedCall/functional_1/mobilenetv2_0.35_224_1/block_6_depthwise_BN_1/batchnorm/mul"], "attr": {"T": {"type": "DT_FLOAT"}}}, {"name": "StatefulPartitionedCall/functional_1/mobilenetv2_0.35_224_1/block_6_depthwise_BN_1/batchnorm/add_1", "op": "AddV2", "input": ["StatefulPartitionedCall/functional_1/mobilenetv2_0.35_224_1/block_6_depthwise_BN_1/batchnorm/mul_1", "StatefulPartitionedCall/functional_1/mobilenetv2_0.35_224_1/block_6_depthwise_BN_1/batchnorm/sub"], "attr": {"T": {"type": "DT_FLOAT"}}}, {"name": "StatefulPartitionedCall/functional_1/mobilenetv2_0.35_224_1/block_6_depthwise_relu_1/Relu6", "op": "Relu6", "input": ["StatefulPartitionedCall/functional_1/mobilenetv2_0.35_224_1/block_6_depthwise_BN_1/batchnorm/add_1"], "attr": {"T": {"type": "DT_FLOAT"}}}, {"name": "StatefulPartitionedCall/functional_1/mobilenetv2_0.35_224_1/block_6_project_BN_1/batchnorm/add_1", "op": "_FusedConv2D", "input": ["StatefulPartitionedCall/functional_1/mobilenetv2_0.35_224_1/block_6_depthwise_relu_1/Relu6", "StatefulPartitionedCall/functional_1/mobilenetv2_0.35_224_1/block_6_project_1/convolution/merged_input", "StatefulPartitionedCall/functional_1/mobilenetv2_0.35_224_1/block_6_project_BN_1/batchnorm/sub"], "device": "/device:CPU:0", "attr": {"num_host_args": {"i": "0"}, "data_format": {"s": "TkhXQw=="}, "filter_format": {"s": "SFdJTw=="}, "strides": {"list": {"i": ["1", "1", "1", "1"]}}, "num_args": {"i": "1"}, "fused_ops": {"list": {"s": ["Qmlhc0FkZA=="]}}, "TArgs": {"list": {"type": ["DT_FLOAT"]}}, "padding": {"s": "U0FNRQ=="}, "use_cudnn_on_gpu": {"b": true}, "leakyrelu_alpha": {"f": 0.2}, "epsilon": {"f": 0.0}, "T": {"type": "DT_FLOAT"}, "explicit_paddings": {"list": {}}, "dilations": {"list": {"i": ["1", "1", "1", "1"]}}}}, {"name": "StatefulPartitionedCall/functional_1/mobilenetv2_0.35_224_1/block_7_expand_relu_1/Relu6", "op": "_FusedConv2D", "input": ["StatefulPartitionedCall/functional_1/mobilenetv2_0.35_224_1/block_6_project_BN_1/batchnorm/add_1", "StatefulPartitionedCall/functional_1/mobilenetv2_0.35_224_1/block_7_expand_1/convolution/merged_input", "StatefulPartitionedCall/functional_1/mobilenetv2_0.35_224_1/block_7_expand_BN_1/batchnorm/sub"], "device": "/device:CPU:0", "attr": {"num_host_args": {"i": "0"}, "data_format": {"s": "TkhXQw=="}, "filter_format": {"s": "SFdJTw=="}, "fused_ops": {"list": {"s": ["Qmlhc0FkZA==", "UmVsdTY="]}}, "num_args": {"i": "1"}, "strides": {"list": {"i": ["1", "1", "1", "1"]}}, "TArgs": {"list": {"type": ["DT_FLOAT"]}}, "padding": {"s": "U0FNRQ=="}, "use_cudnn_on_gpu": {"b": true}, "leakyrelu_alpha": {"f": 0.2}, "epsilon": {"f": 0.0}, "T": {"type": "DT_FLOAT"}, "explicit_paddings": {"list": {}}, "dilations": {"list": {"i": ["1", "1", "1", "1"]}}}}, {"name": "StatefulPartitionedCall/functional_1/mobilenetv2_0.35_224_1/block_7_depthwise_1/depthwise", "op": "DepthwiseConv2dNative", "input": ["StatefulPartitionedCall/functional_1/mobilenetv2_0.35_224_1/block_7_expand_relu_1/Relu6", "StatefulPartitionedCall/functional_1/mobilenetv2_0.35_224_1/block_7_depthwise_1/depthwise/ReadVariableOp"], "attr": {"padding": {"s": "U0FNRQ=="}, "data_format": {"s": "TkhXQw=="}, "T": {"type": "DT_FLOAT"}, "explicit_paddings": {"list": {}}, "dilations": {"list": {"i": ["1", "1", "1", "1"]}}, "strides": {"list": {"i": ["1", "1", "1", "1"]}}}}, {"name": "StatefulPartitionedCall/functional_1/mobilenetv2_0.35_224_1/block_7_depthwise_BN_1/batchnorm/mul_1", "op": "Mul", "input": ["StatefulPartitionedCall/functional_1/mobilenetv2_0.35_224_1/block_7_depthwise_1/depthwise", "StatefulPartitionedCall/functional_1/mobilenetv2_0.35_224_1/block_7_depthwise_BN_1/batchnorm/mul"], "attr": {"T": {"type": "DT_FLOAT"}}}, {"name": "StatefulPartitionedCall/functional_1/mobilenetv2_0.35_224_1/block_7_depthwise_BN_1/batchnorm/add_1", "op": "AddV2", "input": ["StatefulPartitionedCall/functional_1/mobilenetv2_0.35_224_1/block_7_depthwise_BN_1/batchnorm/mul_1", "StatefulPartitionedCall/functional_1/mobilenetv2_0.35_224_1/block_7_depthwise_BN_1/batchnorm/sub"], "attr": {"T": {"type": "DT_FLOAT"}}}, {"name": "StatefulPartitionedCall/functional_1/mobilenetv2_0.35_224_1/block_7_depthwise_relu_1/Relu6", "op": "Relu6", "input": ["StatefulPartitionedCall/functional_1/mobilenetv2_0.35_224_1/block_7_depthwise_BN_1/batchnorm/add_1"], "attr": {"T": {"type": "DT_FLOAT"}}}, {"name": "StatefulPartitionedCall/functional_1/mobilenetv2_0.35_224_1/block_7_project_BN_1/batchnorm/mul_1", "op": "Conv2D", "input": ["StatefulPartitionedCall/functional_1/mobilenetv2_0.35_224_1/block_7_depthwise_relu_1/Relu6", "StatefulPartitionedCall/functional_1/mobilenetv2_0.35_224_1/block_7_project_1/convolution/merged_input"], "device": "/device:CPU:0", "attr": {"padding": {"s": "U0FNRQ=="}, "data_format": {"s": "TkhXQw=="}, "strides": {"list": {"i": ["1", "1", "1", "1"]}}, "use_cudnn_on_gpu": {"b": true}, "T": {"type": "DT_FLOAT"}, "explicit_paddings": {"list": {}}, "dilations": {"list": {"i": ["1", "1", "1", "1"]}}}}, {"name": "StatefulPartitionedCall/functional_1/mobilenetv2_0.35_224_1/block_7_add_1/ArithmeticOptimizer/AddOpsRewrite_Leaf_1_Add", "op": "AddN", "input": ["StatefulPartitionedCall/functional_1/mobilenetv2_0.35_224_1/block_6_project_BN_1/batchnorm/add_1", "StatefulPartitionedCall/functional_1/mobilenetv2_0.35_224_1/block_7_project_BN_1/batchnorm/mul_1"], "attr": {"N": {"i": "2"}, "T": {"type": "DT_FLOAT"}, "_grappler_ArithmeticOptimizer_AddOpsRewriteStage": {"b": true}}}, {"name": "StatefulPartitionedCall/functional_1/mobilenetv2_0.35_224_1/block_7_add_1/ArithmeticOptimizer/AddOpsRewrite_Add", "op": "AddV2", "input": ["StatefulPartitionedCall/functional_1/mobilenetv2_0.35_224_1/block_7_project_BN_1/batchnorm/sub", "StatefulPartitionedCall/functional_1/mobilenetv2_0.35_224_1/block_7_add_1/ArithmeticOptimizer/AddOpsRewrite_Leaf_1_Add"], "attr": {"T": {"type": "DT_FLOAT"}, "_grappler_ArithmeticOptimizer_AddOpsRewriteStage": {"b": true}}}, {"name": "StatefulPartitionedCall/functional_1/mobilenetv2_0.35_224_1/block_8_expand_relu_1/Relu6", "op": "_FusedConv2D", "input": ["StatefulPartitionedCall/functional_1/mobilenetv2_0.35_224_1/block_7_add_1/ArithmeticOptimizer/AddOpsRewrite_Add", "StatefulPartitionedCall/functional_1/mobilenetv2_0.35_224_1/block_8_expand_1/convolution/merged_input", "StatefulPartitionedCall/functional_1/mobilenetv2_0.35_224_1/block_8_expand_BN_1/batchnorm/sub"], "device": "/device:CPU:0", "attr": {"num_host_args": {"i": "0"}, "data_format": {"s": "TkhXQw=="}, "filter_format": {"s": "SFdJTw=="}, "strides": {"list": {"i": ["1", "1", "1", "1"]}}, "num_args": {"i": "1"}, "fused_ops": {"list": {"s": ["Qmlhc0FkZA==", "UmVsdTY="]}}, "TArgs": {"list": {"type": ["DT_FLOAT"]}}, "padding": {"s": "U0FNRQ=="}, "use_cudnn_on_gpu": {"b": true}, "leakyrelu_alpha": {"f": 0.2}, "epsilon": {"f": 0.0}, "T": {"type": "DT_FLOAT"}, "explicit_paddings": {"list": {}}, "dilations": {"list": {"i": ["1", "1", "1", "1"]}}}}, {"name": "StatefulPartitionedCall/functional_1/mobilenetv2_0.35_224_1/block_8_depthwise_1/depthwise", "op": "DepthwiseConv2dNative", "input": ["StatefulPartitionedCall/functional_1/mobilenetv2_0.35_224_1/block_8_expand_relu_1/Relu6", "StatefulPartitionedCall/functional_1/mobilenetv2_0.35_224_1/block_8_depthwise_1/depthwise/ReadVariableOp"], "attr": {"padding": {"s": "U0FNRQ=="}, "data_format": {"s": "TkhXQw=="}, "T": {"type": "DT_FLOAT"}, "explicit_paddings": {"list": {}}, "dilations": {"list": {"i": ["1", "1", "1", "1"]}}, "strides": {"list": {"i": ["1", "1", "1", "1"]}}}}, {"name": "StatefulPartitionedCall/functional_1/mobilenetv2_0.35_224_1/block_8_depthwise_BN_1/batchnorm/mul_1", "op": "Mul", "input": ["StatefulPartitionedCall/functional_1/mobilenetv2_0.35_224_1/block_8_depthwise_1/depthwise", "StatefulPartitionedCall/functional_1/mobilenetv2_0.35_224_1/block_8_depthwise_BN_1/batchnorm/mul"], "attr": {"T": {"type": "DT_FLOAT"}}}, {"name": "StatefulPartitionedCall/functional_1/mobilenetv2_0.35_224_1/block_8_depthwise_BN_1/batchnorm/add_1", "op": "AddV2", "input": ["StatefulPartitionedCall/functional_1/mobilenetv2_0.35_224_1/block_8_depthwise_BN_1/batchnorm/mul_1", "StatefulPartitionedCall/functional_1/mobilenetv2_0.35_224_1/block_8_depthwise_BN_1/batchnorm/sub"], "attr": {"T": {"type": "DT_FLOAT"}}}, {"name": "StatefulPartitionedCall/functional_1/mobilenetv2_0.35_224_1/block_8_depthwise_relu_1/Relu6", "op": "Relu6", "input": ["StatefulPartitionedCall/functional_1/mobilenetv2_0.35_224_1/block_8_depthwise_BN_1/batchnorm/add_1"], "attr": {"T": {"type": "DT_FLOAT"}}}, {"name": "StatefulPartitionedCall/functional_1/mobilenetv2_0.35_224_1/block_8_project_BN_1/batchnorm/mul_1", "op": "Conv2D", "input": ["StatefulPartitionedCall/functional_1/mobilenetv2_0.35_224_1/block_8_depthwise_relu_1/Relu6", "StatefulPartitionedCall/functional_1/mobilenetv2_0.35_224_1/block_8_project_1/convolution/merged_input"], "device": "/device:CPU:0", "attr": {"padding": {"s": "U0FNRQ=="}, "data_format": {"s": "TkhXQw=="}, "use_cudnn_on_gpu": {"b": true}, "strides": {"list": {"i": ["1", "1", "1", "1"]}}, "T": {"type": "DT_FLOAT"}, "explicit_paddings": {"list": {}}, "dilations": {"list": {"i": ["1", "1", "1", "1"]}}}}, {"name": "StatefulPartitionedCall/functional_1/mobilenetv2_0.35_224_1/block_8_add_1/ArithmeticOptimizer/AddOpsRewrite_Leaf_1_Add", "op": "AddN", "input": ["StatefulPartitionedCall/functional_1/mobilenetv2_0.35_224_1/block_7_add_1/ArithmeticOptimizer/AddOpsRewrite_Add", "StatefulPartitionedCall/functional_1/mobilenetv2_0.35_224_1/block_8_project_BN_1/batchnorm/mul_1"], "attr": {"N": {"i": "2"}, "T": {"type": "DT_FLOAT"}, "_grappler_ArithmeticOptimizer_AddOpsRewriteStage": {"b": true}}}, {"name": "StatefulPartitionedCall/functional_1/mobilenetv2_0.35_224_1/block_8_add_1/ArithmeticOptimizer/AddOpsRewrite_Add", "op": "AddV2", "input": ["StatefulPartitionedCall/functional_1/mobilenetv2_0.35_224_1/block_8_project_BN_1/batchnorm/sub", "StatefulPartitionedCall/functional_1/mobilenetv2_0.35_224_1/block_8_add_1/ArithmeticOptimizer/AddOpsRewrite_Leaf_1_Add"], "attr": {"T": {"type": "DT_FLOAT"}, "_grappler_ArithmeticOptimizer_AddOpsRewriteStage": {"b": true}}}, {"name": "StatefulPartitionedCall/functional_1/mobilenetv2_0.35_224_1/block_9_expand_relu_1/Relu6", "op": "_FusedConv2D", "input": ["StatefulPartitionedCall/functional_1/mobilenetv2_0.35_224_1/block_8_add_1/ArithmeticOptimizer/AddOpsRewrite_Add", "StatefulPartitionedCall/functional_1/mobilenetv2_0.35_224_1/block_9_expand_1/convolution/merged_input", "StatefulPartitionedCall/functional_1/mobilenetv2_0.35_224_1/block_9_expand_BN_1/batchnorm/sub"], "device": "/device:CPU:0", "attr": {"num_host_args": {"i": "0"}, "data_format": {"s": "TkhXQw=="}, "filter_format": {"s": "SFdJTw=="}, "strides": {"list": {"i": ["1", "1", "1", "1"]}}, "num_args": {"i": "1"}, "fused_ops": {"list": {"s": ["Qmlhc0FkZA==", "UmVsdTY="]}}, "TArgs": {"list": {"type": ["DT_FLOAT"]}}, "padding": {"s": "U0FNRQ=="}, "use_cudnn_on_gpu": {"b": true}, "leakyrelu_alpha": {"f": 0.2}, "epsilon": {"f": 0.0}, "T": {"type": "DT_FLOAT"}, "explicit_paddings": {"list": {}}, "dilations": {"list": {"i": ["1", "1", "1", "1"]}}}}, {"name": "StatefulPartitionedCall/functional_1/mobilenetv2_0.35_224_1/block_9_depthwise_1/depthwise", "op": "DepthwiseConv2dNative", "input": ["StatefulPartitionedCall/functional_1/mobilenetv2_0.35_224_1/block_9_expand_relu_1/Relu6", "StatefulPartitionedCall/functional_1/mobilenetv2_0.35_224_1/block_9_depthwise_1/depthwise/ReadVariableOp"], "attr": {"padding": {"s": "U0FNRQ=="}, "data_format": {"s": "TkhXQw=="}, "T": {"type": "DT_FLOAT"}, "explicit_paddings": {"list": {}}, "dilations": {"list": {"i": ["1", "1", "1", "1"]}}, "strides": {"list": {"i": ["1", "1", "1", "1"]}}}}, {"name": "StatefulPartitionedCall/functional_1/mobilenetv2_0.35_224_1/block_9_depthwise_BN_1/batchnorm/mul_1", "op": "Mul", "input": ["StatefulPartitionedCall/functional_1/mobilenetv2_0.35_224_1/block_9_depthwise_1/depthwise", "StatefulPartitionedCall/functional_1/mobilenetv2_0.35_224_1/block_9_depthwise_BN_1/batchnorm/mul"], "attr": {"T": {"type": "DT_FLOAT"}}}, {"name": "StatefulPartitionedCall/functional_1/mobilenetv2_0.35_224_1/block_9_depthwise_BN_1/batchnorm/add_1", "op": "AddV2", "input": ["StatefulPartitionedCall/functional_1/mobilenetv2_0.35_224_1/block_9_depthwise_BN_1/batchnorm/mul_1", "StatefulPartitionedCall/functional_1/mobilenetv2_0.35_224_1/block_9_depthwise_BN_1/batchnorm/sub"], "attr": {"T": {"type": "DT_FLOAT"}}}, {"name": "StatefulPartitionedCall/functional_1/mobilenetv2_0.35_224_1/block_9_depthwise_relu_1/Relu6", "op": "Relu6", "input": ["StatefulPartitionedCall/functional_1/mobilenetv2_0.35_224_1/block_9_depthwise_BN_1/batchnorm/add_1"], "attr": {"T": {"type": "DT_FLOAT"}}}, {"name": "StatefulPartitionedCall/functional_1/mobilenetv2_0.35_224_1/block_9_project_BN_1/batchnorm/mul_1", "op": "Conv2D", "input": ["StatefulPartitionedCall/functional_1/mobilenetv2_0.35_224_1/block_9_depthwise_relu_1/Relu6", "StatefulPartitionedCall/functional_1/mobilenetv2_0.35_224_1/block_9_project_1/convolution/merged_input"], "device": "/device:CPU:0", "attr": {"padding": {"s": "U0FNRQ=="}, "data_format": {"s": "TkhXQw=="}, "use_cudnn_on_gpu": {"b": true}, "strides": {"list": {"i": ["1", "1", "1", "1"]}}, "T": {"type": "DT_FLOAT"}, "explicit_paddings": {"list": {}}, "dilations": {"list": {"i": ["1", "1", "1", "1"]}}}}, {"name": "StatefulPartitionedCall/functional_1/mobilenetv2_0.35_224_1/block_9_add_1/ArithmeticOptimizer/AddOpsRewrite_Leaf_1_Add", "op": "AddN", "input": ["StatefulPartitionedCall/functional_1/mobilenetv2_0.35_224_1/block_8_add_1/ArithmeticOptimizer/AddOpsRewrite_Add", "StatefulPartitionedCall/functional_1/mobilenetv2_0.35_224_1/block_9_project_BN_1/batchnorm/mul_1"], "attr": {"N": {"i": "2"}, "T": {"type": "DT_FLOAT"}, "_grappler_ArithmeticOptimizer_AddOpsRewriteStage": {"b": true}}}, {"name": "StatefulPartitionedCall/functional_1/mobilenetv2_0.35_224_1/block_9_add_1/ArithmeticOptimizer/AddOpsRewrite_Add", "op": "AddV2", "input": ["StatefulPartitionedCall/functional_1/mobilenetv2_0.35_224_1/block_9_project_BN_1/batchnorm/sub", "StatefulPartitionedCall/functional_1/mobilenetv2_0.35_224_1/block_9_add_1/ArithmeticOptimizer/AddOpsRewrite_Leaf_1_Add"], "attr": {"T": {"type": "DT_FLOAT"}, "_grappler_ArithmeticOptimizer_AddOpsRewriteStage": {"b": true}}}, {"name": "StatefulPartitionedCall/functional_1/mobilenetv2_0.35_224_1/block_10_expand_relu_1/Relu6", "op": "_FusedConv2D", "input": ["StatefulPartitionedCall/functional_1/mobilenetv2_0.35_224_1/block_9_add_1/ArithmeticOptimizer/AddOpsRewrite_Add", "StatefulPartitionedCall/functional_1/mobilenetv2_0.35_224_1/block_10_expand_1/convolution/merged_input", "StatefulPartitionedCall/functional_1/mobilenetv2_0.35_224_1/block_10_expand_BN_1/batchnorm/sub"], "device": "/device:CPU:0", "attr": {"num_host_args": {"i": "0"}, "data_format": {"s": "TkhXQw=="}, "filter_format": {"s": "SFdJTw=="}, "fused_ops": {"list": {"s": ["Qmlhc0FkZA==", "UmVsdTY="]}}, "num_args": {"i": "1"}, "strides": {"list": {"i": ["1", "1", "1", "1"]}}, "TArgs": {"list": {"type": ["DT_FLOAT"]}}, "padding": {"s": "U0FNRQ=="}, "use_cudnn_on_gpu": {"b": true}, "leakyrelu_alpha": {"f": 0.2}, "epsilon": {"f": 0.0}, "T": {"type": "DT_FLOAT"}, "explicit_paddings": {"list": {}}, "dilations": {"list": {"i": ["1", "1", "1", "1"]}}}}, {"name": "StatefulPartitionedCall/functional_1/mobilenetv2_0.35_224_1/block_10_depthwise_1/depthwise", "op": "DepthwiseConv2dNative", "input": ["StatefulPartitionedCall/functional_1/mobilenetv2_0.35_224_1/block_10_expand_relu_1/Relu6", "StatefulPartitionedCall/functional_1/mobilenetv2_0.35_224_1/block_10_depthwise_1/depthwise/ReadVariableOp"], "attr": {"padding": {"s": "U0FNRQ=="}, "data_format": {"s": "TkhXQw=="}, "T": {"type": "DT_FLOAT"}, "explicit_paddings": {"list": {}}, "dilations": {"list": {"i": ["1", "1", "1", "1"]}}, "strides": {"list": {"i": ["1", "1", "1", "1"]}}}}, {"name": "StatefulPartitionedCall/functional_1/mobilenetv2_0.35_224_1/block_10_depthwise_BN_1/batchnorm/mul_1", "op": "Mul", "input": ["StatefulPartitionedCall/functional_1/mobilenetv2_0.35_224_1/block_10_depthwise_1/depthwise", "StatefulPartitionedCall/functional_1/mobilenetv2_0.35_224_1/block_10_depthwise_BN_1/batchnorm/mul"], "attr": {"T": {"type": "DT_FLOAT"}}}, {"name": "StatefulPartitionedCall/functional_1/mobilenetv2_0.35_224_1/block_10_depthwise_BN_1/batchnorm/add_1", "op": "AddV2", "input": ["StatefulPartitionedCall/functional_1/mobilenetv2_0.35_224_1/block_10_depthwise_BN_1/batchnorm/mul_1", "StatefulPartitionedCall/functional_1/mobilenetv2_0.35_224_1/block_10_depthwise_BN_1/batchnorm/sub"], "attr": {"T": {"type": "DT_FLOAT"}}}, {"name": "StatefulPartitionedCall/functional_1/mobilenetv2_0.35_224_1/block_10_depthwise_relu_1/Relu6", "op": "Relu6", "input": ["StatefulPartitionedCall/functional_1/mobilenetv2_0.35_224_1/block_10_depthwise_BN_1/batchnorm/add_1"], "attr": {"T": {"type": "DT_FLOAT"}}}, {"name": "StatefulPartitionedCall/functional_1/mobilenetv2_0.35_224_1/block_10_project_BN_1/batchnorm/add_1", "op": "_FusedConv2D", "input": ["StatefulPartitionedCall/functional_1/mobilenetv2_0.35_224_1/block_10_depthwise_relu_1/Relu6", "StatefulPartitionedCall/functional_1/mobilenetv2_0.35_224_1/block_10_project_1/convolution/merged_input", "StatefulPartitionedCall/functional_1/mobilenetv2_0.35_224_1/block_10_project_BN_1/batchnorm/sub"], "device": "/device:CPU:0", "attr": {"num_host_args": {"i": "0"}, "data_format": {"s": "TkhXQw=="}, "filter_format": {"s": "SFdJTw=="}, "strides": {"list": {"i": ["1", "1", "1", "1"]}}, "num_args": {"i": "1"}, "fused_ops": {"list": {"s": ["Qmlhc0FkZA=="]}}, "TArgs": {"list": {"type": ["DT_FLOAT"]}}, "padding": {"s": "U0FNRQ=="}, "use_cudnn_on_gpu": {"b": true}, "leakyrelu_alpha": {"f": 0.2}, "epsilon": {"f": 0.0}, "T": {"type": "DT_FLOAT"}, "explicit_paddings": {"list": {}}, "dilations": {"list": {"i": ["1", "1", "1", "1"]}}}}, {"name": "StatefulPartitionedCall/functional_1/mobilenetv2_0.35_224_1/block_11_expand_relu_1/Relu6", "op": "_FusedConv2D", "input": ["StatefulPartitionedCall/functional_1/mobilenetv2_0.35_224_1/block_10_project_BN_1/batchnorm/add_1", "StatefulPartitionedCall/functional_1/mobilenetv2_0.35_224_1/block_11_expand_1/convolution/merged_input", "StatefulPartitionedCall/functional_1/mobilenetv2_0.35_224_1/block_11_expand_BN_1/batchnorm/sub"], "device": "/device:CPU:0", "attr": {"num_host_args": {"i": "0"}, "data_format": {"s": "TkhXQw=="}, "filter_format": {"s": "SFdJTw=="}, "fused_ops": {"list": {"s": ["Qmlhc0FkZA==", "UmVsdTY="]}}, "num_args": {"i": "1"}, "strides": {"list": {"i": ["1", "1", "1", "1"]}}, "TArgs": {"list": {"type": ["DT_FLOAT"]}}, "padding": {"s": "U0FNRQ=="}, "use_cudnn_on_gpu": {"b": true}, "leakyrelu_alpha": {"f": 0.2}, "epsilon": {"f": 0.0}, "T": {"type": "DT_FLOAT"}, "explicit_paddings": {"list": {}}, "dilations": {"list": {"i": ["1", "1", "1", "1"]}}}}, {"name": "StatefulPartitionedCall/functional_1/mobilenetv2_0.35_224_1/block_11_depthwise_1/depthwise", "op": "DepthwiseConv2dNative", "input": ["StatefulPartitionedCall/functional_1/mobilenetv2_0.35_224_1/block_11_expand_relu_1/Relu6", "StatefulPartitionedCall/functional_1/mobilenetv2_0.35_224_1/block_11_depthwise_1/depthwise/ReadVariableOp"], "attr": {"padding": {"s": "U0FNRQ=="}, "data_format": {"s": "TkhXQw=="}, "T": {"type": "DT_FLOAT"}, "explicit_paddings": {"list": {}}, "dilations": {"list": {"i": ["1", "1", "1", "1"]}}, "strides": {"list": {"i": ["1", "1", "1", "1"]}}}}, {"name": "StatefulPartitionedCall/functional_1/mobilenetv2_0.35_224_1/block_11_depthwise_BN_1/batchnorm/mul_1", "op": "Mul", "input": ["StatefulPartitionedCall/functional_1/mobilenetv2_0.35_224_1/block_11_depthwise_1/depthwise", "StatefulPartitionedCall/functional_1/mobilenetv2_0.35_224_1/block_11_depthwise_BN_1/batchnorm/mul"], "attr": {"T": {"type": "DT_FLOAT"}}}, {"name": "StatefulPartitionedCall/functional_1/mobilenetv2_0.35_224_1/block_11_depthwise_BN_1/batchnorm/add_1", "op": "AddV2", "input": ["StatefulPartitionedCall/functional_1/mobilenetv2_0.35_224_1/block_11_depthwise_BN_1/batchnorm/mul_1", "StatefulPartitionedCall/functional_1/mobilenetv2_0.35_224_1/block_11_depthwise_BN_1/batchnorm/sub"], "attr": {"T": {"type": "DT_FLOAT"}}}, {"name": "StatefulPartitionedCall/functional_1/mobilenetv2_0.35_224_1/block_11_depthwise_relu_1/Relu6", "op": "Relu6", "input": ["StatefulPartitionedCall/functional_1/mobilenetv2_0.35_224_1/block_11_depthwise_BN_1/batchnorm/add_1"], "attr": {"T": {"type": "DT_FLOAT"}}}, {"name": "StatefulPartitionedCall/functional_1/mobilenetv2_0.35_224_1/block_11_project_BN_1/batchnorm/mul_1", "op": "Conv2D", "input": ["StatefulPartitionedCall/functional_1/mobilenetv2_0.35_224_1/block_11_depthwise_relu_1/Relu6", "StatefulPartitionedCall/functional_1/mobilenetv2_0.35_224_1/block_11_project_1/convolution/merged_input"], "device": "/device:CPU:0", "attr": {"padding": {"s": "U0FNRQ=="}, "data_format": {"s": "TkhXQw=="}, "strides": {"list": {"i": ["1", "1", "1", "1"]}}, "use_cudnn_on_gpu": {"b": true}, "T": {"type": "DT_FLOAT"}, "explicit_paddings": {"list": {}}, "dilations": {"list": {"i": ["1", "1", "1", "1"]}}}}, {"name": "StatefulPartitionedCall/functional_1/mobilenetv2_0.35_224_1/block_11_add_1/ArithmeticOptimizer/AddOpsRewrite_Leaf_1_Add", "op": "AddN", "input": ["StatefulPartitionedCall/functional_1/mobilenetv2_0.35_224_1/block_10_project_BN_1/batchnorm/add_1", "StatefulPartitionedCall/functional_1/mobilenetv2_0.35_224_1/block_11_project_BN_1/batchnorm/mul_1"], "attr": {"N": {"i": "2"}, "T": {"type": "DT_FLOAT"}, "_grappler_ArithmeticOptimizer_AddOpsRewriteStage": {"b": true}}}, {"name": "StatefulPartitionedCall/functional_1/mobilenetv2_0.35_224_1/block_11_add_1/ArithmeticOptimizer/AddOpsRewrite_Add", "op": "AddV2", "input": ["StatefulPartitionedCall/functional_1/mobilenetv2_0.35_224_1/block_11_project_BN_1/batchnorm/sub", "StatefulPartitionedCall/functional_1/mobilenetv2_0.35_224_1/block_11_add_1/ArithmeticOptimizer/AddOpsRewrite_Leaf_1_Add"], "attr": {"T": {"type": "DT_FLOAT"}, "_grappler_ArithmeticOptimizer_AddOpsRewriteStage": {"b": true}}}, {"name": "StatefulPartitionedCall/functional_1/mobilenetv2_0.35_224_1/block_12_expand_relu_1/Relu6", "op": "_FusedConv2D", "input": ["StatefulPartitionedCall/functional_1/mobilenetv2_0.35_224_1/block_11_add_1/ArithmeticOptimizer/AddOpsRewrite_Add", "StatefulPartitionedCall/functional_1/mobilenetv2_0.35_224_1/block_12_expand_1/convolution/merged_input", "StatefulPartitionedCall/functional_1/mobilenetv2_0.35_224_1/block_12_expand_BN_1/batchnorm/sub"], "device": "/device:CPU:0", "attr": {"num_host_args": {"i": "0"}, "data_format": {"s": "TkhXQw=="}, "filter_format": {"s": "SFdJTw=="}, "fused_ops": {"list": {"s": ["Qmlhc0FkZA==", "UmVsdTY="]}}, "num_args": {"i": "1"}, "strides": {"list": {"i": ["1", "1", "1", "1"]}}, "TArgs": {"list": {"type": ["DT_FLOAT"]}}, "padding": {"s": "U0FNRQ=="}, "use_cudnn_on_gpu": {"b": true}, "leakyrelu_alpha": {"f": 0.2}, "epsilon": {"f": 0.0}, "T": {"type": "DT_FLOAT"}, "explicit_paddings": {"list": {}}, "dilations": {"list": {"i": ["1", "1", "1", "1"]}}}}, {"name": "StatefulPartitionedCall/functional_1/mobilenetv2_0.35_224_1/block_12_depthwise_1/depthwise", "op": "DepthwiseConv2dNative", "input": ["StatefulPartitionedCall/functional_1/mobilenetv2_0.35_224_1/block_12_expand_relu_1/Relu6", "StatefulPartitionedCall/functional_1/mobilenetv2_0.35_224_1/block_12_depthwise_1/depthwise/ReadVariableOp"], "attr": {"padding": {"s": "U0FNRQ=="}, "data_format": {"s": "TkhXQw=="}, "T": {"type": "DT_FLOAT"}, "explicit_paddings": {"list": {}}, "dilations": {"list": {"i": ["1", "1", "1", "1"]}}, "strides": {"list": {"i": ["1", "1", "1", "1"]}}}}, {"name": "StatefulPartitionedCall/functional_1/mobilenetv2_0.35_224_1/block_12_depthwise_BN_1/batchnorm/mul_1", "op": "Mul", "input": ["StatefulPartitionedCall/functional_1/mobilenetv2_0.35_224_1/block_12_depthwise_1/depthwise", "StatefulPartitionedCall/functional_1/mobilenetv2_0.35_224_1/block_12_depthwise_BN_1/batchnorm/mul"], "attr": {"T": {"type": "DT_FLOAT"}}}, {"name": "StatefulPartitionedCall/functional_1/mobilenetv2_0.35_224_1/block_12_depthwise_BN_1/batchnorm/add_1", "op": "AddV2", "input": ["StatefulPartitionedCall/functional_1/mobilenetv2_0.35_224_1/block_12_depthwise_BN_1/batchnorm/mul_1", "StatefulPartitionedCall/functional_1/mobilenetv2_0.35_224_1/block_12_depthwise_BN_1/batchnorm/sub"], "attr": {"T": {"type": "DT_FLOAT"}}}, {"name": "StatefulPartitionedCall/functional_1/mobilenetv2_0.35_224_1/block_12_depthwise_relu_1/Relu6", "op": "Relu6", "input": ["StatefulPartitionedCall/functional_1/mobilenetv2_0.35_224_1/block_12_depthwise_BN_1/batchnorm/add_1"], "attr": {"T": {"type": "DT_FLOAT"}}}, {"name": "StatefulPartitionedCall/functional_1/mobilenetv2_0.35_224_1/block_12_project_BN_1/batchnorm/mul_1", "op": "Conv2D", "input": ["StatefulPartitionedCall/functional_1/mobilenetv2_0.35_224_1/block_12_depthwise_relu_1/Relu6", "StatefulPartitionedCall/functional_1/mobilenetv2_0.35_224_1/block_12_project_1/convolution/merged_input"], "device": "/device:CPU:0", "attr": {"padding": {"s": "U0FNRQ=="}, "data_format": {"s": "TkhXQw=="}, "strides": {"list": {"i": ["1", "1", "1", "1"]}}, "use_cudnn_on_gpu": {"b": true}, "T": {"type": "DT_FLOAT"}, "explicit_paddings": {"list": {}}, "dilations": {"list": {"i": ["1", "1", "1", "1"]}}}}, {"name": "StatefulPartitionedCall/functional_1/mobilenetv2_0.35_224_1/block_12_add_1/ArithmeticOptimizer/AddOpsRewrite_Leaf_1_Add", "op": "AddN", "input": ["StatefulPartitionedCall/functional_1/mobilenetv2_0.35_224_1/block_11_add_1/ArithmeticOptimizer/AddOpsRewrite_Add", "StatefulPartitionedCall/functional_1/mobilenetv2_0.35_224_1/block_12_project_BN_1/batchnorm/mul_1"], "attr": {"N": {"i": "2"}, "T": {"type": "DT_FLOAT"}, "_grappler_ArithmeticOptimizer_AddOpsRewriteStage": {"b": true}}}, {"name": "StatefulPartitionedCall/functional_1/mobilenetv2_0.35_224_1/block_12_add_1/ArithmeticOptimizer/AddOpsRewrite_Add", "op": "AddV2", "input": ["StatefulPartitionedCall/functional_1/mobilenetv2_0.35_224_1/block_12_project_BN_1/batchnorm/sub", "StatefulPartitionedCall/functional_1/mobilenetv2_0.35_224_1/block_12_add_1/ArithmeticOptimizer/AddOpsRewrite_Leaf_1_Add"], "attr": {"T": {"type": "DT_FLOAT"}, "_grappler_ArithmeticOptimizer_AddOpsRewriteStage": {"b": true}}}, {"name": "StatefulPartitionedCall/functional_1/mobilenetv2_0.35_224_1/block_13_expand_relu_1/Relu6", "op": "_FusedConv2D", "input": ["StatefulPartitionedCall/functional_1/mobilenetv2_0.35_224_1/block_12_add_1/ArithmeticOptimizer/AddOpsRewrite_Add", "StatefulPartitionedCall/functional_1/mobilenetv2_0.35_224_1/block_13_expand_1/convolution/merged_input", "StatefulPartitionedCall/functional_1/mobilenetv2_0.35_224_1/block_13_expand_BN_1/batchnorm/sub"], "device": "/device:CPU:0", "attr": {"num_host_args": {"i": "0"}, "data_format": {"s": "TkhXQw=="}, "filter_format": {"s": "SFdJTw=="}, "fused_ops": {"list": {"s": ["Qmlhc0FkZA==", "UmVsdTY="]}}, "num_args": {"i": "1"}, "strides": {"list": {"i": ["1", "1", "1", "1"]}}, "TArgs": {"list": {"type": ["DT_FLOAT"]}}, "padding": {"s": "U0FNRQ=="}, "use_cudnn_on_gpu": {"b": true}, "leakyrelu_alpha": {"f": 0.2}, "epsilon": {"f": 0.0}, "T": {"type": "DT_FLOAT"}, "explicit_paddings": {"list": {}}, "dilations": {"list": {"i": ["1", "1", "1", "1"]}}}}, {"name": "StatefulPartitionedCall/functional_1/mobilenetv2_0.35_224_1/block_13_pad_1/Pad", "op": "Pad", "input": ["StatefulPartitionedCall/functional_1/mobilenetv2_0.35_224_1/block_13_expand_relu_1/Relu6", "StatefulPartitionedCall/functional_1/mobilenetv2_0.35_224_1/block_13_pad_1/Const"], "attr": {"Tpaddings": {"type": "DT_INT32"}, "T": {"type": "DT_FLOAT"}}}, {"name": "StatefulPartitionedCall/functional_1/mobilenetv2_0.35_224_1/block_13_depthwise_1/depthwise", "op": "DepthwiseConv2dNative", "input": ["StatefulPartitionedCall/functional_1/mobilenetv2_0.35_224_1/block_13_pad_1/Pad", "StatefulPartitionedCall/functional_1/mobilenetv2_0.35_224_1/block_13_depthwise_1/depthwise/ReadVariableOp"], "attr": {"padding": {"s": "VkFMSUQ="}, "data_format": {"s": "TkhXQw=="}, "T": {"type": "DT_FLOAT"}, "explicit_paddings": {"list": {}}, "dilations": {"list": {"i": ["1", "1", "1", "1"]}}, "strides": {"list": {"i": ["1", "2", "2", "1"]}}}}, {"name": "StatefulPartitionedCall/functional_1/mobilenetv2_0.35_224_1/block_13_depthwise_BN_1/batchnorm/mul_1", "op": "Mul", "input": ["StatefulPartitionedCall/functional_1/mobilenetv2_0.35_224_1/block_13_depthwise_1/depthwise", "StatefulPartitionedCall/functional_1/mobilenetv2_0.35_224_1/block_13_depthwise_BN_1/batchnorm/mul"], "attr": {"T": {"type": "DT_FLOAT"}}}, {"name": "StatefulPartitionedCall/functional_1/mobilenetv2_0.35_224_1/block_13_depthwise_BN_1/batchnorm/add_1", "op": "AddV2", "input": ["StatefulPartitionedCall/functional_1/mobilenetv2_0.35_224_1/block_13_depthwise_BN_1/batchnorm/mul_1", "StatefulPartitionedCall/functional_1/mobilenetv2_0.35_224_1/block_13_depthwise_BN_1/batchnorm/sub"], "attr": {"T": {"type": "DT_FLOAT"}}}, {"name": "StatefulPartitionedCall/functional_1/mobilenetv2_0.35_224_1/block_13_depthwise_relu_1/Relu6", "op": "Relu6", "input": ["StatefulPartitionedCall/functional_1/mobilenetv2_0.35_224_1/block_13_depthwise_BN_1/batchnorm/add_1"], "attr": {"T": {"type": "DT_FLOAT"}}}, {"name": "StatefulPartitionedCall/functional_1/mobilenetv2_0.35_224_1/block_13_project_BN_1/batchnorm/add_1", "op": "_FusedConv2D", "input": ["StatefulPartitionedCall/functional_1/mobilenetv2_0.35_224_1/block_13_depthwise_relu_1/Relu6", "StatefulPartitionedCall/functional_1/mobilenetv2_0.35_224_1/block_13_project_1/convolution/merged_input", "StatefulPartitionedCall/functional_1/mobilenetv2_0.35_224_1/block_13_project_BN_1/batchnorm/sub"], "device": "/device:CPU:0", "attr": {"num_host_args": {"i": "0"}, "data_format": {"s": "TkhXQw=="}, "filter_format": {"s": "SFdJTw=="}, "fused_ops": {"list": {"s": ["Qmlhc0FkZA=="]}}, "num_args": {"i": "1"}, "strides": {"list": {"i": ["1", "1", "1", "1"]}}, "TArgs": {"list": {"type": ["DT_FLOAT"]}}, "padding": {"s": "U0FNRQ=="}, "use_cudnn_on_gpu": {"b": true}, "leakyrelu_alpha": {"f": 0.2}, "epsilon": {"f": 0.0}, "T": {"type": "DT_FLOAT"}, "explicit_paddings": {"list": {}}, "dilations": {"list": {"i": ["1", "1", "1", "1"]}}}}, {"name": "StatefulPartitionedCall/functional_1/mobilenetv2_0.35_224_1/block_14_expand_relu_1/Relu6", "op": "_FusedConv2D", "input": ["StatefulPartitionedCall/functional_1/mobilenetv2_0.35_224_1/block_13_project_BN_1/batchnorm/add_1", "StatefulPartitionedCall/functional_1/mobilenetv2_0.35_224_1/block_14_expand_1/convolution/merged_input", "StatefulPartitionedCall/functional_1/mobilenetv2_0.35_224_1/block_14_expand_BN_1/batchnorm/sub"], "device": "/device:CPU:0", "attr": {"num_host_args": {"i": "0"}, "data_format": {"s": "TkhXQw=="}, "filter_format": {"s": "SFdJTw=="}, "fused_ops": {"list": {"s": ["Qmlhc0FkZA==", "UmVsdTY="]}}, "num_args": {"i": "1"}, "strides": {"list": {"i": ["1", "1", "1", "1"]}}, "TArgs": {"list": {"type": ["DT_FLOAT"]}}, "padding": {"s": "U0FNRQ=="}, "use_cudnn_on_gpu": {"b": true}, "leakyrelu_alpha": {"f": 0.2}, "epsilon": {"f": 0.0}, "T": {"type": "DT_FLOAT"}, "explicit_paddings": {"list": {}}, "dilations": {"list": {"i": ["1", "1", "1", "1"]}}}}, {"name": "StatefulPartitionedCall/functional_1/mobilenetv2_0.35_224_1/block_14_depthwise_1/depthwise", "op": "DepthwiseConv2dNative", "input": ["StatefulPartitionedCall/functional_1/mobilenetv2_0.35_224_1/block_14_expand_relu_1/Relu6", "StatefulPartitionedCall/functional_1/mobilenetv2_0.35_224_1/block_14_depthwise_1/depthwise/ReadVariableOp"], "attr": {"padding": {"s": "U0FNRQ=="}, "data_format": {"s": "TkhXQw=="}, "T": {"type": "DT_FLOAT"}, "explicit_paddings": {"list": {}}, "dilations": {"list": {"i": ["1", "1", "1", "1"]}}, "strides": {"list": {"i": ["1", "1", "1", "1"]}}}}, {"name": "StatefulPartitionedCall/functional_1/mobilenetv2_0.35_224_1/block_14_depthwise_BN_1/batchnorm/mul_1", "op": "Mul", "input": ["StatefulPartitionedCall/functional_1/mobilenetv2_0.35_224_1/block_14_depthwise_1/depthwise", "StatefulPartitionedCall/functional_1/mobilenetv2_0.35_224_1/block_14_depthwise_BN_1/batchnorm/mul"], "attr": {"T": {"type": "DT_FLOAT"}}}, {"name": "StatefulPartitionedCall/functional_1/mobilenetv2_0.35_224_1/block_14_depthwise_BN_1/batchnorm/add_1", "op": "AddV2", "input": ["StatefulPartitionedCall/functional_1/mobilenetv2_0.35_224_1/block_14_depthwise_BN_1/batchnorm/mul_1", "StatefulPartitionedCall/functional_1/mobilenetv2_0.35_224_1/block_14_depthwise_BN_1/batchnorm/sub"], "attr": {"T": {"type": "DT_FLOAT"}}}, {"name": "StatefulPartitionedCall/functional_1/mobilenetv2_0.35_224_1/block_14_depthwise_relu_1/Relu6", "op": "Relu6", "input": ["StatefulPartitionedCall/functional_1/mobilenetv2_0.35_224_1/block_14_depthwise_BN_1/batchnorm/add_1"], "attr": {"T": {"type": "DT_FLOAT"}}}, {"name": "StatefulPartitionedCall/functional_1/mobilenetv2_0.35_224_1/block_14_project_BN_1/batchnorm/mul_1", "op": "Conv2D", "input": ["StatefulPartitionedCall/functional_1/mobilenetv2_0.35_224_1/block_14_depthwise_relu_1/Relu6", "StatefulPartitionedCall/functional_1/mobilenetv2_0.35_224_1/block_14_project_1/convolution/merged_input"], "device": "/device:CPU:0", "attr": {"padding": {"s": "U0FNRQ=="}, "data_format": {"s": "TkhXQw=="}, "strides": {"list": {"i": ["1", "1", "1", "1"]}}, "use_cudnn_on_gpu": {"b": true}, "T": {"type": "DT_FLOAT"}, "explicit_paddings": {"list": {}}, "dilations": {"list": {"i": ["1", "1", "1", "1"]}}}}, {"name": "StatefulPartitionedCall/functional_1/mobilenetv2_0.35_224_1/block_14_add_1/ArithmeticOptimizer/AddOpsRewrite_Leaf_1_Add", "op": "AddN", "input": ["StatefulPartitionedCall/functional_1/mobilenetv2_0.35_224_1/block_13_project_BN_1/batchnorm/add_1", "StatefulPartitionedCall/functional_1/mobilenetv2_0.35_224_1/block_14_project_BN_1/batchnorm/mul_1"], "attr": {"N": {"i": "2"}, "T": {"type": "DT_FLOAT"}, "_grappler_ArithmeticOptimizer_AddOpsRewriteStage": {"b": true}}}, {"name": "StatefulPartitionedCall/functional_1/mobilenetv2_0.35_224_1/block_14_add_1/ArithmeticOptimizer/AddOpsRewrite_Add", "op": "AddV2", "input": ["StatefulPartitionedCall/functional_1/mobilenetv2_0.35_224_1/block_14_project_BN_1/batchnorm/sub", "StatefulPartitionedCall/functional_1/mobilenetv2_0.35_224_1/block_14_add_1/ArithmeticOptimizer/AddOpsRewrite_Leaf_1_Add"], "attr": {"T": {"type": "DT_FLOAT"}, "_grappler_ArithmeticOptimizer_AddOpsRewriteStage": {"b": true}}}, {"name": "StatefulPartitionedCall/functional_1/mobilenetv2_0.35_224_1/block_15_expand_relu_1/Relu6", "op": "_FusedConv2D", "input": ["StatefulPartitionedCall/functional_1/mobilenetv2_0.35_224_1/block_14_add_1/ArithmeticOptimizer/AddOpsRewrite_Add", "StatefulPartitionedCall/functional_1/mobilenetv2_0.35_224_1/block_15_expand_1/convolution/merged_input", "StatefulPartitionedCall/functional_1/mobilenetv2_0.35_224_1/block_15_expand_BN_1/batchnorm/sub"], "device": "/device:CPU:0", "attr": {"num_host_args": {"i": "0"}, "data_format": {"s": "TkhXQw=="}, "filter_format": {"s": "SFdJTw=="}, "strides": {"list": {"i": ["1", "1", "1", "1"]}}, "num_args": {"i": "1"}, "fused_ops": {"list": {"s": ["Qmlhc0FkZA==", "UmVsdTY="]}}, "TArgs": {"list": {"type": ["DT_FLOAT"]}}, "padding": {"s": "U0FNRQ=="}, "use_cudnn_on_gpu": {"b": true}, "leakyrelu_alpha": {"f": 0.2}, "epsilon": {"f": 0.0}, "T": {"type": "DT_FLOAT"}, "explicit_paddings": {"list": {}}, "dilations": {"list": {"i": ["1", "1", "1", "1"]}}}}, {"name": "StatefulPartitionedCall/functional_1/mobilenetv2_0.35_224_1/block_15_depthwise_1/depthwise", "op": "DepthwiseConv2dNative", "input": ["StatefulPartitionedCall/functional_1/mobilenetv2_0.35_224_1/block_15_expand_relu_1/Relu6", "StatefulPartitionedCall/functional_1/mobilenetv2_0.35_224_1/block_15_depthwise_1/depthwise/ReadVariableOp"], "attr": {"padding": {"s": "U0FNRQ=="}, "data_format": {"s": "TkhXQw=="}, "T": {"type": "DT_FLOAT"}, "explicit_paddings": {"list": {}}, "dilations": {"list": {"i": ["1", "1", "1", "1"]}}, "strides": {"list": {"i": ["1", "1", "1", "1"]}}}}, {"name": "StatefulPartitionedCall/functional_1/mobilenetv2_0.35_224_1/block_15_depthwise_BN_1/batchnorm/mul_1", "op": "Mul", "input": ["StatefulPartitionedCall/functional_1/mobilenetv2_0.35_224_1/block_15_depthwise_1/depthwise", "StatefulPartitionedCall/functional_1/mobilenetv2_0.35_224_1/block_15_depthwise_BN_1/batchnorm/mul"], "attr": {"T": {"type": "DT_FLOAT"}}}, {"name": "StatefulPartitionedCall/functional_1/mobilenetv2_0.35_224_1/block_15_depthwise_BN_1/batchnorm/add_1", "op": "AddV2", "input": ["StatefulPartitionedCall/functional_1/mobilenetv2_0.35_224_1/block_15_depthwise_BN_1/batchnorm/mul_1", "StatefulPartitionedCall/functional_1/mobilenetv2_0.35_224_1/block_15_depthwise_BN_1/batchnorm/sub"], "attr": {"T": {"type": "DT_FLOAT"}}}, {"name": "StatefulPartitionedCall/functional_1/mobilenetv2_0.35_224_1/block_15_depthwise_relu_1/Relu6", "op": "Relu6", "input": ["StatefulPartitionedCall/functional_1/mobilenetv2_0.35_224_1/block_15_depthwise_BN_1/batchnorm/add_1"], "attr": {"T": {"type": "DT_FLOAT"}}}, {"name": "StatefulPartitionedCall/functional_1/mobilenetv2_0.35_224_1/block_15_project_BN_1/batchnorm/mul_1", "op": "Conv2D", "input": ["StatefulPartitionedCall/functional_1/mobilenetv2_0.35_224_1/block_15_depthwise_relu_1/Relu6", "StatefulPartitionedCall/functional_1/mobilenetv2_0.35_224_1/block_15_project_1/convolution/merged_input"], "device": "/device:CPU:0", "attr": {"padding": {"s": "U0FNRQ=="}, "data_format": {"s": "TkhXQw=="}, "strides": {"list": {"i": ["1", "1", "1", "1"]}}, "use_cudnn_on_gpu": {"b": true}, "T": {"type": "DT_FLOAT"}, "explicit_paddings": {"list": {}}, "dilations": {"list": {"i": ["1", "1", "1", "1"]}}}}, {"name": "StatefulPartitionedCall/functional_1/mobilenetv2_0.35_224_1/block_15_add_1/ArithmeticOptimizer/AddOpsRewrite_Leaf_1_Add", "op": "AddN", "input": ["StatefulPartitionedCall/functional_1/mobilenetv2_0.35_224_1/block_14_add_1/ArithmeticOptimizer/AddOpsRewrite_Add", "StatefulPartitionedCall/functional_1/mobilenetv2_0.35_224_1/block_15_project_BN_1/batchnorm/mul_1"], "attr": {"N": {"i": "2"}, "T": {"type": "DT_FLOAT"}, "_grappler_ArithmeticOptimizer_AddOpsRewriteStage": {"b": true}}}, {"name": "StatefulPartitionedCall/functional_1/mobilenetv2_0.35_224_1/block_15_add_1/ArithmeticOptimizer/AddOpsRewrite_Add", "op": "AddV2", "input": ["StatefulPartitionedCall/functional_1/mobilenetv2_0.35_224_1/block_15_project_BN_1/batchnorm/sub", "StatefulPartitionedCall/functional_1/mobilenetv2_0.35_224_1/block_15_add_1/ArithmeticOptimizer/AddOpsRewrite_Leaf_1_Add"], "attr": {"T": {"type": "DT_FLOAT"}, "_grappler_ArithmeticOptimizer_AddOpsRewriteStage": {"b": true}}}, {"name": "StatefulPartitionedCall/functional_1/mobilenetv2_0.35_224_1/block_16_expand_relu_1/Relu6", "op": "_FusedConv2D", "input": ["StatefulPartitionedCall/functional_1/mobilenetv2_0.35_224_1/block_15_add_1/ArithmeticOptimizer/AddOpsRewrite_Add", "StatefulPartitionedCall/functional_1/mobilenetv2_0.35_224_1/block_16_expand_1/convolution/merged_input", "StatefulPartitionedCall/functional_1/mobilenetv2_0.35_224_1/block_16_expand_BN_1/batchnorm/sub"], "device": "/device:CPU:0", "attr": {"num_host_args": {"i": "0"}, "data_format": {"s": "TkhXQw=="}, "filter_format": {"s": "SFdJTw=="}, "fused_ops": {"list": {"s": ["Qmlhc0FkZA==", "UmVsdTY="]}}, "num_args": {"i": "1"}, "strides": {"list": {"i": ["1", "1", "1", "1"]}}, "TArgs": {"list": {"type": ["DT_FLOAT"]}}, "padding": {"s": "U0FNRQ=="}, "use_cudnn_on_gpu": {"b": true}, "leakyrelu_alpha": {"f": 0.2}, "epsilon": {"f": 0.0}, "T": {"type": "DT_FLOAT"}, "explicit_paddings": {"list": {}}, "dilations": {"list": {"i": ["1", "1", "1", "1"]}}}}, {"name": "StatefulPartitionedCall/functional_1/mobilenetv2_0.35_224_1/block_16_depthwise_1/depthwise", "op": "DepthwiseConv2dNative", "input": ["StatefulPartitionedCall/functional_1/mobilenetv2_0.35_224_1/block_16_expand_relu_1/Relu6", "StatefulPartitionedCall/functional_1/mobilenetv2_0.35_224_1/block_16_depthwise_1/depthwise/ReadVariableOp"], "attr": {"padding": {"s": "U0FNRQ=="}, "data_format": {"s": "TkhXQw=="}, "T": {"type": "DT_FLOAT"}, "explicit_paddings": {"list": {}}, "dilations": {"list": {"i": ["1", "1", "1", "1"]}}, "strides": {"list": {"i": ["1", "1", "1", "1"]}}}}, {"name": "StatefulPartitionedCall/functional_1/mobilenetv2_0.35_224_1/block_16_depthwise_BN_1/batchnorm/mul_1", "op": "Mul", "input": ["StatefulPartitionedCall/functional_1/mobilenetv2_0.35_224_1/block_16_depthwise_1/depthwise", "StatefulPartitionedCall/functional_1/mobilenetv2_0.35_224_1/block_16_depthwise_BN_1/batchnorm/mul"], "attr": {"T": {"type": "DT_FLOAT"}}}, {"name": "StatefulPartitionedCall/functional_1/mobilenetv2_0.35_224_1/block_16_depthwise_BN_1/batchnorm/add_1", "op": "AddV2", "input": ["StatefulPartitionedCall/functional_1/mobilenetv2_0.35_224_1/block_16_depthwise_BN_1/batchnorm/mul_1", "StatefulPartitionedCall/functional_1/mobilenetv2_0.35_224_1/block_16_depthwise_BN_1/batchnorm/sub"], "attr": {"T": {"type": "DT_FLOAT"}}}, {"name": "StatefulPartitionedCall/functional_1/mobilenetv2_0.35_224_1/block_16_depthwise_relu_1/Relu6", "op": "Relu6", "input": ["StatefulPartitionedCall/functional_1/mobilenetv2_0.35_224_1/block_16_depthwise_BN_1/batchnorm/add_1"], "attr": {"T": {"type": "DT_FLOAT"}}}, {"name": "StatefulPartitionedCall/functional_1/mobilenetv2_0.35_224_1/block_16_project_BN_1/batchnorm/add_1", "op": "_FusedConv2D", "input": ["StatefulPartitionedCall/functional_1/mobilenetv2_0.35_224_1/block_16_depthwise_relu_1/Relu6", "StatefulPartitionedCall/functional_1/mobilenetv2_0.35_224_1/block_16_project_1/convolution/merged_input", "StatefulPartitionedCall/functional_1/mobilenetv2_0.35_224_1/block_16_project_BN_1/batchnorm/sub"], "device": "/device:CPU:0", "attr": {"num_host_args": {"i": "0"}, "data_format": {"s": "TkhXQw=="}, "filter_format": {"s": "SFdJTw=="}, "strides": {"list": {"i": ["1", "1", "1", "1"]}}, "num_args": {"i": "1"}, "fused_ops": {"list": {"s": ["Qmlhc0FkZA=="]}}, "TArgs": {"list": {"type": ["DT_FLOAT"]}}, "padding": {"s": "U0FNRQ=="}, "use_cudnn_on_gpu": {"b": true}, "leakyrelu_alpha": {"f": 0.2}, "epsilon": {"f": 0.0}, "T": {"type": "DT_FLOAT"}, "explicit_paddings": {"list": {}}, "dilations": {"list": {"i": ["1", "1", "1", "1"]}}}}, {"name": "StatefulPartitionedCall/functional_1/mobilenetv2_0.35_224_1/out_relu_1/Relu6", "op": "_FusedConv2D", "input": ["StatefulPartitionedCall/functional_1/mobilenetv2_0.35_224_1/block_16_project_BN_1/batchnorm/add_1", "StatefulPartitionedCall/functional_1/mobilenetv2_0.35_224_1/Conv_1_1/convolution/merged_input", "StatefulPartitionedCall/functional_1/mobilenetv2_0.35_224_1/Conv_1_bn_1/batchnorm/sub"], "device": "/device:CPU:0", "attr": {"num_host_args": {"i": "0"}, "data_format": {"s": "TkhXQw=="}, "filter_format": {"s": "SFdJTw=="}, "strides": {"list": {"i": ["1", "1", "1", "1"]}}, "num_args": {"i": "1"}, "fused_ops": {"list": {"s": ["Qmlhc0FkZA==", "UmVsdTY="]}}, "TArgs": {"list": {"type": ["DT_FLOAT"]}}, "padding": {"s": "VkFMSUQ="}, "use_cudnn_on_gpu": {"b": true}, "leakyrelu_alpha": {"f": 0.2}, "epsilon": {"f": 0.0}, "T": {"type": "DT_FLOAT"}, "explicit_paddings": {"list": {}}, "dilations": {"list": {"i": ["1", "1", "1", "1"]}}}}, {"name": "StatefulPartitionedCall/functional_1/global_average_pooling2d_1/Mean", "op": "Mean", "input": ["StatefulPartitionedCall/functional_1/mobilenetv2_0.35_224_1/out_relu_1/Relu6", "StatefulPartitionedCall/functional_1/global_average_pooling2d_1/Mean/reduction_indices"], "attr": {"Tidx": {"type": "DT_INT32"}, "T": {"type": "DT_FLOAT"}, "keep_dims": {"b": false}}}, {"name": "StatefulPartitionedCall/functional_1/dense_1_1/Relu", "op": "_FusedMatMul", "input": ["StatefulPartitionedCall/functional_1/global_average_pooling2d_1/Mean", "StatefulPartitionedCall/functional_1/dense_1_1/Cast/ReadVariableOp", "StatefulPartitionedCall/functional_1/dense_1_1/BiasAdd/ReadVariableOp"], "device": "/device:CPU:0", "attr": {"transpose_a": {"b": false}, "transpose_b": {"b": false}, "fused_ops": {"list": {"s": ["Qmlhc0FkZA==", "UmVsdQ=="]}}, "leakyrelu_alpha": {"f": 0.2}, "num_args": {"i": "1"}, "epsilon": {"f": 0.0}, "T": {"type": "DT_FLOAT"}}}, {"name": "StatefulPartitionedCall/functional_1/dense_2/Relu", "op": "_FusedMatMul", "input": ["StatefulPartitionedCall/functional_1/global_average_pooling2d_1/Mean", "StatefulPartitionedCall/functional_1/dense_2/Cast/ReadVariableOp", "StatefulPartitionedCall/functional_1/dense_2/BiasAdd/ReadVariableOp"], "device": "/device:CPU:0", "attr": {"transpose_a": {"b": false}, "transpose_b": {"b": false}, "fused_ops": {"list": {"s": ["Qmlhc0FkZA==", "UmVsdQ=="]}}, "leakyrelu_alpha": {"f": 0.2}, "num_args": {"i": "1"}, "epsilon": {"f": 0.0}, "T": {"type": "DT_FLOAT"}}}, {"name": "StatefulPartitionedCall/functional_1/earth_1/BiasAdd", "op": "_FusedMatMul", "input": ["StatefulPartitionedCall/functional_1/dense_1_1/Relu", "StatefulPartitionedCall/functional_1/earth_1/Cast/ReadVariableOp", "StatefulPartitionedCall/functional_1/earth_1/BiasAdd/ReadVariableOp"], "device": "/device:CPU:0", "attr": {"transpose_a": {"b": false}, "transpose_b": {"b": false}, "fused_ops": {"list": {"s": ["Qmlhc0FkZA=="]}}, "num_args": {"i": "1"}, "leakyrelu_alpha": {"f": 0.2}, "epsilon": {"f": 0.0}, "T": {"type": "DT_FLOAT"}}}, {"name": "StatefulPartitionedCall/functional_1/heaven_1/Add", "op": "_FusedMatMul", "input": ["StatefulPartitionedCall/functional_1/dense_2/Relu", "StatefulPartitionedCall/functional_1/heaven_1/Cast/ReadVariableOp", "StatefulPartitionedCall/functional_1/heaven_1/Add/ReadVariableOp"], "device": "/device:CPU:0", "attr": {"transpose_a": {"b": false}, "transpose_b": {"b": false}, "fused_ops": {"list": {"s": ["Qmlhc0FkZA=="]}}, "num_args": {"i": "1"}, "leakyrelu_alpha": {"f": 0.2}, "epsilon": {"f": 0.0}, "T": {"type": "DT_FLOAT"}}}, {"name": "StatefulPartitionedCall/functional_1/earth_1/Softmax", "op": "Softmax", "input": ["StatefulPartitionedCall/functional_1/earth_1/BiasAdd"], "attr": {"T": {"type": "DT_FLOAT"}}}, {"name": "StatefulPartitionedCall/functional_1/heaven_1/Sigmoid", "op": "Sigmoid", "input": ["StatefulPartitionedCall/functional_1/heaven_1/Add"], "attr": {"T": {"type": "DT_FLOAT"}}}, {"name": "Identity_1", "op": "Identity", "input": ["StatefulPartitionedCall/functional_1/earth_1/Softmax"], "attr": {"T": {"type": "DT_FLOAT"}}}, {"name": "Identity", "op": "Identity", "input": ["StatefulPartitionedCall/functional_1/heaven_1/Sigmoid"], "attr": {"T": {"type": "DT_FLOAT"}}}], "library": {}, "versions": {"producer": 2129}}, "weightsManifest": [{"paths": ["group1-shard1of1.bin"], "weights": [{"name": "StatefulPartitionedCall/functional_1/dense_2/Cast/ReadVariableOp", "shape": [1280, 64], "dtype": "float32", "quantization": {"dtype": "uint8", "min": -0.4656637935077443, "scale": 0.0036957443929186056, "original_dtype": "float32"}}, {"name": "StatefulPartitionedCall/functional_1/dense_2/BiasAdd/ReadVariableOp", "shape": [64], "dtype": "float32", "quantization": {"dtype": "uint8", "min": -0.017929373009532106, "scale": 0.00015194383906383141, "original_dtype": "float32"}}, {"name": "StatefulPartitionedCall/functional_1/heaven_1/Cast/ReadVariableOp", "shape": [64, 1], "dtype": "float32", "quantization": {"dtype": "uint8", "min": -0.30469777069839776, "scale": 0.0023438290053722907, "original_dtype": "float32"}}, {"name": "StatefulPartitionedCall/functional_1/heaven_1/Add/ReadVariableOp", "shape": [1], "dtype": "float32", "quantization": {"dtype": "uint8", "min": 0.019194163382053375, "scale": 1.0, "original_dtype": "float32"}}, {"name": "StatefulPartitionedCall/functional_1/mobilenetv2_0.35_224_1/block_15_project_BN_1/batchnorm/sub", "shape": [56], "dtype": "float32", "quantization": {"dtype": "uint8", "min": -18.027536504408893, "scale": 0.2003059611600988, "original_dtype": "float32"}}, {"name": "StatefulPartitionedCall/functional_1/mobilenetv2_0.35_224_1/block_14_project_BN_1/batchnorm/sub", "shape": [56], "dtype": "float32", "quantization": {"dtype": "uint8", "min": -14.68401465696447, "scale": 0.10877047894047756, "original_dtype": "float32"}}, {"name": "StatefulPartitionedCall/functional_1/mobilenetv2_0.35_224_1/block_12_project_BN_1/batchnorm/sub", "shape": [32], "dtype": "float32", "quantization": {"dtype": "uint8", "min": -13.76228687061983, "scale": 0.17873099831973804, "original_dtype": "float32"}}, {"name": "StatefulPartitionedCall/functional_1/mobilenetv2_0.35_224_1/block_11_project_BN_1/batchnorm/sub", "shape": [32], "dtype": "float32", "quantization": {"dtype": "uint8", "min": -21.175422429103477, "scale": 0.1291184294457529, "original_dtype": "float32"}}, {"name": "StatefulPartitionedCall/functional_1/mobilenetv2_0.35_224_1/block_9_project_BN_1/batchnorm/sub", "shape": [24], "dtype": "float32", "quantization": {"dtype": "uint8", "min": -8.524102457831887, "scale": 0.10523583281273935, "original_dtype": "float32"}}, {"name": "StatefulPartitionedCall/functional_1/mobilenetv2_0.35_224_1/block_8_project_BN_1/batchnorm/sub", "shape": [24], "dtype": "float32", "quantization": {"dtype": "uint8", "min": -8.38796189252068, "scale": 0.06989968243767233, "original_dtype": "float32"}}, {"name": "StatefulPartitionedCall/functional_1/mobilenetv2_0.35_224_1/block_7_project_BN_1/batchnorm/sub", "shape": [24], "dtype": "float32", "quantization": {"dtype": "uint8", "min": -8.80213623046875, "scale": 0.06472158992991728, "original_dtype": "float32"}}, {"name": "StatefulPartitionedCall/functional_1/mobilenetv2_0.35_224_1/block_5_project_BN_1/batchnorm/sub", "shape": [16], "dtype": "float32", "quantization": {"dtype": "uint8", "min": -17.252201192519244, "scale": 0.11202728047090418, "original_dtype": "float32"}}, {"name": "StatefulPartitionedCall/functional_1/mobilenetv2_0.35_224_1/block_4_project_BN_1/batchnorm/sub", "shape": [16], "dtype": "float32", "quantization": {"dtype": "uint8", "min": -32.468918213189816, "scale": 0.24785433750526578, "original_dtype": "float32"}}, {"name": "StatefulPartitionedCall/functional_1/mobilenetv2_0.35_224_1/block_2_project_BN_1/batchnorm/sub", "shape": [8], "dtype": "float32", "quantization": {"dtype": "uint8", "min": -4.150194037194345, "scale": 0.10122424480961818, "original_dtype": "float32"}}, {"name": "StatefulPartitionedCall/functional_1/concatenate_1/concat/axis", "shape": [], "dtype": "int32"}, {"name": "StatefulPartitionedCall/functional_1/rescaling_1/Cast/x", "shape": [], "dtype": "float32", "quantization": {"dtype": "uint8", "min": 2.0, "scale": 1.0, "original_dtype": "float32"}}, {"name": "StatefulPartitionedCall/functional_1/rescaling_1/Cast_1/x", "shape": [], "dtype": "float32", "quantization": {"dtype": "uint8", "min": -1.0, "scale": 1.0, "original_dtype": "float32"}}, {"name": "StatefulPartitionedCall/functional_1/mobilenetv2_0.35_224_1/Conv1_1/convolution/merged_input", "shape": [3, 3, 3, 16], "dtype": "float32", "quantization": {"dtype": "uint8", "min": -2.022424674501606, "scale": 0.015557112880781584, "original_dtype": "float32"}}, {"name": "StatefulPartitionedCall/functional_1/mobilenetv2_0.35_224_1/bn_Conv1_1/batchnorm/sub", "shape": [16], "dtype": "float32", "quantization": {"dtype": "uint8", "min": -4.835127065695969, "scale": 0.04787254520491058, "original_dtype": "float32"}}, {"name": "StatefulPartitionedCall/functional_1/mobilenetv2_0.35_224_1/expanded_conv_depthwise_1/depthwise/ReadVariableOp", "shape": [3, 3, 16, 1], "dtype": "float32", "quantization": {"dtype": "uint8", "min": -24.66246182310815, "scale": 0.18404822256050857, "original_dtype": "float32"}}, {"name": "StatefulPartitionedCall/functional_1/mobilenetv2_0.35_224_1/expanded_conv_depthwise_BN_1/batchnorm/mul", "shape": [16], "dtype": "float32", "quantization": {"dtype": "uint8", "min": -11.359552764892578, "scale": 0.11136816436169195, "original_dtype": "float32"}}, {"name": "StatefulPartitionedCall/functional_1/mobilenetv2_0.35_224_1/expanded_conv_depthwise_BN_1/batchnorm/sub", "shape": [16], "dtype": "float32", "quantization": {"dtype": "uint8", "min": -0.8827137255201153, "scale": 0.01918942881565468, "original_dtype": "float32"}}, {"name": "StatefulPartitionedCall/functional_1/mobilenetv2_0.35_224_1/expanded_conv_project_1/convolution/merged_input", "shape": [1, 1, 16, 8], "dtype": "float32", "quantization": {"dtype": "uint8", "min": -9.66323912377451, "scale": 0.07920687806372549, "original_dtype": "float32"}}, {"name": "StatefulPartitionedCall/functional_1/mobilenetv2_0.35_224_1/expanded_conv_project_BN_1/batchnorm/sub", "shape": [8], "dtype": "float32", "quantization": {"dtype": "uint8", "min": -36.83048360487994, "scale": 0.2728183970731847, "original_dtype": "float32"}}, {"name": "StatefulPartitionedCall/functional_1/mobilenetv2_0.35_224_1/block_1_expand_1/convolution/merged_input", "shape": [1, 1, 8, 48], "dtype": "float32", "quantization": {"dtype": "uint8", "min": -1.6094158644769707, "scale": 0.012285617286083746, "original_dtype": "float32"}}, {"name": "StatefulPartitionedCall/functional_1/mobilenetv2_0.35_224_1/block_1_expand_BN_1/batchnorm/sub", "shape": [48], "dtype": "float32", "quantization": {"dtype": "uint8", "min": -0.2806026988169726, "scale": 0.018706846587798174, "original_dtype": "float32"}}, {"name": "StatefulPartitionedCall/functional_1/mobilenetv2_0.35_224_1/block_1_pad_1/Const", "shape": [4, 2], "dtype": "int32"}, {"name": "StatefulPartitionedCall/functional_1/mobilenetv2_0.35_224_1/block_1_depthwise_1/depthwise/ReadVariableOp", "shape": [3, 3, 48, 1], "dtype": "float32", "quantization": {"dtype": "uint8", "min": -4.823028542013729, "scale": 0.034949482188505285, "original_dtype": "float32"}}, {"name": "StatefulPartitionedCall/functional_1/mobilenetv2_0.35_224_1/block_1_depthwise_BN_1/batchnorm/mul", "shape": [48], "dtype": "float32", "quantization": {"dtype": "uint8", "min": 0.023062149062752724, "scale": 0.0015638321857242023, "original_dtype": "float32"}}, {"name": "StatefulPartitionedCall/functional_1/mobilenetv2_0.35_224_1/block_1_depthwise_BN_1/batchnorm/sub", "shape": [48], "dtype": "float32", "quantization": {"dtype": "uint8", "min": -18.20033861796061, "scale": 0.09732801399978937, "original_dtype": "float32"}}, {"name": "StatefulPartitionedCall/functional_1/mobilenetv2_0.35_224_1/block_1_project_1/convolution/merged_input", "shape": [1, 1, 48, 8], "dtype": "float32", "quantization": {"dtype": "uint8", "min": -4.516740013571346, "scale": 0.04182166679232728, "original_dtype": "float32"}}, {"name": "StatefulPartitionedCall/functional_1/mobilenetv2_0.35_224_1/block_1_project_BN_1/batchnorm/sub", "shape": [8], "dtype": "float32", "quantization": {"dtype": "uint8", "min": -23.125173321892234, "scale": 0.11117871789371266, "original_dtype": "float32"}}, {"name": "StatefulPartitionedCall/functional_1/mobilenetv2_0.35_224_1/block_2_expand_1/convolution/merged_input", "shape": [1, 1, 8, 48], "dtype": "float32", "quantization": {"dtype": "uint8", "min": -0.4869929250548868, "scale": 0.004024734917808982, "original_dtype": "float32"}}, {"name": "StatefulPartitionedCall/functional_1/mobilenetv2_0.35_224_1/block_2_expand_BN_1/batchnorm/sub", "shape": [48], "dtype": "float32", "quantization": {"dtype": "uint8", "min": -1.8353650018280627, "scale": 0.029602661319807464, "original_dtype": "float32"}}, {"name": "StatefulPartitionedCall/functional_1/mobilenetv2_0.35_224_1/block_2_depthwise_1/depthwise/ReadVariableOp", "shape": [3, 3, 48, 1], "dtype": "float32", "quantization": {"dtype": "uint8", "min": -7.672645333234001, "scale": 0.06502241807825425, "original_dtype": "float32"}}, {"name": "StatefulPartitionedCall/functional_1/mobilenetv2_0.35_224_1/block_2_depthwise_BN_1/batchnorm/mul", "shape": [48], "dtype": "float32", "quantization": {"dtype": "uint8", "min": 0.0947212278842926, "scale": 0.002418241664475086, "original_dtype": "float32"}}, {"name": "StatefulPartitionedCall/functional_1/mobilenetv2_0.35_224_1/block_2_depthwise_BN_1/batchnorm/sub", "shape": [48], "dtype": "float32", "quantization": {"dtype": "uint8", "min": -2.47562941382913, "scale": 0.082520980460971, "original_dtype": "float32"}}, {"name": "StatefulPartitionedCall/functional_1/mobilenetv2_0.35_224_1/block_2_project_1/convolution/merged_input", "shape": [1, 1, 48, 8], "dtype": "float32", "quantization": {"dtype": "uint8", "min": -6.131957237393248, "scale": 0.05426510829551547, "original_dtype": "float32"}}, {"name": "StatefulPartitionedCall/functional_1/mobilenetv2_0.35_224_1/block_3_expand_1/convolution/merged_input", "shape": [1, 1, 8, 48], "dtype": "float32", "quantization": {"dtype": "uint8", "min": -0.24865893651457396, "scale": 0.003187935083520179, "original_dtype": "float32"}}, {"name": "StatefulPartitionedCall/functional_1/mobilenetv2_0.35_224_1/block_3_expand_BN_1/batchnorm/sub", "shape": [48], "dtype": "float32", "quantization": {"dtype": "uint8", "min": -1.4526845427120434, "scale": 0.029053690854240866, "original_dtype": "float32"}}, {"name": "StatefulPartitionedCall/functional_1/mobilenetv2_0.35_224_1/block_3_pad_1/Const", "shape": [4, 2], "dtype": "int32"}, {"name": "StatefulPartitionedCall/functional_1/mobilenetv2_0.35_224_1/block_3_depthwise_1/depthwise/ReadVariableOp", "shape": [3, 3, 48, 1], "dtype": "float32", "quantization": {"dtype": "uint8", "min": -3.735760416704066, "scale": 0.02941543635200052, "original_dtype": "float32"}}, {"name": "StatefulPartitionedCall/functional_1/mobilenetv2_0.35_224_1/block_3_depthwise_BN_1/batchnorm/mul", "shape": [48], "dtype": "float32", "quantization": {"dtype": "uint8", "min": 0.07368740439414978, "scale": 0.002965943836698345, "original_dtype": "float32"}}, {"name": "StatefulPartitionedCall/functional_1/mobilenetv2_0.35_224_1/block_3_depthwise_BN_1/batchnorm/sub", "shape": [48], "dtype": "float32", "quantization": {"dtype": "uint8", "min": -2.816932846518124, "scale": 0.035657377804026884, "original_dtype": "float32"}}, {"name": "StatefulPartitionedCall/functional_1/mobilenetv2_0.35_224_1/block_3_project_1/convolution/merged_input", "shape": [1, 1, 48, 16], "dtype": "float32", "quantization": {"dtype": "uint8", "min": -4.145847462672813, "scale": 0.03513430053112553, "original_dtype": "float32"}}, {"name": "StatefulPartitionedCall/functional_1/mobilenetv2_0.35_224_1/block_3_project_BN_1/batchnorm/sub", "shape": [16], "dtype": "float32", "quantization": {"dtype": "uint8", "min": -16.397182778751148, "scale": 0.15182576646991805, "original_dtype": "float32"}}, {"name": "StatefulPartitionedCall/functional_1/mobilenetv2_0.35_224_1/block_4_expand_1/convolution/merged_input", "shape": [1, 1, 16, 96], "dtype": "float32", "quantization": {"dtype": "uint8", "min": -0.3921776101869695, "scale": 0.002948703835992252, "original_dtype": "float32"}}, {"name": "StatefulPartitionedCall/functional_1/mobilenetv2_0.35_224_1/block_4_expand_BN_1/batchnorm/sub", "shape": [96], "dtype": "float32", "quantization": {"dtype": "uint8", "min": -2.3579147881152585, "scale": 0.02406035498076794, "original_dtype": "float32"}}, {"name": "StatefulPartitionedCall/functional_1/mobilenetv2_0.35_224_1/block_4_depthwise_1/depthwise/ReadVariableOp", "shape": [3, 3, 96, 1], "dtype": "float32", "quantization": {"dtype": "uint8", "min": -7.047111258787267, "scale": 0.05220082413916494, "original_dtype": "float32"}}, {"name": "StatefulPartitionedCall/functional_1/mobilenetv2_0.35_224_1/block_4_depthwise_BN_1/batchnorm/mul", "shape": [96], "dtype": "float32", "quantization": {"dtype": "uint8", "min": 0.06843169033527374, "scale": 0.006771296788664425, "original_dtype": "float32"}}, {"name": "StatefulPartitionedCall/functional_1/mobilenetv2_0.35_224_1/block_4_depthwise_BN_1/batchnorm/sub", "shape": [96], "dtype": "float32", "quantization": {"dtype": "uint8", "min": -16.917079065360273, "scale": 0.10914244558296951, "original_dtype": "float32"}}, {"name": "StatefulPartitionedCall/functional_1/mobilenetv2_0.35_224_1/block_4_project_1/convolution/merged_input", "shape": [1, 1, 96, 16], "dtype": "float32", "quantization": {"dtype": "uint8", "min": -5.224210245469037, "scale": 0.038986643622903265, "original_dtype": "float32"}}, {"name": "StatefulPartitionedCall/functional_1/mobilenetv2_0.35_224_1/block_5_expand_1/convolution/merged_input", "shape": [1, 1, 16, 96], "dtype": "float32", "quantization": {"dtype": "uint8", "min": -0.3191119607757119, "scale": 0.0025528956862056955, "original_dtype": "float32"}}, {"name": "StatefulPartitionedCall/functional_1/mobilenetv2_0.35_224_1/block_5_expand_BN_1/batchnorm/sub", "shape": [96], "dtype": "float32", "quantization": {"dtype": "uint8", "min": -1.339904530843099, "scale": 0.019704478394751455, "original_dtype": "float32"}}, {"name": "StatefulPartitionedCall/functional_1/mobilenetv2_0.35_224_1/block_5_depthwise_1/depthwise/ReadVariableOp", "shape": [3, 3, 96, 1], "dtype": "float32", "quantization": {"dtype": "uint8", "min": -5.398593463149726, "scale": 0.0431887477051978, "original_dtype": "float32"}}, {"name": "StatefulPartitionedCall/functional_1/mobilenetv2_0.35_224_1/block_5_depthwise_BN_1/batchnorm/mul", "shape": [96], "dtype": "float32", "quantization": {"dtype": "uint8", "min": 0.13196749985218048, "scale": 0.00878177922145993, "original_dtype": "float32"}}, {"name": "StatefulPartitionedCall/functional_1/mobilenetv2_0.35_224_1/block_5_depthwise_BN_1/batchnorm/sub", "shape": [96], "dtype": "float32", "quantization": {"dtype": "uint8", "min": -11.21920461654663, "scale": 0.05999574661254883, "original_dtype": "float32"}}, {"name": "StatefulPartitionedCall/functional_1/mobilenetv2_0.35_224_1/block_5_project_1/convolution/merged_input", "shape": [1, 1, 96, 16], "dtype": "float32", "quantization": {"dtype": "uint8", "min": -4.032555514690923, "scale": 0.03226044411752738, "original_dtype": "float32"}}, {"name": "StatefulPartitionedCall/functional_1/mobilenetv2_0.35_224_1/block_6_expand_1/convolution/merged_input", "shape": [1, 1, 16, 96], "dtype": "float32", "quantization": {"dtype": "uint8", "min": -0.5088231814842598, "scale": 0.003240911983976177, "original_dtype": "float32"}}, {"name": "StatefulPartitionedCall/functional_1/mobilenetv2_0.35_224_1/block_6_expand_BN_1/batchnorm/sub", "shape": [96], "dtype": "float32", "quantization": {"dtype": "uint8", "min": -2.736662228902181, "scale": 0.02736662228902181, "original_dtype": "float32"}}, {"name": "StatefulPartitionedCall/functional_1/mobilenetv2_0.35_224_1/block_6_pad_1/Const", "shape": [4, 2], "dtype": "int32"}, {"name": "StatefulPartitionedCall/functional_1/mobilenetv2_0.35_224_1/block_6_depthwise_1/depthwise/ReadVariableOp", "shape": [3, 3, 96, 1], "dtype": "float32", "quantization": {"dtype": "uint8", "min": -2.250753739300896, "scale": 0.018756281160840802, "original_dtype": "float32"}}, {"name": "StatefulPartitionedCall/functional_1/mobilenetv2_0.35_224_1/block_6_depthwise_BN_1/batchnorm/mul", "shape": [96], "dtype": "float32", "quantization": {"dtype": "uint8", "min": 0.05660014972090721, "scale": 0.003305378629296434, "original_dtype": "float32"}}, {"name": "StatefulPartitionedCall/functional_1/mobilenetv2_0.35_224_1/block_6_depthwise_BN_1/batchnorm/sub", "shape": [96], "dtype": "float32", "quantization": {"dtype": "uint8", "min": -2.6832245471430762, "scale": 0.03396486768535539, "original_dtype": "float32"}}, {"name": "StatefulPartitionedCall/functional_1/mobilenetv2_0.35_224_1/block_6_project_1/convolution/merged_input", "shape": [1, 1, 96, 24], "dtype": "float32", "quantization": {"dtype": "uint8", "min": -2.90127981597302, "scale": 0.027896921307432886, "original_dtype": "float32"}}, {"name": "StatefulPartitionedCall/functional_1/mobilenetv2_0.35_224_1/block_6_project_BN_1/batchnorm/sub", "shape": [24], "dtype": "float32", "quantization": {"dtype": "uint8", "min": -20.473858216229605, "scale": 0.1949891258688534, "original_dtype": "float32"}}, {"name": "StatefulPartitionedCall/functional_1/mobilenetv2_0.35_224_1/block_7_expand_1/convolution/merged_input", "shape": [1, 1, 24, 144], "dtype": "float32", "quantization": {"dtype": "uint8", "min": -0.34324454735307136, "scale": 0.0029847351943745335, "original_dtype": "float32"}}, {"name": "StatefulPartitionedCall/functional_1/mobilenetv2_0.35_224_1/block_7_expand_BN_1/batchnorm/sub", "shape": [144], "dtype": "float32", "quantization": {"dtype": "uint8", "min": -2.907723714791092, "scale": 0.025961818882063323, "original_dtype": "float32"}}, {"name": "StatefulPartitionedCall/functional_1/mobilenetv2_0.35_224_1/block_7_depthwise_1/depthwise/ReadVariableOp", "shape": [3, 3, 144, 1], "dtype": "float32", "quantization": {"dtype": "uint8", "min": -3.747389040741266, "scale": 0.030970157361498066, "original_dtype": "float32"}}, {"name": "StatefulPartitionedCall/functional_1/mobilenetv2_0.35_224_1/block_7_depthwise_BN_1/batchnorm/mul", "shape": [144], "dtype": "float32", "quantization": {"dtype": "uint8", "min": 0.23761095106601715, "scale": 0.013740726019821915, "original_dtype": "float32"}}, {"name": "StatefulPartitionedCall/functional_1/mobilenetv2_0.35_224_1/block_7_depthwise_BN_1/batchnorm/sub", "shape": [144], "dtype": "float32", "quantization": {"dtype": "uint8", "min": -9.816972796122233, "scale": 0.08249556971531288, "original_dtype": "float32"}}, {"name": "StatefulPartitionedCall/functional_1/mobilenetv2_0.35_224_1/block_7_project_1/convolution/merged_input", "shape": [1, 1, 144, 24], "dtype": "float32", "quantization": {"dtype": "uint8", "min": -5.5604504632014855, "scale": 0.034113193025775986, "original_dtype": "float32"}}, {"name": "StatefulPartitionedCall/functional_1/mobilenetv2_0.35_224_1/block_8_expand_1/convolution/merged_input", "shape": [1, 1, 24, 144], "dtype": "float32", "quantization": {"dtype": "uint8", "min": -0.19773251016934712, "scale": 0.001661617732515522, "original_dtype": "float32"}}, {"name": "StatefulPartitionedCall/functional_1/mobilenetv2_0.35_224_1/block_8_expand_BN_1/batchnorm/sub", "shape": [144], "dtype": "float32", "quantization": {"dtype": "uint8", "min": -2.649820909313127, "scale": 0.02344974256029316, "original_dtype": "float32"}}, {"name": "StatefulPartitionedCall/functional_1/mobilenetv2_0.35_224_1/block_8_depthwise_1/depthwise/ReadVariableOp", "shape": [3, 3, 144, 1], "dtype": "float32", "quantization": {"dtype": "uint8", "min": -4.021793021407782, "scale": 0.031420257979748296, "original_dtype": "float32"}}, {"name": "StatefulPartitionedCall/functional_1/mobilenetv2_0.35_224_1/block_8_depthwise_BN_1/batchnorm/mul", "shape": [144], "dtype": "float32", "quantization": {"dtype": "uint8", "min": 0.1998976767063141, "scale": 0.010014783985474531, "original_dtype": "float32"}}, {"name": "StatefulPartitionedCall/functional_1/mobilenetv2_0.35_224_1/block_8_depthwise_BN_1/batchnorm/sub", "shape": [144], "dtype": "float32", "quantization": {"dtype": "uint8", "min": -7.6390787012436805, "scale": 0.0565857681573606, "original_dtype": "float32"}}, {"name": "StatefulPartitionedCall/functional_1/mobilenetv2_0.35_224_1/block_8_project_1/convolution/merged_input", "shape": [1, 1, 144, 24], "dtype": "float32", "quantization": {"dtype": "uint8", "min": -2.625171551984899, "scale": 0.021342858146218693, "original_dtype": "float32"}}, {"name": "StatefulPartitionedCall/functional_1/mobilenetv2_0.35_224_1/block_9_expand_1/convolution/merged_input", "shape": [1, 1, 24, 144], "dtype": "float32", "quantization": {"dtype": "uint8", "min": -0.2114736341378268, "scale": 0.0015664713639839023, "original_dtype": "float32"}}, {"name": "StatefulPartitionedCall/functional_1/mobilenetv2_0.35_224_1/block_9_expand_BN_1/batchnorm/sub", "shape": [144], "dtype": "float32", "quantization": {"dtype": "uint8", "min": -1.5166654586791992, "scale": 0.014869269202737248, "original_dtype": "float32"}}, {"name": "StatefulPartitionedCall/functional_1/mobilenetv2_0.35_224_1/block_9_depthwise_1/depthwise/ReadVariableOp", "shape": [3, 3, 144, 1], "dtype": "float32", "quantization": {"dtype": "uint8", "min": -3.4858951568603516, "scale": 0.029049126307169597, "original_dtype": "float32"}}, {"name": "StatefulPartitionedCall/functional_1/mobilenetv2_0.35_224_1/block_9_depthwise_BN_1/batchnorm/mul", "shape": [144], "dtype": "float32", "quantization": {"dtype": "uint8", "min": 0.16937293112277985, "scale": 0.009361997714229658, "original_dtype": "float32"}}, {"name": "StatefulPartitionedCall/functional_1/mobilenetv2_0.35_224_1/block_9_depthwise_BN_1/batchnorm/sub", "shape": [144], "dtype": "float32", "quantization": {"dtype": "uint8", "min": -5.463270879259296, "scale": 0.044780908846387676, "original_dtype": "float32"}}, {"name": "StatefulPartitionedCall/functional_1/mobilenetv2_0.35_224_1/block_9_project_1/convolution/merged_input", "shape": [1, 1, 144, 24], "dtype": "float32", "quantization": {"dtype": "uint8", "min": -3.6627600772708067, "scale": 0.026735475016575232, "original_dtype": "float32"}}, {"name": "StatefulPartitionedCall/functional_1/mobilenetv2_0.35_224_1/block_10_expand_1/convolution/merged_input", "shape": [1, 1, 24, 144], "dtype": "float32", "quantization": {"dtype": "uint8", "min": -0.21602160124217762, "scale": 0.0017562731808307124, "original_dtype": "float32"}}, {"name": "StatefulPartitionedCall/functional_1/mobilenetv2_0.35_224_1/block_10_expand_BN_1/batchnorm/sub", "shape": [144], "dtype": "float32", "quantization": {"dtype": "uint8", "min": -1.9368883614446604, "scale": 0.01880474137324913, "original_dtype": "float32"}}, {"name": "StatefulPartitionedCall/functional_1/mobilenetv2_0.35_224_1/block_10_depthwise_1/depthwise/ReadVariableOp", "shape": [3, 3, 144, 1], "dtype": "float32", "quantization": {"dtype": "uint8", "min": -6.74079257366704, "scale": 0.05030442219154507, "original_dtype": "float32"}}, {"name": "StatefulPartitionedCall/functional_1/mobilenetv2_0.35_224_1/block_10_depthwise_BN_1/batchnorm/mul", "shape": [144], "dtype": "float32", "quantization": {"dtype": "uint8", "min": 0.09187424927949905, "scale": 0.005113134167942347, "original_dtype": "float32"}}, {"name": "StatefulPartitionedCall/functional_1/mobilenetv2_0.35_224_1/block_10_depthwise_BN_1/batchnorm/sub", "shape": [144], "dtype": "float32", "quantization": {"dtype": "uint8", "min": -2.2851135384802728, "scale": 0.03130292518466127, "original_dtype": "float32"}}, {"name": "StatefulPartitionedCall/functional_1/mobilenetv2_0.35_224_1/block_10_project_1/convolution/merged_input", "shape": [1, 1, 144, 32], "dtype": "float32", "quantization": {"dtype": "uint8", "min": -2.0570392533844593, "scale": 0.01940603069230622, "original_dtype": "float32"}}, {"name": "StatefulPartitionedCall/functional_1/mobilenetv2_0.35_224_1/block_10_project_BN_1/batchnorm/sub", "shape": [32], "dtype": "float32", "quantization": {"dtype": "uint8", "min": -16.61365298102884, "scale": 0.11225441203397864, "original_dtype": "float32"}}, {"name": "StatefulPartitionedCall/functional_1/mobilenetv2_0.35_224_1/block_11_expand_1/convolution/merged_input", "shape": [1, 1, 32, 192], "dtype": "float32", "quantization": {"dtype": "uint8", "min": -0.30237035482537516, "scale": 0.002085312791899139, "original_dtype": "float32"}}, {"name": "StatefulPartitionedCall/functional_1/mobilenetv2_0.35_224_1/block_11_expand_BN_1/batchnorm/sub", "shape": [192], "dtype": "float32", "quantization": {"dtype": "uint8", "min": -1.8401342630386353, "scale": 0.024535123507181802, "original_dtype": "float32"}}, {"name": "StatefulPartitionedCall/functional_1/mobilenetv2_0.35_224_1/block_11_depthwise_1/depthwise/ReadVariableOp", "shape": [3, 3, 192, 1], "dtype": "float32", "quantization": {"dtype": "uint8", "min": -4.28310484605677, "scale": 0.031963469000423655, "original_dtype": "float32"}}, {"name": "StatefulPartitionedCall/functional_1/mobilenetv2_0.35_224_1/block_11_depthwise_BN_1/batchnorm/mul", "shape": [192], "dtype": "float32", "quantization": {"dtype": "uint8", "min": 0.19867920875549316, "scale": 0.010071454328649185, "original_dtype": "float32"}}, {"name": "StatefulPartitionedCall/functional_1/mobilenetv2_0.35_224_1/block_11_depthwise_BN_1/batchnorm/sub", "shape": [192], "dtype": "float32", "quantization": {"dtype": "uint8", "min": -6.4508379244336895, "scale": 0.07866875517602061, "original_dtype": "float32"}}, {"name": "StatefulPartitionedCall/functional_1/mobilenetv2_0.35_224_1/block_11_project_1/convolution/merged_input", "shape": [1, 1, 192, 32], "dtype": "float32", "quantization": {"dtype": "uint8", "min": -2.147809087528902, "scale": 0.016649682849061254, "original_dtype": "float32"}}, {"name": "StatefulPartitionedCall/functional_1/mobilenetv2_0.35_224_1/block_12_expand_1/convolution/merged_input", "shape": [1, 1, 32, 192], "dtype": "float32", "quantization": {"dtype": "uint8", "min": -0.3140745074725619, "scale": 0.002079963625646105, "original_dtype": "float32"}}, {"name": "StatefulPartitionedCall/functional_1/mobilenetv2_0.35_224_1/block_12_expand_BN_1/batchnorm/sub", "shape": [192], "dtype": "float32", "quantization": {"dtype": "uint8", "min": -1.8284391234902775, "scale": 0.021016541649313533, "original_dtype": "float32"}}, {"name": "StatefulPartitionedCall/functional_1/mobilenetv2_0.35_224_1/block_12_depthwise_1/depthwise/ReadVariableOp", "shape": [3, 3, 192, 1], "dtype": "float32", "quantization": {"dtype": "uint8", "min": -3.9292642686881267, "scale": 0.03220708416957481, "original_dtype": "float32"}}, {"name": "StatefulPartitionedCall/functional_1/mobilenetv2_0.35_224_1/block_12_depthwise_BN_1/batchnorm/mul", "shape": [192], "dtype": "float32", "quantization": {"dtype": "uint8", "min": 0.12217172980308533, "scale": 0.010017539590012793, "original_dtype": "float32"}}, {"name": "StatefulPartitionedCall/functional_1/mobilenetv2_0.35_224_1/block_12_depthwise_BN_1/batchnorm/sub", "shape": [192], "dtype": "float32", "quantization": {"dtype": "uint8", "min": -7.3720805598240275, "scale": 0.047561810063380824, "original_dtype": "float32"}}, {"name": "StatefulPartitionedCall/functional_1/mobilenetv2_0.35_224_1/block_12_project_1/convolution/merged_input", "shape": [1, 1, 192, 32], "dtype": "float32", "quantization": {"dtype": "uint8", "min": -3.8223139818976906, "scale": 0.031852616515814086, "original_dtype": "float32"}}, {"name": "StatefulPartitionedCall/functional_1/mobilenetv2_0.35_224_1/block_13_expand_1/convolution/merged_input", "shape": [1, 1, 32, 192], "dtype": "float32", "quantization": {"dtype": "uint8", "min": -0.23138057016858868, "scale": 0.0015957280701281978, "original_dtype": "float32"}}, {"name": "StatefulPartitionedCall/functional_1/mobilenetv2_0.35_224_1/block_13_expand_BN_1/batchnorm/sub", "shape": [192], "dtype": "float32", "quantization": {"dtype": "uint8", "min": -2.510306453704834, "scale": 0.021095012216007007, "original_dtype": "float32"}}, {"name": "StatefulPartitionedCall/functional_1/mobilenetv2_0.35_224_1/block_13_pad_1/Const", "shape": [4, 2], "dtype": "int32"}, {"name": "StatefulPartitionedCall/functional_1/mobilenetv2_0.35_224_1/block_13_depthwise_1/depthwise/ReadVariableOp", "shape": [3, 3, 192, 1], "dtype": "float32", "quantization": {"dtype": "uint8", "min": -1.9525399881250718, "scale": 0.015135968900194354, "original_dtype": "float32"}}, {"name": "StatefulPartitionedCall/functional_1/mobilenetv2_0.35_224_1/block_13_depthwise_BN_1/batchnorm/mul", "shape": [192], "dtype": "float32", "quantization": {"dtype": "uint8", "min": 0.07805760949850082, "scale": 0.004723602328814712, "original_dtype": "float32"}}, {"name": "StatefulPartitionedCall/functional_1/mobilenetv2_0.35_224_1/block_13_depthwise_BN_1/batchnorm/sub", "shape": [192], "dtype": "float32", "quantization": {"dtype": "uint8", "min": -7.084936568316291, "scale": 0.06107703938203699, "original_dtype": "float32"}}, {"name": "StatefulPartitionedCall/functional_1/mobilenetv2_0.35_224_1/block_13_project_1/convolution/merged_input", "shape": [1, 1, 192, 56], "dtype": "float32", "quantization": {"dtype": "uint8", "min": -2.2779368143455656, "scale": 0.015085674267189176, "original_dtype": "float32"}}, {"name": "StatefulPartitionedCall/functional_1/mobilenetv2_0.35_224_1/block_13_project_BN_1/batchnorm/sub", "shape": [56], "dtype": "float32", "quantization": {"dtype": "uint8", "min": -14.123339922287885, "scale": 0.1295719258925494, "original_dtype": "float32"}}, {"name": "StatefulPartitionedCall/functional_1/mobilenetv2_0.35_224_1/block_14_expand_1/convolution/merged_input", "shape": [1, 1, 56, 336], "dtype": "float32", "quantization": {"dtype": "uint8", "min": -0.45555477142333983, "scale": 0.0034511725107828775, "original_dtype": "float32"}}, {"name": "StatefulPartitionedCall/functional_1/mobilenetv2_0.35_224_1/block_14_expand_BN_1/batchnorm/sub", "shape": [336], "dtype": "float32", "quantization": {"dtype": "uint8", "min": -2.0291623452130487, "scale": 0.024745882258695714, "original_dtype": "float32"}}, {"name": "StatefulPartitionedCall/functional_1/mobilenetv2_0.35_224_1/block_14_depthwise_1/depthwise/ReadVariableOp", "shape": [3, 3, 336, 1], "dtype": "float32", "quantization": {"dtype": "uint8", "min": -6.03317440257353, "scale": 0.04189704446231618, "original_dtype": "float32"}}, {"name": "StatefulPartitionedCall/functional_1/mobilenetv2_0.35_224_1/block_14_depthwise_BN_1/batchnorm/mul", "shape": [336], "dtype": "float32", "quantization": {"dtype": "uint8", "min": 0.1743764579296112, "scale": 0.12995323118041543, "original_dtype": "float32"}}, {"name": "StatefulPartitionedCall/functional_1/mobilenetv2_0.35_224_1/block_14_depthwise_BN_1/batchnorm/sub", "shape": [336], "dtype": "float32", "quantization": {"dtype": "uint8", "min": -6.615032689711627, "scale": 0.09187545402377259, "original_dtype": "float32"}}, {"name": "StatefulPartitionedCall/functional_1/mobilenetv2_0.35_224_1/block_14_project_1/convolution/merged_input", "shape": [1, 1, 336, 56], "dtype": "float32", "quantization": {"dtype": "uint8", "min": -2.5034075157315123, "scale": 0.017881482255225088, "original_dtype": "float32"}}, {"name": "StatefulPartitionedCall/functional_1/mobilenetv2_0.35_224_1/block_15_expand_1/convolution/merged_input", "shape": [1, 1, 56, 336], "dtype": "float32", "quantization": {"dtype": "uint8", "min": -0.21451903277752446, "scale": 0.001849302006702797, "original_dtype": "float32"}}, {"name": "StatefulPartitionedCall/functional_1/mobilenetv2_0.35_224_1/block_15_expand_BN_1/batchnorm/sub", "shape": [336], "dtype": "float32", "quantization": {"dtype": "uint8", "min": -2.220277234619739, "scale": 0.023371339311786726, "original_dtype": "float32"}}, {"name": "StatefulPartitionedCall/functional_1/mobilenetv2_0.35_224_1/block_15_depthwise_1/depthwise/ReadVariableOp", "shape": [3, 3, 336, 1], "dtype": "float32", "quantization": {"dtype": "uint8", "min": -6.010780603745404, "scale": 0.041741531970454195, "original_dtype": "float32"}}, {"name": "StatefulPartitionedCall/functional_1/mobilenetv2_0.35_224_1/block_15_depthwise_BN_1/batchnorm/mul", "shape": [336], "dtype": "float32", "quantization": {"dtype": "uint8", "min": 0.09396174550056458, "scale": 0.1260213588967043, "original_dtype": "float32"}}, {"name": "StatefulPartitionedCall/functional_1/mobilenetv2_0.35_224_1/block_15_depthwise_BN_1/batchnorm/sub", "shape": [336], "dtype": "float32", "quantization": {"dtype": "uint8", "min": -39.842034956988165, "scale": 0.18360384772805607, "original_dtype": "float32"}}, {"name": "StatefulPartitionedCall/functional_1/mobilenetv2_0.35_224_1/block_15_project_1/convolution/merged_input", "shape": [1, 1, 336, 56], "dtype": "float32", "quantization": {"dtype": "uint8", "min": -2.668737523696002, "scale": 0.022055682014016545, "original_dtype": "float32"}}, {"name": "StatefulPartitionedCall/functional_1/mobilenetv2_0.35_224_1/block_16_expand_1/convolution/merged_input", "shape": [1, 1, 56, 336], "dtype": "float32", "quantization": {"dtype": "uint8", "min": -0.3016704104694666, "scale": 0.002024633627311856, "original_dtype": "float32"}}, {"name": "StatefulPartitionedCall/functional_1/mobilenetv2_0.35_224_1/block_16_expand_BN_1/batchnorm/sub", "shape": [336], "dtype": "float32", "quantization": {"dtype": "uint8", "min": -2.574006368599686, "scale": 0.02181361329321768, "original_dtype": "float32"}}, {"name": "StatefulPartitionedCall/functional_1/mobilenetv2_0.35_224_1/block_16_depthwise_1/depthwise/ReadVariableOp", "shape": [3, 3, 336, 1], "dtype": "float32", "quantization": {"dtype": "uint8", "min": -4.110635566711426, "scale": 0.02635022799173991, "original_dtype": "float32"}}, {"name": "StatefulPartitionedCall/functional_1/mobilenetv2_0.35_224_1/block_16_depthwise_BN_1/batchnorm/mul", "shape": [336], "dtype": "float32", "quantization": {"dtype": "uint8", "min": 0.21982789039611816, "scale": 0.2905889688753614, "original_dtype": "float32"}}, {"name": "StatefulPartitionedCall/functional_1/mobilenetv2_0.35_224_1/block_16_depthwise_BN_1/batchnorm/sub", "shape": [336], "dtype": "float32", "quantization": {"dtype": "uint8", "min": -2.951705882128547, "scale": 0.03392765381756951, "original_dtype": "float32"}}, {"name": "StatefulPartitionedCall/functional_1/mobilenetv2_0.35_224_1/block_16_project_1/convolution/merged_input", "shape": [1, 1, 336, 112], "dtype": "float32", "quantization": {"dtype": "uint8", "min": -0.9649110191008624, "scale": 0.0077192881528068994, "original_dtype": "float32"}}, {"name": "StatefulPartitionedCall/functional_1/mobilenetv2_0.35_224_1/block_16_project_BN_1/batchnorm/sub", "shape": [112], "dtype": "float32", "quantization": {"dtype": "uint8", "min": -14.602698629042681, "scale": 0.1035652385038488, "original_dtype": "float32"}}, {"name": "StatefulPartitionedCall/functional_1/mobilenetv2_0.35_224_1/Conv_1_1/convolution/merged_input", "shape": [1, 1, 112, 1280], "dtype": "float32", "quantization": {"dtype": "uint8", "min": -0.8430104921845829, "scale": 0.006744083937476663, "original_dtype": "float32"}}, {"name": "StatefulPartitionedCall/functional_1/mobilenetv2_0.35_224_1/Conv_1_bn_1/batchnorm/sub", "shape": [1280], "dtype": "float32", "quantization": {"dtype": "uint8", "min": -7.426114082336426, "scale": 0.010752023435106464, "original_dtype": "float32"}}, {"name": "StatefulPartitionedCall/functional_1/global_average_pooling2d_1/Mean/reduction_indices", "shape": [2], "dtype": "int32"}, {"name": "StatefulPartitionedCall/functional_1/dense_1_1/Cast/ReadVariableOp", "shape": [1280, 64], "dtype": "float32", "quantization": {"dtype": "uint8", "min": -0.41473830237108117, "scale": 0.003291573828341914, "original_dtype": "float32"}}, {"name": "StatefulPartitionedCall/functional_1/dense_1_1/BiasAdd/ReadVariableOp", "shape": [64], "dtype": "float32", "quantization": {"dtype": "uint8", "min": -0.05277334849039714, "scale": 0.00038803932713527304, "original_dtype": "float32"}}, {"name": "StatefulPartitionedCall/functional_1/earth_1/Cast/ReadVariableOp", "shape": [64, 5], "dtype": "float32", "quantization": {"dtype": "uint8", "min": -0.4042024779553507, "scale": 0.002950383050768983, "original_dtype": "float32"}}, {"name": "StatefulPartitionedCall/functional_1/earth_1/BiasAdd/ReadVariableOp", "shape": [5], "dtype": "float32", "quantization": {"dtype": "uint8", "min": -0.07650528173236286, "scale": 0.0005930641994756811, "original_dtype": "float32"}}]}]}