{
  "format": "graph-model",
  "generatedBy": "2.19.0",
  "convertedBy": "TensorFlow.js Converter v4.22.0",
  "signature": {
    "inputs": {
      "x": {
        "name": "x:0",
        "dtype": "DT_FLOAT",
        "tensorShape": {
          "dim": [
            { "size": "-1" },
            { "size": "224" },
            { "size": "224" },
            { "size": "3" }
          ]
        }
      }
    },
    "outputs": {
      "output_0": {
        "name": "Identity:0",
        "dtype": "DT_FLOAT",
        "tensorShape": {
          "dim": [
            { "size": "-1" },
            { "size": "56" },
            { "size": "56" },
            { "size": "4" }
          ]
        }
      }
    }
  },
  "modelTopology": {
    "node": [
      {
        "name": "StatefulPartitionedCall/boundary_detector_1/conv2d_3_1/convolution/ReadVariableOp",
        "op": "Const",
        "attr": {
          "value": {
            "tensor": {
              "dtype": "DT_FLOAT",
              "tensorShape": {
                "dim": [
                  { "size": "1" },
                  { "size": "1" },
                  { "size": "144" },
                  { "size": "128" }
                ]
              }
            }
          },
          "dtype": { "type": "DT_FLOAT" }
        }
      },
      {
        "name": "StatefulPartitionedCall/boundary_detector_1/conv2d_3_1/Squeeze",
        "op": "Const",
        "attr": {
          "value": {
            "tensor": {
              "dtype": "DT_FLOAT",
              "tensorShape": { "dim": [{ "size": "128" }] }
            }
          },
          "dtype": { "type": "DT_FLOAT" }
        }
      },
      {
        "name": "StatefulPartitionedCall/boundary_detector_1/up_sampling2d_1_2/Repeat_1/ExpandDims/dim",
        "op": "Const",
        "attr": {
          "value": { "tensor": { "dtype": "DT_INT32", "tensorShape": {} } },
          "dtype": { "type": "DT_INT32" }
        }
      },
      {
        "name": "StatefulPartitionedCall/boundary_detector_1/up_sampling2d_1_2/Repeat_1/Tile/multiples",
        "op": "Const",
        "attr": {
          "value": {
            "tensor": {
              "dtype": "DT_INT32",
              "tensorShape": { "dim": [{ "size": "5" }] }
            }
          },
          "dtype": { "type": "DT_INT32" }
        }
      },
      {
        "name": "StatefulPartitionedCall/boundary_detector_1/up_sampling2d_1_2/Repeat_1/strided_slice/stack",
        "op": "Const",
        "attr": {
          "value": {
            "tensor": {
              "dtype": "DT_INT32",
              "tensorShape": { "dim": [{ "size": "1" }] }
            }
          },
          "dtype": { "type": "DT_INT32" }
        }
      },
      {
        "name": "StatefulPartitionedCall/boundary_detector_1/up_sampling2d_1_2/Repeat_1/strided_slice/stack_1",
        "op": "Const",
        "attr": {
          "value": {
            "tensor": {
              "dtype": "DT_INT32",
              "tensorShape": { "dim": [{ "size": "1" }] }
            }
          },
          "dtype": { "type": "DT_INT32" }
        }
      },
      {
        "name": "StatefulPartitionedCall/boundary_detector_1/up_sampling2d_1_2/Repeat_1/strided_slice/stack_2",
        "op": "Const",
        "attr": {
          "value": {
            "tensor": {
              "dtype": "DT_INT32",
              "tensorShape": { "dim": [{ "size": "1" }] }
            }
          },
          "dtype": { "type": "DT_INT32" }
        }
      },
      {
        "name": "StatefulPartitionedCall/boundary_detector_1/up_sampling2d_1_2/Repeat_1/Reshape",
        "op": "Const",
        "attr": {
          "value": { "tensor": { "dtype": "DT_INT32", "tensorShape": {} } },
          "dtype": { "type": "DT_INT32" }
        }
      },
      {
        "name": "StatefulPartitionedCall/boundary_detector_1/up_sampling2d_1_2/Repeat_1/strided_slice_1/stack",
        "op": "Const",
        "attr": {
          "value": {
            "tensor": {
              "dtype": "DT_INT32",
              "tensorShape": { "dim": [{ "size": "1" }] }
            }
          },
          "dtype": { "type": "DT_INT32" }
        }
      },
      {
        "name": "StatefulPartitionedCall/boundary_detector_1/up_sampling2d_1_2/Repeat_1/strided_slice_1/stack_1",
        "op": "Const",
        "attr": {
          "value": {
            "tensor": {
              "dtype": "DT_INT32",
              "tensorShape": { "dim": [{ "size": "1" }] }
            }
          },
          "dtype": { "type": "DT_INT32" }
        }
      },
      {
        "name": "StatefulPartitionedCall/boundary_detector_1/up_sampling2d_1_2/Repeat_1/strided_slice_1/stack_2",
        "op": "Const",
        "attr": {
          "value": {
            "tensor": {
              "dtype": "DT_INT32",
              "tensorShape": { "dim": [{ "size": "1" }] }
            }
          },
          "dtype": { "type": "DT_INT32" }
        }
      },
      {
        "name": "StatefulPartitionedCall/boundary_detector_1/up_sampling2d_1_2/Repeat/ExpandDims/dim",
        "op": "Const",
        "attr": {
          "value": { "tensor": { "dtype": "DT_INT32", "tensorShape": {} } },
          "dtype": { "type": "DT_INT32" }
        }
      },
      {
        "name": "StatefulPartitionedCall/boundary_detector_1/up_sampling2d_1_2/Repeat/Tile/multiples",
        "op": "Const",
        "attr": {
          "value": {
            "tensor": {
              "dtype": "DT_INT32",
              "tensorShape": { "dim": [{ "size": "5" }] }
            }
          },
          "dtype": { "type": "DT_INT32" }
        }
      },
      {
        "name": "StatefulPartitionedCall/boundary_detector_1/up_sampling2d_1_2/Repeat/strided_slice/stack",
        "op": "Const",
        "attr": {
          "value": {
            "tensor": {
              "dtype": "DT_INT32",
              "tensorShape": { "dim": [{ "size": "1" }] }
            }
          },
          "dtype": { "type": "DT_INT32" }
        }
      },
      {
        "name": "StatefulPartitionedCall/boundary_detector_1/up_sampling2d_1_2/Repeat/strided_slice/stack_1",
        "op": "Const",
        "attr": {
          "value": {
            "tensor": {
              "dtype": "DT_INT32",
              "tensorShape": { "dim": [{ "size": "1" }] }
            }
          },
          "dtype": { "type": "DT_INT32" }
        }
      },
      {
        "name": "StatefulPartitionedCall/boundary_detector_1/up_sampling2d_1_2/Repeat/strided_slice/stack_2",
        "op": "Const",
        "attr": {
          "value": {
            "tensor": {
              "dtype": "DT_INT32",
              "tensorShape": { "dim": [{ "size": "1" }] }
            }
          },
          "dtype": { "type": "DT_INT32" }
        }
      },
      {
        "name": "StatefulPartitionedCall/boundary_detector_1/up_sampling2d_1_2/Repeat/Reshape",
        "op": "Const",
        "attr": {
          "value": { "tensor": { "dtype": "DT_INT32", "tensorShape": {} } },
          "dtype": { "type": "DT_INT32" }
        }
      },
      {
        "name": "StatefulPartitionedCall/boundary_detector_1/up_sampling2d_1_2/Repeat/strided_slice_1/stack",
        "op": "Const",
        "attr": {
          "value": {
            "tensor": {
              "dtype": "DT_INT32",
              "tensorShape": { "dim": [{ "size": "1" }] }
            }
          },
          "dtype": { "type": "DT_INT32" }
        }
      },
      {
        "name": "StatefulPartitionedCall/boundary_detector_1/up_sampling2d_1_2/Repeat/strided_slice_1/stack_1",
        "op": "Const",
        "attr": {
          "value": {
            "tensor": {
              "dtype": "DT_INT32",
              "tensorShape": { "dim": [{ "size": "1" }] }
            }
          },
          "dtype": { "type": "DT_INT32" }
        }
      },
      {
        "name": "StatefulPartitionedCall/boundary_detector_1/up_sampling2d_1_2/Repeat/strided_slice_1/stack_2",
        "op": "Const",
        "attr": {
          "value": {
            "tensor": {
              "dtype": "DT_INT32",
              "tensorShape": { "dim": [{ "size": "1" }] }
            }
          },
          "dtype": { "type": "DT_INT32" }
        }
      },
      {
        "name": "StatefulPartitionedCall/boundary_detector_1/conv2d_1_2/convolution/ReadVariableOp",
        "op": "Const",
        "attr": {
          "value": {
            "tensor": {
              "dtype": "DT_FLOAT",
              "tensorShape": {
                "dim": [
                  { "size": "1" },
                  { "size": "1" },
                  { "size": "192" },
                  { "size": "128" }
                ]
              }
            }
          },
          "dtype": { "type": "DT_FLOAT" }
        }
      },
      {
        "name": "StatefulPartitionedCall/boundary_detector_1/conv2d_1_2/Squeeze",
        "op": "Const",
        "attr": {
          "value": {
            "tensor": {
              "dtype": "DT_FLOAT",
              "tensorShape": { "dim": [{ "size": "128" }] }
            }
          },
          "dtype": { "type": "DT_FLOAT" }
        }
      },
      {
        "name": "StatefulPartitionedCall/boundary_detector_1/up_sampling2d_1/Repeat_1/ExpandDims/dim",
        "op": "Const",
        "attr": {
          "value": { "tensor": { "dtype": "DT_INT32", "tensorShape": {} } },
          "dtype": { "type": "DT_INT32" }
        }
      },
      {
        "name": "StatefulPartitionedCall/boundary_detector_1/up_sampling2d_1/Repeat_1/Tile/multiples",
        "op": "Const",
        "attr": {
          "value": {
            "tensor": {
              "dtype": "DT_INT32",
              "tensorShape": { "dim": [{ "size": "5" }] }
            }
          },
          "dtype": { "type": "DT_INT32" }
        }
      },
      {
        "name": "StatefulPartitionedCall/boundary_detector_1/up_sampling2d_1/Repeat_1/strided_slice/stack",
        "op": "Const",
        "attr": {
          "value": {
            "tensor": {
              "dtype": "DT_INT32",
              "tensorShape": { "dim": [{ "size": "1" }] }
            }
          },
          "dtype": { "type": "DT_INT32" }
        }
      },
      {
        "name": "StatefulPartitionedCall/boundary_detector_1/up_sampling2d_1/Repeat_1/strided_slice/stack_1",
        "op": "Const",
        "attr": {
          "value": {
            "tensor": {
              "dtype": "DT_INT32",
              "tensorShape": { "dim": [{ "size": "1" }] }
            }
          },
          "dtype": { "type": "DT_INT32" }
        }
      },
      {
        "name": "StatefulPartitionedCall/boundary_detector_1/up_sampling2d_1/Repeat_1/strided_slice/stack_2",
        "op": "Const",
        "attr": {
          "value": {
            "tensor": {
              "dtype": "DT_INT32",
              "tensorShape": { "dim": [{ "size": "1" }] }
            }
          },
          "dtype": { "type": "DT_INT32" }
        }
      },
      {
        "name": "StatefulPartitionedCall/boundary_detector_1/up_sampling2d_1/Repeat_1/Reshape",
        "op": "Const",
        "attr": {
          "value": { "tensor": { "dtype": "DT_INT32", "tensorShape": {} } },
          "dtype": { "type": "DT_INT32" }
        }
      },
      {
        "name": "StatefulPartitionedCall/boundary_detector_1/up_sampling2d_1/Repeat_1/strided_slice_1/stack",
        "op": "Const",
        "attr": {
          "value": {
            "tensor": {
              "dtype": "DT_INT32",
              "tensorShape": { "dim": [{ "size": "1" }] }
            }
          },
          "dtype": { "type": "DT_INT32" }
        }
      },
      {
        "name": "StatefulPartitionedCall/boundary_detector_1/up_sampling2d_1/Repeat_1/strided_slice_1/stack_1",
        "op": "Const",
        "attr": {
          "value": {
            "tensor": {
              "dtype": "DT_INT32",
              "tensorShape": { "dim": [{ "size": "1" }] }
            }
          },
          "dtype": { "type": "DT_INT32" }
        }
      },
      {
        "name": "StatefulPartitionedCall/boundary_detector_1/up_sampling2d_1/Repeat_1/strided_slice_1/stack_2",
        "op": "Const",
        "attr": {
          "value": {
            "tensor": {
              "dtype": "DT_INT32",
              "tensorShape": { "dim": [{ "size": "1" }] }
            }
          },
          "dtype": { "type": "DT_INT32" }
        }
      },
      {
        "name": "StatefulPartitionedCall/boundary_detector_1/up_sampling2d_1/Repeat/ExpandDims/dim",
        "op": "Const",
        "attr": {
          "value": { "tensor": { "dtype": "DT_INT32", "tensorShape": {} } },
          "dtype": { "type": "DT_INT32" }
        }
      },
      {
        "name": "StatefulPartitionedCall/boundary_detector_1/up_sampling2d_1/Repeat/Tile/multiples",
        "op": "Const",
        "attr": {
          "value": {
            "tensor": {
              "dtype": "DT_INT32",
              "tensorShape": { "dim": [{ "size": "5" }] }
            }
          },
          "dtype": { "type": "DT_INT32" }
        }
      },
      {
        "name": "StatefulPartitionedCall/boundary_detector_1/up_sampling2d_1/Repeat/strided_slice/stack",
        "op": "Const",
        "attr": {
          "value": {
            "tensor": {
              "dtype": "DT_INT32",
              "tensorShape": { "dim": [{ "size": "1" }] }
            }
          },
          "dtype": { "type": "DT_INT32" }
        }
      },
      {
        "name": "StatefulPartitionedCall/boundary_detector_1/up_sampling2d_1/Repeat/strided_slice/stack_1",
        "op": "Const",
        "attr": {
          "value": {
            "tensor": {
              "dtype": "DT_INT32",
              "tensorShape": { "dim": [{ "size": "1" }] }
            }
          },
          "dtype": { "type": "DT_INT32" }
        }
      },
      {
        "name": "StatefulPartitionedCall/boundary_detector_1/up_sampling2d_1/Repeat/strided_slice/stack_2",
        "op": "Const",
        "attr": {
          "value": {
            "tensor": {
              "dtype": "DT_INT32",
              "tensorShape": { "dim": [{ "size": "1" }] }
            }
          },
          "dtype": { "type": "DT_INT32" }
        }
      },
      {
        "name": "StatefulPartitionedCall/boundary_detector_1/up_sampling2d_1/Repeat/Reshape",
        "op": "Const",
        "attr": {
          "value": { "tensor": { "dtype": "DT_INT32", "tensorShape": {} } },
          "dtype": { "type": "DT_INT32" }
        }
      },
      {
        "name": "StatefulPartitionedCall/boundary_detector_1/up_sampling2d_1/Repeat/strided_slice_1/stack",
        "op": "Const",
        "attr": {
          "value": {
            "tensor": {
              "dtype": "DT_INT32",
              "tensorShape": { "dim": [{ "size": "1" }] }
            }
          },
          "dtype": { "type": "DT_INT32" }
        }
      },
      {
        "name": "StatefulPartitionedCall/boundary_detector_1/up_sampling2d_1/Repeat/strided_slice_1/stack_1",
        "op": "Const",
        "attr": {
          "value": {
            "tensor": {
              "dtype": "DT_INT32",
              "tensorShape": { "dim": [{ "size": "1" }] }
            }
          },
          "dtype": { "type": "DT_INT32" }
        }
      },
      {
        "name": "StatefulPartitionedCall/boundary_detector_1/up_sampling2d_1/Repeat/strided_slice_1/stack_2",
        "op": "Const",
        "attr": {
          "value": {
            "tensor": {
              "dtype": "DT_INT32",
              "tensorShape": { "dim": [{ "size": "1" }] }
            }
          },
          "dtype": { "type": "DT_INT32" }
        }
      },
      {
        "name": "StatefulPartitionedCall/boundary_detector_1/functional_1/block_12_project_BN_1/batchnorm/sub",
        "op": "Const",
        "attr": {
          "value": {
            "tensor": {
              "dtype": "DT_FLOAT",
              "tensorShape": { "dim": [{ "size": "96" }] }
            }
          },
          "dtype": { "type": "DT_FLOAT" }
        }
      },
      {
        "name": "StatefulPartitionedCall/boundary_detector_1/functional_1/block_11_project_BN_1/batchnorm/sub",
        "op": "Const",
        "attr": {
          "value": {
            "tensor": {
              "dtype": "DT_FLOAT",
              "tensorShape": { "dim": [{ "size": "96" }] }
            }
          },
          "dtype": { "type": "DT_FLOAT" }
        }
      },
      {
        "name": "StatefulPartitionedCall/boundary_detector_1/functional_1/block_9_project_BN_1/batchnorm/sub",
        "op": "Const",
        "attr": {
          "value": {
            "tensor": {
              "dtype": "DT_FLOAT",
              "tensorShape": { "dim": [{ "size": "64" }] }
            }
          },
          "dtype": { "type": "DT_FLOAT" }
        }
      },
      {
        "name": "StatefulPartitionedCall/boundary_detector_1/functional_1/block_8_project_BN_1/batchnorm/sub",
        "op": "Const",
        "attr": {
          "value": {
            "tensor": {
              "dtype": "DT_FLOAT",
              "tensorShape": { "dim": [{ "size": "64" }] }
            }
          },
          "dtype": { "type": "DT_FLOAT" }
        }
      },
      {
        "name": "StatefulPartitionedCall/boundary_detector_1/functional_1/block_7_project_BN_1/batchnorm/sub",
        "op": "Const",
        "attr": {
          "value": {
            "tensor": {
              "dtype": "DT_FLOAT",
              "tensorShape": { "dim": [{ "size": "64" }] }
            }
          },
          "dtype": { "type": "DT_FLOAT" }
        }
      },
      {
        "name": "StatefulPartitionedCall/boundary_detector_1/functional_1/block_5_project_BN_1/batchnorm/sub",
        "op": "Const",
        "attr": {
          "value": {
            "tensor": {
              "dtype": "DT_FLOAT",
              "tensorShape": { "dim": [{ "size": "32" }] }
            }
          },
          "dtype": { "type": "DT_FLOAT" }
        }
      },
      {
        "name": "StatefulPartitionedCall/boundary_detector_1/functional_1/block_4_project_BN_1/batchnorm/sub",
        "op": "Const",
        "attr": {
          "value": {
            "tensor": {
              "dtype": "DT_FLOAT",
              "tensorShape": { "dim": [{ "size": "32" }] }
            }
          },
          "dtype": { "type": "DT_FLOAT" }
        }
      },
      {
        "name": "StatefulPartitionedCall/boundary_detector_1/functional_1/block_2_project_BN_1/batchnorm/sub",
        "op": "Const",
        "attr": {
          "value": {
            "tensor": {
              "dtype": "DT_FLOAT",
              "tensorShape": { "dim": [{ "size": "24" }] }
            }
          },
          "dtype": { "type": "DT_FLOAT" }
        }
      },
      {
        "name": "StatefulPartitionedCall/boundary_detector_1/rescaling_1/Cast/x",
        "op": "Const",
        "attr": {
          "value": { "tensor": { "dtype": "DT_FLOAT", "tensorShape": {} } },
          "dtype": { "type": "DT_FLOAT" }
        }
      },
      {
        "name": "StatefulPartitionedCall/boundary_detector_1/rescaling_1/Cast_1/x",
        "op": "Const",
        "attr": {
          "value": { "tensor": { "dtype": "DT_FLOAT", "tensorShape": {} } },
          "dtype": { "type": "DT_FLOAT" }
        }
      },
      {
        "name": "StatefulPartitionedCall/boundary_detector_1/functional_1/Conv1_1/convolution/merged_input",
        "op": "Const",
        "attr": {
          "value": {
            "tensor": {
              "dtype": "DT_FLOAT",
              "tensorShape": {
                "dim": [
                  { "size": "3" },
                  { "size": "3" },
                  { "size": "3" },
                  { "size": "32" }
                ]
              }
            }
          },
          "dtype": { "type": "DT_FLOAT" }
        }
      },
      {
        "name": "StatefulPartitionedCall/boundary_detector_1/functional_1/bn_Conv1_1/batchnorm/sub",
        "op": "Const",
        "attr": {
          "value": {
            "tensor": {
              "dtype": "DT_FLOAT",
              "tensorShape": { "dim": [{ "size": "32" }] }
            }
          },
          "dtype": { "type": "DT_FLOAT" }
        }
      },
      {
        "name": "StatefulPartitionedCall/boundary_detector_1/functional_1/expanded_conv_depthwise_1/depthwise/ReadVariableOp",
        "op": "Const",
        "attr": {
          "value": {
            "tensor": {
              "dtype": "DT_FLOAT",
              "tensorShape": {
                "dim": [
                  { "size": "3" },
                  { "size": "3" },
                  { "size": "32" },
                  { "size": "1" }
                ]
              }
            }
          },
          "dtype": { "type": "DT_FLOAT" }
        }
      },
      {
        "name": "StatefulPartitionedCall/boundary_detector_1/functional_1/expanded_conv_depthwise_BN_1/batchnorm/mul",
        "op": "Const",
        "attr": {
          "value": {
            "tensor": {
              "dtype": "DT_FLOAT",
              "tensorShape": { "dim": [{ "size": "32" }] }
            }
          },
          "dtype": { "type": "DT_FLOAT" }
        }
      },
      {
        "name": "StatefulPartitionedCall/boundary_detector_1/functional_1/expanded_conv_depthwise_BN_1/batchnorm/sub",
        "op": "Const",
        "attr": {
          "value": {
            "tensor": {
              "dtype": "DT_FLOAT",
              "tensorShape": { "dim": [{ "size": "32" }] }
            }
          },
          "dtype": { "type": "DT_FLOAT" }
        }
      },
      {
        "name": "StatefulPartitionedCall/boundary_detector_1/functional_1/expanded_conv_project_1/convolution/merged_input",
        "op": "Const",
        "attr": {
          "value": {
            "tensor": {
              "dtype": "DT_FLOAT",
              "tensorShape": {
                "dim": [
                  { "size": "1" },
                  { "size": "1" },
                  { "size": "32" },
                  { "size": "16" }
                ]
              }
            }
          },
          "dtype": { "type": "DT_FLOAT" }
        }
      },
      {
        "name": "StatefulPartitionedCall/boundary_detector_1/functional_1/expanded_conv_project_BN_1/batchnorm/sub",
        "op": "Const",
        "attr": {
          "value": {
            "tensor": {
              "dtype": "DT_FLOAT",
              "tensorShape": { "dim": [{ "size": "16" }] }
            }
          },
          "dtype": { "type": "DT_FLOAT" }
        }
      },
      {
        "name": "StatefulPartitionedCall/boundary_detector_1/functional_1/block_1_expand_1/convolution/merged_input",
        "op": "Const",
        "attr": {
          "value": {
            "tensor": {
              "dtype": "DT_FLOAT",
              "tensorShape": {
                "dim": [
                  { "size": "1" },
                  { "size": "1" },
                  { "size": "16" },
                  { "size": "96" }
                ]
              }
            }
          },
          "dtype": { "type": "DT_FLOAT" }
        }
      },
      {
        "name": "StatefulPartitionedCall/boundary_detector_1/functional_1/block_1_expand_BN_1/batchnorm/sub",
        "op": "Const",
        "attr": {
          "value": {
            "tensor": {
              "dtype": "DT_FLOAT",
              "tensorShape": { "dim": [{ "size": "96" }] }
            }
          },
          "dtype": { "type": "DT_FLOAT" }
        }
      },
      {
        "name": "StatefulPartitionedCall/boundary_detector_1/functional_1/block_1_pad_1/Const",
        "op": "Const",
        "attr": {
          "value": {
            "tensor": {
              "dtype": "DT_INT32",
              "tensorShape": { "dim": [{ "size": "4" }, { "size": "2" }] }
            }
          },
          "dtype": { "type": "DT_INT32" }
        }
      },
      {
        "name": "StatefulPartitionedCall/boundary_detector_1/functional_1/block_1_depthwise_1/depthwise/ReadVariableOp",
        "op": "Const",
        "attr": {
          "value": {
            "tensor": {
              "dtype": "DT_FLOAT",
              "tensorShape": {
                "dim": [
                  { "size": "3" },
                  { "size": "3" },
                  { "size": "96" },
                  { "size": "1" }
                ]
              }
            }
          },
          "dtype": { "type": "DT_FLOAT" }
        }
      },
      {
        "name": "StatefulPartitionedCall/boundary_detector_1/functional_1/block_1_depthwise_BN_1/batchnorm/mul",
        "op": "Const",
        "attr": {
          "value": {
            "tensor": {
              "dtype": "DT_FLOAT",
              "tensorShape": { "dim": [{ "size": "96" }] }
            }
          },
          "dtype": { "type": "DT_FLOAT" }
        }
      },
      {
        "name": "StatefulPartitionedCall/boundary_detector_1/functional_1/block_1_depthwise_BN_1/batchnorm/sub",
        "op": "Const",
        "attr": {
          "value": {
            "tensor": {
              "dtype": "DT_FLOAT",
              "tensorShape": { "dim": [{ "size": "96" }] }
            }
          },
          "dtype": { "type": "DT_FLOAT" }
        }
      },
      {
        "name": "StatefulPartitionedCall/boundary_detector_1/functional_1/block_1_project_1/convolution/merged_input",
        "op": "Const",
        "attr": {
          "value": {
            "tensor": {
              "dtype": "DT_FLOAT",
              "tensorShape": {
                "dim": [
                  { "size": "1" },
                  { "size": "1" },
                  { "size": "96" },
                  { "size": "24" }
                ]
              }
            }
          },
          "dtype": { "type": "DT_FLOAT" }
        }
      },
      {
        "name": "StatefulPartitionedCall/boundary_detector_1/functional_1/block_1_project_BN_1/batchnorm/sub",
        "op": "Const",
        "attr": {
          "value": {
            "tensor": {
              "dtype": "DT_FLOAT",
              "tensorShape": { "dim": [{ "size": "24" }] }
            }
          },
          "dtype": { "type": "DT_FLOAT" }
        }
      },
      {
        "name": "StatefulPartitionedCall/boundary_detector_1/functional_1/block_2_expand_1/convolution/merged_input",
        "op": "Const",
        "attr": {
          "value": {
            "tensor": {
              "dtype": "DT_FLOAT",
              "tensorShape": {
                "dim": [
                  { "size": "1" },
                  { "size": "1" },
                  { "size": "24" },
                  { "size": "144" }
                ]
              }
            }
          },
          "dtype": { "type": "DT_FLOAT" }
        }
      },
      {
        "name": "StatefulPartitionedCall/boundary_detector_1/functional_1/block_2_expand_BN_1/batchnorm/sub",
        "op": "Const",
        "attr": {
          "value": {
            "tensor": {
              "dtype": "DT_FLOAT",
              "tensorShape": { "dim": [{ "size": "144" }] }
            }
          },
          "dtype": { "type": "DT_FLOAT" }
        }
      },
      {
        "name": "StatefulPartitionedCall/boundary_detector_1/functional_1/block_2_depthwise_1/depthwise/ReadVariableOp",
        "op": "Const",
        "attr": {
          "value": {
            "tensor": {
              "dtype": "DT_FLOAT",
              "tensorShape": {
                "dim": [
                  { "size": "3" },
                  { "size": "3" },
                  { "size": "144" },
                  { "size": "1" }
                ]
              }
            }
          },
          "dtype": { "type": "DT_FLOAT" }
        }
      },
      {
        "name": "StatefulPartitionedCall/boundary_detector_1/functional_1/block_2_depthwise_BN_1/batchnorm/mul",
        "op": "Const",
        "attr": {
          "value": {
            "tensor": {
              "dtype": "DT_FLOAT",
              "tensorShape": { "dim": [{ "size": "144" }] }
            }
          },
          "dtype": { "type": "DT_FLOAT" }
        }
      },
      {
        "name": "StatefulPartitionedCall/boundary_detector_1/functional_1/block_2_depthwise_BN_1/batchnorm/sub",
        "op": "Const",
        "attr": {
          "value": {
            "tensor": {
              "dtype": "DT_FLOAT",
              "tensorShape": { "dim": [{ "size": "144" }] }
            }
          },
          "dtype": { "type": "DT_FLOAT" }
        }
      },
      {
        "name": "StatefulPartitionedCall/boundary_detector_1/functional_1/block_2_project_1/convolution/merged_input",
        "op": "Const",
        "attr": {
          "value": {
            "tensor": {
              "dtype": "DT_FLOAT",
              "tensorShape": {
                "dim": [
                  { "size": "1" },
                  { "size": "1" },
                  { "size": "144" },
                  { "size": "24" }
                ]
              }
            }
          },
          "dtype": { "type": "DT_FLOAT" }
        }
      },
      {
        "name": "StatefulPartitionedCall/boundary_detector_1/functional_1/block_3_expand_1/convolution/merged_input",
        "op": "Const",
        "attr": {
          "value": {
            "tensor": {
              "dtype": "DT_FLOAT",
              "tensorShape": {
                "dim": [
                  { "size": "1" },
                  { "size": "1" },
                  { "size": "24" },
                  { "size": "144" }
                ]
              }
            }
          },
          "dtype": { "type": "DT_FLOAT" }
        }
      },
      {
        "name": "StatefulPartitionedCall/boundary_detector_1/functional_1/block_3_expand_BN_1/batchnorm/sub",
        "op": "Const",
        "attr": {
          "value": {
            "tensor": {
              "dtype": "DT_FLOAT",
              "tensorShape": { "dim": [{ "size": "144" }] }
            }
          },
          "dtype": { "type": "DT_FLOAT" }
        }
      },
      {
        "name": "StatefulPartitionedCall/boundary_detector_1/functional_1/block_3_pad_1/Const",
        "op": "Const",
        "attr": {
          "value": {
            "tensor": {
              "dtype": "DT_INT32",
              "tensorShape": { "dim": [{ "size": "4" }, { "size": "2" }] }
            }
          },
          "dtype": { "type": "DT_INT32" }
        }
      },
      {
        "name": "StatefulPartitionedCall/boundary_detector_1/functional_1/block_3_depthwise_1/depthwise/ReadVariableOp",
        "op": "Const",
        "attr": {
          "value": {
            "tensor": {
              "dtype": "DT_FLOAT",
              "tensorShape": {
                "dim": [
                  { "size": "3" },
                  { "size": "3" },
                  { "size": "144" },
                  { "size": "1" }
                ]
              }
            }
          },
          "dtype": { "type": "DT_FLOAT" }
        }
      },
      {
        "name": "StatefulPartitionedCall/boundary_detector_1/functional_1/block_3_depthwise_BN_1/batchnorm/mul",
        "op": "Const",
        "attr": {
          "value": {
            "tensor": {
              "dtype": "DT_FLOAT",
              "tensorShape": { "dim": [{ "size": "144" }] }
            }
          },
          "dtype": { "type": "DT_FLOAT" }
        }
      },
      {
        "name": "StatefulPartitionedCall/boundary_detector_1/functional_1/block_3_depthwise_BN_1/batchnorm/sub",
        "op": "Const",
        "attr": {
          "value": {
            "tensor": {
              "dtype": "DT_FLOAT",
              "tensorShape": { "dim": [{ "size": "144" }] }
            }
          },
          "dtype": { "type": "DT_FLOAT" }
        }
      },
      {
        "name": "StatefulPartitionedCall/boundary_detector_1/functional_1/block_3_project_1/convolution/merged_input",
        "op": "Const",
        "attr": {
          "value": {
            "tensor": {
              "dtype": "DT_FLOAT",
              "tensorShape": {
                "dim": [
                  { "size": "1" },
                  { "size": "1" },
                  { "size": "144" },
                  { "size": "32" }
                ]
              }
            }
          },
          "dtype": { "type": "DT_FLOAT" }
        }
      },
      {
        "name": "StatefulPartitionedCall/boundary_detector_1/functional_1/block_3_project_BN_1/batchnorm/sub",
        "op": "Const",
        "attr": {
          "value": {
            "tensor": {
              "dtype": "DT_FLOAT",
              "tensorShape": { "dim": [{ "size": "32" }] }
            }
          },
          "dtype": { "type": "DT_FLOAT" }
        }
      },
      {
        "name": "StatefulPartitionedCall/boundary_detector_1/functional_1/block_4_expand_1/convolution/merged_input",
        "op": "Const",
        "attr": {
          "value": {
            "tensor": {
              "dtype": "DT_FLOAT",
              "tensorShape": {
                "dim": [
                  { "size": "1" },
                  { "size": "1" },
                  { "size": "32" },
                  { "size": "192" }
                ]
              }
            }
          },
          "dtype": { "type": "DT_FLOAT" }
        }
      },
      {
        "name": "StatefulPartitionedCall/boundary_detector_1/functional_1/block_4_expand_BN_1/batchnorm/sub",
        "op": "Const",
        "attr": {
          "value": {
            "tensor": {
              "dtype": "DT_FLOAT",
              "tensorShape": { "dim": [{ "size": "192" }] }
            }
          },
          "dtype": { "type": "DT_FLOAT" }
        }
      },
      {
        "name": "StatefulPartitionedCall/boundary_detector_1/functional_1/block_4_depthwise_1/depthwise/ReadVariableOp",
        "op": "Const",
        "attr": {
          "value": {
            "tensor": {
              "dtype": "DT_FLOAT",
              "tensorShape": {
                "dim": [
                  { "size": "3" },
                  { "size": "3" },
                  { "size": "192" },
                  { "size": "1" }
                ]
              }
            }
          },
          "dtype": { "type": "DT_FLOAT" }
        }
      },
      {
        "name": "StatefulPartitionedCall/boundary_detector_1/functional_1/block_4_depthwise_BN_1/batchnorm/mul",
        "op": "Const",
        "attr": {
          "value": {
            "tensor": {
              "dtype": "DT_FLOAT",
              "tensorShape": { "dim": [{ "size": "192" }] }
            }
          },
          "dtype": { "type": "DT_FLOAT" }
        }
      },
      {
        "name": "StatefulPartitionedCall/boundary_detector_1/functional_1/block_4_depthwise_BN_1/batchnorm/sub",
        "op": "Const",
        "attr": {
          "value": {
            "tensor": {
              "dtype": "DT_FLOAT",
              "tensorShape": { "dim": [{ "size": "192" }] }
            }
          },
          "dtype": { "type": "DT_FLOAT" }
        }
      },
      {
        "name": "StatefulPartitionedCall/boundary_detector_1/functional_1/block_4_project_1/convolution/merged_input",
        "op": "Const",
        "attr": {
          "value": {
            "tensor": {
              "dtype": "DT_FLOAT",
              "tensorShape": {
                "dim": [
                  { "size": "1" },
                  { "size": "1" },
                  { "size": "192" },
                  { "size": "32" }
                ]
              }
            }
          },
          "dtype": { "type": "DT_FLOAT" }
        }
      },
      {
        "name": "StatefulPartitionedCall/boundary_detector_1/functional_1/block_5_expand_1/convolution/merged_input",
        "op": "Const",
        "attr": {
          "value": {
            "tensor": {
              "dtype": "DT_FLOAT",
              "tensorShape": {
                "dim": [
                  { "size": "1" },
                  { "size": "1" },
                  { "size": "32" },
                  { "size": "192" }
                ]
              }
            }
          },
          "dtype": { "type": "DT_FLOAT" }
        }
      },
      {
        "name": "StatefulPartitionedCall/boundary_detector_1/functional_1/block_5_expand_BN_1/batchnorm/sub",
        "op": "Const",
        "attr": {
          "value": {
            "tensor": {
              "dtype": "DT_FLOAT",
              "tensorShape": { "dim": [{ "size": "192" }] }
            }
          },
          "dtype": { "type": "DT_FLOAT" }
        }
      },
      {
        "name": "StatefulPartitionedCall/boundary_detector_1/functional_1/block_5_depthwise_1/depthwise/ReadVariableOp",
        "op": "Const",
        "attr": {
          "value": {
            "tensor": {
              "dtype": "DT_FLOAT",
              "tensorShape": {
                "dim": [
                  { "size": "3" },
                  { "size": "3" },
                  { "size": "192" },
                  { "size": "1" }
                ]
              }
            }
          },
          "dtype": { "type": "DT_FLOAT" }
        }
      },
      {
        "name": "StatefulPartitionedCall/boundary_detector_1/functional_1/block_5_depthwise_BN_1/batchnorm/mul",
        "op": "Const",
        "attr": {
          "value": {
            "tensor": {
              "dtype": "DT_FLOAT",
              "tensorShape": { "dim": [{ "size": "192" }] }
            }
          },
          "dtype": { "type": "DT_FLOAT" }
        }
      },
      {
        "name": "StatefulPartitionedCall/boundary_detector_1/functional_1/block_5_depthwise_BN_1/batchnorm/sub",
        "op": "Const",
        "attr": {
          "value": {
            "tensor": {
              "dtype": "DT_FLOAT",
              "tensorShape": { "dim": [{ "size": "192" }] }
            }
          },
          "dtype": { "type": "DT_FLOAT" }
        }
      },
      {
        "name": "StatefulPartitionedCall/boundary_detector_1/functional_1/block_5_project_1/convolution/merged_input",
        "op": "Const",
        "attr": {
          "value": {
            "tensor": {
              "dtype": "DT_FLOAT",
              "tensorShape": {
                "dim": [
                  { "size": "1" },
                  { "size": "1" },
                  { "size": "192" },
                  { "size": "32" }
                ]
              }
            }
          },
          "dtype": { "type": "DT_FLOAT" }
        }
      },
      {
        "name": "StatefulPartitionedCall/boundary_detector_1/functional_1/block_6_expand_1/convolution/merged_input",
        "op": "Const",
        "attr": {
          "value": {
            "tensor": {
              "dtype": "DT_FLOAT",
              "tensorShape": {
                "dim": [
                  { "size": "1" },
                  { "size": "1" },
                  { "size": "32" },
                  { "size": "192" }
                ]
              }
            }
          },
          "dtype": { "type": "DT_FLOAT" }
        }
      },
      {
        "name": "StatefulPartitionedCall/boundary_detector_1/functional_1/block_6_expand_BN_1/batchnorm/sub",
        "op": "Const",
        "attr": {
          "value": {
            "tensor": {
              "dtype": "DT_FLOAT",
              "tensorShape": { "dim": [{ "size": "192" }] }
            }
          },
          "dtype": { "type": "DT_FLOAT" }
        }
      },
      {
        "name": "StatefulPartitionedCall/boundary_detector_1/functional_1/block_6_pad_1/Const",
        "op": "Const",
        "attr": {
          "value": {
            "tensor": {
              "dtype": "DT_INT32",
              "tensorShape": { "dim": [{ "size": "4" }, { "size": "2" }] }
            }
          },
          "dtype": { "type": "DT_INT32" }
        }
      },
      {
        "name": "StatefulPartitionedCall/boundary_detector_1/functional_1/block_6_depthwise_1/depthwise/ReadVariableOp",
        "op": "Const",
        "attr": {
          "value": {
            "tensor": {
              "dtype": "DT_FLOAT",
              "tensorShape": {
                "dim": [
                  { "size": "3" },
                  { "size": "3" },
                  { "size": "192" },
                  { "size": "1" }
                ]
              }
            }
          },
          "dtype": { "type": "DT_FLOAT" }
        }
      },
      {
        "name": "StatefulPartitionedCall/boundary_detector_1/functional_1/block_6_depthwise_BN_1/batchnorm/mul",
        "op": "Const",
        "attr": {
          "value": {
            "tensor": {
              "dtype": "DT_FLOAT",
              "tensorShape": { "dim": [{ "size": "192" }] }
            }
          },
          "dtype": { "type": "DT_FLOAT" }
        }
      },
      {
        "name": "StatefulPartitionedCall/boundary_detector_1/functional_1/block_6_depthwise_BN_1/batchnorm/sub",
        "op": "Const",
        "attr": {
          "value": {
            "tensor": {
              "dtype": "DT_FLOAT",
              "tensorShape": { "dim": [{ "size": "192" }] }
            }
          },
          "dtype": { "type": "DT_FLOAT" }
        }
      },
      {
        "name": "StatefulPartitionedCall/boundary_detector_1/functional_1/block_6_project_1/convolution/merged_input",
        "op": "Const",
        "attr": {
          "value": {
            "tensor": {
              "dtype": "DT_FLOAT",
              "tensorShape": {
                "dim": [
                  { "size": "1" },
                  { "size": "1" },
                  { "size": "192" },
                  { "size": "64" }
                ]
              }
            }
          },
          "dtype": { "type": "DT_FLOAT" }
        }
      },
      {
        "name": "StatefulPartitionedCall/boundary_detector_1/functional_1/block_6_project_BN_1/batchnorm/sub",
        "op": "Const",
        "attr": {
          "value": {
            "tensor": {
              "dtype": "DT_FLOAT",
              "tensorShape": { "dim": [{ "size": "64" }] }
            }
          },
          "dtype": { "type": "DT_FLOAT" }
        }
      },
      {
        "name": "StatefulPartitionedCall/boundary_detector_1/functional_1/block_7_expand_1/convolution/merged_input",
        "op": "Const",
        "attr": {
          "value": {
            "tensor": {
              "dtype": "DT_FLOAT",
              "tensorShape": {
                "dim": [
                  { "size": "1" },
                  { "size": "1" },
                  { "size": "64" },
                  { "size": "384" }
                ]
              }
            }
          },
          "dtype": { "type": "DT_FLOAT" }
        }
      },
      {
        "name": "StatefulPartitionedCall/boundary_detector_1/functional_1/block_7_expand_BN_1/batchnorm/sub",
        "op": "Const",
        "attr": {
          "value": {
            "tensor": {
              "dtype": "DT_FLOAT",
              "tensorShape": { "dim": [{ "size": "384" }] }
            }
          },
          "dtype": { "type": "DT_FLOAT" }
        }
      },
      {
        "name": "StatefulPartitionedCall/boundary_detector_1/functional_1/block_7_depthwise_1/depthwise/ReadVariableOp",
        "op": "Const",
        "attr": {
          "value": {
            "tensor": {
              "dtype": "DT_FLOAT",
              "tensorShape": {
                "dim": [
                  { "size": "3" },
                  { "size": "3" },
                  { "size": "384" },
                  { "size": "1" }
                ]
              }
            }
          },
          "dtype": { "type": "DT_FLOAT" }
        }
      },
      {
        "name": "StatefulPartitionedCall/boundary_detector_1/functional_1/block_7_depthwise_BN_1/batchnorm/mul",
        "op": "Const",
        "attr": {
          "value": {
            "tensor": {
              "dtype": "DT_FLOAT",
              "tensorShape": { "dim": [{ "size": "384" }] }
            }
          },
          "dtype": { "type": "DT_FLOAT" }
        }
      },
      {
        "name": "StatefulPartitionedCall/boundary_detector_1/functional_1/block_7_depthwise_BN_1/batchnorm/sub",
        "op": "Const",
        "attr": {
          "value": {
            "tensor": {
              "dtype": "DT_FLOAT",
              "tensorShape": { "dim": [{ "size": "384" }] }
            }
          },
          "dtype": { "type": "DT_FLOAT" }
        }
      },
      {
        "name": "StatefulPartitionedCall/boundary_detector_1/functional_1/block_7_project_1/convolution/merged_input",
        "op": "Const",
        "attr": {
          "value": {
            "tensor": {
              "dtype": "DT_FLOAT",
              "tensorShape": {
                "dim": [
                  { "size": "1" },
                  { "size": "1" },
                  { "size": "384" },
                  { "size": "64" }
                ]
              }
            }
          },
          "dtype": { "type": "DT_FLOAT" }
        }
      },
      {
        "name": "StatefulPartitionedCall/boundary_detector_1/functional_1/block_8_expand_1/convolution/merged_input",
        "op": "Const",
        "attr": {
          "value": {
            "tensor": {
              "dtype": "DT_FLOAT",
              "tensorShape": {
                "dim": [
                  { "size": "1" },
                  { "size": "1" },
                  { "size": "64" },
                  { "size": "384" }
                ]
              }
            }
          },
          "dtype": { "type": "DT_FLOAT" }
        }
      },
      {
        "name": "StatefulPartitionedCall/boundary_detector_1/functional_1/block_8_expand_BN_1/batchnorm/sub",
        "op": "Const",
        "attr": {
          "value": {
            "tensor": {
              "dtype": "DT_FLOAT",
              "tensorShape": { "dim": [{ "size": "384" }] }
            }
          },
          "dtype": { "type": "DT_FLOAT" }
        }
      },
      {
        "name": "StatefulPartitionedCall/boundary_detector_1/functional_1/block_8_depthwise_1/depthwise/ReadVariableOp",
        "op": "Const",
        "attr": {
          "value": {
            "tensor": {
              "dtype": "DT_FLOAT",
              "tensorShape": {
                "dim": [
                  { "size": "3" },
                  { "size": "3" },
                  { "size": "384" },
                  { "size": "1" }
                ]
              }
            }
          },
          "dtype": { "type": "DT_FLOAT" }
        }
      },
      {
        "name": "StatefulPartitionedCall/boundary_detector_1/functional_1/block_8_depthwise_BN_1/batchnorm/mul",
        "op": "Const",
        "attr": {
          "value": {
            "tensor": {
              "dtype": "DT_FLOAT",
              "tensorShape": { "dim": [{ "size": "384" }] }
            }
          },
          "dtype": { "type": "DT_FLOAT" }
        }
      },
      {
        "name": "StatefulPartitionedCall/boundary_detector_1/functional_1/block_8_depthwise_BN_1/batchnorm/sub",
        "op": "Const",
        "attr": {
          "value": {
            "tensor": {
              "dtype": "DT_FLOAT",
              "tensorShape": { "dim": [{ "size": "384" }] }
            }
          },
          "dtype": { "type": "DT_FLOAT" }
        }
      },
      {
        "name": "StatefulPartitionedCall/boundary_detector_1/functional_1/block_8_project_1/convolution/merged_input",
        "op": "Const",
        "attr": {
          "value": {
            "tensor": {
              "dtype": "DT_FLOAT",
              "tensorShape": {
                "dim": [
                  { "size": "1" },
                  { "size": "1" },
                  { "size": "384" },
                  { "size": "64" }
                ]
              }
            }
          },
          "dtype": { "type": "DT_FLOAT" }
        }
      },
      {
        "name": "StatefulPartitionedCall/boundary_detector_1/functional_1/block_9_expand_1/convolution/merged_input",
        "op": "Const",
        "attr": {
          "value": {
            "tensor": {
              "dtype": "DT_FLOAT",
              "tensorShape": {
                "dim": [
                  { "size": "1" },
                  { "size": "1" },
                  { "size": "64" },
                  { "size": "384" }
                ]
              }
            }
          },
          "dtype": { "type": "DT_FLOAT" }
        }
      },
      {
        "name": "StatefulPartitionedCall/boundary_detector_1/functional_1/block_9_expand_BN_1/batchnorm/sub",
        "op": "Const",
        "attr": {
          "value": {
            "tensor": {
              "dtype": "DT_FLOAT",
              "tensorShape": { "dim": [{ "size": "384" }] }
            }
          },
          "dtype": { "type": "DT_FLOAT" }
        }
      },
      {
        "name": "StatefulPartitionedCall/boundary_detector_1/functional_1/block_9_depthwise_1/depthwise/ReadVariableOp",
        "op": "Const",
        "attr": {
          "value": {
            "tensor": {
              "dtype": "DT_FLOAT",
              "tensorShape": {
                "dim": [
                  { "size": "3" },
                  { "size": "3" },
                  { "size": "384" },
                  { "size": "1" }
                ]
              }
            }
          },
          "dtype": { "type": "DT_FLOAT" }
        }
      },
      {
        "name": "StatefulPartitionedCall/boundary_detector_1/functional_1/block_9_depthwise_BN_1/batchnorm/mul",
        "op": "Const",
        "attr": {
          "value": {
            "tensor": {
              "dtype": "DT_FLOAT",
              "tensorShape": { "dim": [{ "size": "384" }] }
            }
          },
          "dtype": { "type": "DT_FLOAT" }
        }
      },
      {
        "name": "StatefulPartitionedCall/boundary_detector_1/functional_1/block_9_depthwise_BN_1/batchnorm/sub",
        "op": "Const",
        "attr": {
          "value": {
            "tensor": {
              "dtype": "DT_FLOAT",
              "tensorShape": { "dim": [{ "size": "384" }] }
            }
          },
          "dtype": { "type": "DT_FLOAT" }
        }
      },
      {
        "name": "StatefulPartitionedCall/boundary_detector_1/functional_1/block_9_project_1/convolution/merged_input",
        "op": "Const",
        "attr": {
          "value": {
            "tensor": {
              "dtype": "DT_FLOAT",
              "tensorShape": {
                "dim": [
                  { "size": "1" },
                  { "size": "1" },
                  { "size": "384" },
                  { "size": "64" }
                ]
              }
            }
          },
          "dtype": { "type": "DT_FLOAT" }
        }
      },
      {
        "name": "StatefulPartitionedCall/boundary_detector_1/functional_1/block_10_expand_1/convolution/merged_input",
        "op": "Const",
        "attr": {
          "value": {
            "tensor": {
              "dtype": "DT_FLOAT",
              "tensorShape": {
                "dim": [
                  { "size": "1" },
                  { "size": "1" },
                  { "size": "64" },
                  { "size": "384" }
                ]
              }
            }
          },
          "dtype": { "type": "DT_FLOAT" }
        }
      },
      {
        "name": "StatefulPartitionedCall/boundary_detector_1/functional_1/block_10_expand_BN_1/batchnorm/sub",
        "op": "Const",
        "attr": {
          "value": {
            "tensor": {
              "dtype": "DT_FLOAT",
              "tensorShape": { "dim": [{ "size": "384" }] }
            }
          },
          "dtype": { "type": "DT_FLOAT" }
        }
      },
      {
        "name": "StatefulPartitionedCall/boundary_detector_1/functional_1/block_10_depthwise_1/depthwise/ReadVariableOp",
        "op": "Const",
        "attr": {
          "value": {
            "tensor": {
              "dtype": "DT_FLOAT",
              "tensorShape": {
                "dim": [
                  { "size": "3" },
                  { "size": "3" },
                  { "size": "384" },
                  { "size": "1" }
                ]
              }
            }
          },
          "dtype": { "type": "DT_FLOAT" }
        }
      },
      {
        "name": "StatefulPartitionedCall/boundary_detector_1/functional_1/block_10_depthwise_BN_1/batchnorm/mul",
        "op": "Const",
        "attr": {
          "value": {
            "tensor": {
              "dtype": "DT_FLOAT",
              "tensorShape": { "dim": [{ "size": "384" }] }
            }
          },
          "dtype": { "type": "DT_FLOAT" }
        }
      },
      {
        "name": "StatefulPartitionedCall/boundary_detector_1/functional_1/block_10_depthwise_BN_1/batchnorm/sub",
        "op": "Const",
        "attr": {
          "value": {
            "tensor": {
              "dtype": "DT_FLOAT",
              "tensorShape": { "dim": [{ "size": "384" }] }
            }
          },
          "dtype": { "type": "DT_FLOAT" }
        }
      },
      {
        "name": "StatefulPartitionedCall/boundary_detector_1/functional_1/block_10_project_1/convolution/merged_input",
        "op": "Const",
        "attr": {
          "value": {
            "tensor": {
              "dtype": "DT_FLOAT",
              "tensorShape": {
                "dim": [
                  { "size": "1" },
                  { "size": "1" },
                  { "size": "384" },
                  { "size": "96" }
                ]
              }
            }
          },
          "dtype": { "type": "DT_FLOAT" }
        }
      },
      {
        "name": "StatefulPartitionedCall/boundary_detector_1/functional_1/block_10_project_BN_1/batchnorm/sub",
        "op": "Const",
        "attr": {
          "value": {
            "tensor": {
              "dtype": "DT_FLOAT",
              "tensorShape": { "dim": [{ "size": "96" }] }
            }
          },
          "dtype": { "type": "DT_FLOAT" }
        }
      },
      {
        "name": "StatefulPartitionedCall/boundary_detector_1/functional_1/block_11_expand_1/convolution/merged_input",
        "op": "Const",
        "attr": {
          "value": {
            "tensor": {
              "dtype": "DT_FLOAT",
              "tensorShape": {
                "dim": [
                  { "size": "1" },
                  { "size": "1" },
                  { "size": "96" },
                  { "size": "576" }
                ]
              }
            }
          },
          "dtype": { "type": "DT_FLOAT" }
        }
      },
      {
        "name": "StatefulPartitionedCall/boundary_detector_1/functional_1/block_11_expand_BN_1/batchnorm/sub",
        "op": "Const",
        "attr": {
          "value": {
            "tensor": {
              "dtype": "DT_FLOAT",
              "tensorShape": { "dim": [{ "size": "576" }] }
            }
          },
          "dtype": { "type": "DT_FLOAT" }
        }
      },
      {
        "name": "StatefulPartitionedCall/boundary_detector_1/functional_1/block_11_depthwise_1/depthwise/ReadVariableOp",
        "op": "Const",
        "attr": {
          "value": {
            "tensor": {
              "dtype": "DT_FLOAT",
              "tensorShape": {
                "dim": [
                  { "size": "3" },
                  { "size": "3" },
                  { "size": "576" },
                  { "size": "1" }
                ]
              }
            }
          },
          "dtype": { "type": "DT_FLOAT" }
        }
      },
      {
        "name": "StatefulPartitionedCall/boundary_detector_1/functional_1/block_11_depthwise_BN_1/batchnorm/mul",
        "op": "Const",
        "attr": {
          "value": {
            "tensor": {
              "dtype": "DT_FLOAT",
              "tensorShape": { "dim": [{ "size": "576" }] }
            }
          },
          "dtype": { "type": "DT_FLOAT" }
        }
      },
      {
        "name": "StatefulPartitionedCall/boundary_detector_1/functional_1/block_11_depthwise_BN_1/batchnorm/sub",
        "op": "Const",
        "attr": {
          "value": {
            "tensor": {
              "dtype": "DT_FLOAT",
              "tensorShape": { "dim": [{ "size": "576" }] }
            }
          },
          "dtype": { "type": "DT_FLOAT" }
        }
      },
      {
        "name": "StatefulPartitionedCall/boundary_detector_1/functional_1/block_11_project_1/convolution/merged_input",
        "op": "Const",
        "attr": {
          "value": {
            "tensor": {
              "dtype": "DT_FLOAT",
              "tensorShape": {
                "dim": [
                  { "size": "1" },
                  { "size": "1" },
                  { "size": "576" },
                  { "size": "96" }
                ]
              }
            }
          },
          "dtype": { "type": "DT_FLOAT" }
        }
      },
      {
        "name": "StatefulPartitionedCall/boundary_detector_1/functional_1/block_12_expand_1/convolution/merged_input",
        "op": "Const",
        "attr": {
          "value": {
            "tensor": {
              "dtype": "DT_FLOAT",
              "tensorShape": {
                "dim": [
                  { "size": "1" },
                  { "size": "1" },
                  { "size": "96" },
                  { "size": "576" }
                ]
              }
            }
          },
          "dtype": { "type": "DT_FLOAT" }
        }
      },
      {
        "name": "StatefulPartitionedCall/boundary_detector_1/functional_1/block_12_expand_BN_1/batchnorm/sub",
        "op": "Const",
        "attr": {
          "value": {
            "tensor": {
              "dtype": "DT_FLOAT",
              "tensorShape": { "dim": [{ "size": "576" }] }
            }
          },
          "dtype": { "type": "DT_FLOAT" }
        }
      },
      {
        "name": "StatefulPartitionedCall/boundary_detector_1/functional_1/block_12_depthwise_1/depthwise/ReadVariableOp",
        "op": "Const",
        "attr": {
          "value": {
            "tensor": {
              "dtype": "DT_FLOAT",
              "tensorShape": {
                "dim": [
                  { "size": "3" },
                  { "size": "3" },
                  { "size": "576" },
                  { "size": "1" }
                ]
              }
            }
          },
          "dtype": { "type": "DT_FLOAT" }
        }
      },
      {
        "name": "StatefulPartitionedCall/boundary_detector_1/functional_1/block_12_depthwise_BN_1/batchnorm/mul",
        "op": "Const",
        "attr": {
          "value": {
            "tensor": {
              "dtype": "DT_FLOAT",
              "tensorShape": { "dim": [{ "size": "576" }] }
            }
          },
          "dtype": { "type": "DT_FLOAT" }
        }
      },
      {
        "name": "StatefulPartitionedCall/boundary_detector_1/functional_1/block_12_depthwise_BN_1/batchnorm/sub",
        "op": "Const",
        "attr": {
          "value": {
            "tensor": {
              "dtype": "DT_FLOAT",
              "tensorShape": { "dim": [{ "size": "576" }] }
            }
          },
          "dtype": { "type": "DT_FLOAT" }
        }
      },
      {
        "name": "StatefulPartitionedCall/boundary_detector_1/functional_1/block_12_project_1/convolution/merged_input",
        "op": "Const",
        "attr": {
          "value": {
            "tensor": {
              "dtype": "DT_FLOAT",
              "tensorShape": {
                "dim": [
                  { "size": "1" },
                  { "size": "1" },
                  { "size": "576" },
                  { "size": "96" }
                ]
              }
            }
          },
          "dtype": { "type": "DT_FLOAT" }
        }
      },
      {
        "name": "StatefulPartitionedCall/boundary_detector_1/functional_1/block_13_expand_1/convolution/merged_input",
        "op": "Const",
        "attr": {
          "value": {
            "tensor": {
              "dtype": "DT_FLOAT",
              "tensorShape": {
                "dim": [
                  { "size": "1" },
                  { "size": "1" },
                  { "size": "96" },
                  { "size": "576" }
                ]
              }
            }
          },
          "dtype": { "type": "DT_FLOAT" }
        }
      },
      {
        "name": "StatefulPartitionedCall/boundary_detector_1/functional_1/block_13_expand_BN_1/batchnorm/sub",
        "op": "Const",
        "attr": {
          "value": {
            "tensor": {
              "dtype": "DT_FLOAT",
              "tensorShape": { "dim": [{ "size": "576" }] }
            }
          },
          "dtype": { "type": "DT_FLOAT" }
        }
      },
      {
        "name": "StatefulPartitionedCall/boundary_detector_1/conv2d_1/convolution/ReadVariableOp",
        "op": "Const",
        "attr": {
          "value": {
            "tensor": {
              "dtype": "DT_FLOAT",
              "tensorShape": {
                "dim": [
                  { "size": "1" },
                  { "size": "1" },
                  { "size": "576" },
                  { "size": "128" }
                ]
              }
            }
          },
          "dtype": { "type": "DT_FLOAT" }
        }
      },
      {
        "name": "StatefulPartitionedCall/boundary_detector_1/conv2d_1/Squeeze",
        "op": "Const",
        "attr": {
          "value": {
            "tensor": {
              "dtype": "DT_FLOAT",
              "tensorShape": { "dim": [{ "size": "128" }] }
            }
          },
          "dtype": { "type": "DT_FLOAT" }
        }
      },
      {
        "name": "StatefulPartitionedCall/boundary_detector_1/up_sampling2d_1/Repeat/strided_slice_2/stack",
        "op": "Const",
        "attr": {
          "value": {
            "tensor": {
              "dtype": "DT_INT32",
              "tensorShape": { "dim": [{ "size": "1" }] }
            }
          },
          "dtype": { "type": "DT_INT32" }
        }
      },
      {
        "name": "StatefulPartitionedCall/boundary_detector_1/up_sampling2d_1/Repeat/strided_slice_2/stack_1",
        "op": "Const",
        "attr": {
          "value": {
            "tensor": {
              "dtype": "DT_INT32",
              "tensorShape": { "dim": [{ "size": "1" }] }
            }
          },
          "dtype": { "type": "DT_INT32" }
        }
      },
      {
        "name": "StatefulPartitionedCall/boundary_detector_1/up_sampling2d_1/Repeat/strided_slice_2/stack_2",
        "op": "Const",
        "attr": {
          "value": {
            "tensor": {
              "dtype": "DT_INT32",
              "tensorShape": { "dim": [{ "size": "1" }] }
            }
          },
          "dtype": { "type": "DT_INT32" }
        }
      },
      {
        "name": "StatefulPartitionedCall/boundary_detector_1/up_sampling2d_1/Repeat/concat/axis",
        "op": "Const",
        "attr": {
          "value": { "tensor": { "dtype": "DT_INT32", "tensorShape": {} } },
          "dtype": { "type": "DT_INT32" }
        }
      },
      {
        "name": "StatefulPartitionedCall/boundary_detector_1/up_sampling2d_1/Repeat_1/strided_slice_2/stack",
        "op": "Const",
        "attr": {
          "value": {
            "tensor": {
              "dtype": "DT_INT32",
              "tensorShape": { "dim": [{ "size": "1" }] }
            }
          },
          "dtype": { "type": "DT_INT32" }
        }
      },
      {
        "name": "StatefulPartitionedCall/boundary_detector_1/up_sampling2d_1/Repeat_1/strided_slice_2/stack_1",
        "op": "Const",
        "attr": {
          "value": {
            "tensor": {
              "dtype": "DT_INT32",
              "tensorShape": { "dim": [{ "size": "1" }] }
            }
          },
          "dtype": { "type": "DT_INT32" }
        }
      },
      {
        "name": "StatefulPartitionedCall/boundary_detector_1/up_sampling2d_1/Repeat_1/strided_slice_2/stack_2",
        "op": "Const",
        "attr": {
          "value": {
            "tensor": {
              "dtype": "DT_INT32",
              "tensorShape": { "dim": [{ "size": "1" }] }
            }
          },
          "dtype": { "type": "DT_INT32" }
        }
      },
      {
        "name": "StatefulPartitionedCall/boundary_detector_1/up_sampling2d_1/Repeat_1/concat/axis",
        "op": "Const",
        "attr": {
          "value": { "tensor": { "dtype": "DT_INT32", "tensorShape": {} } },
          "dtype": { "type": "DT_INT32" }
        }
      },
      {
        "name": "StatefulPartitionedCall/boundary_detector_1/conv2d_2_1/convolution/ReadVariableOp",
        "op": "Const",
        "attr": {
          "value": {
            "tensor": {
              "dtype": "DT_FLOAT",
              "tensorShape": {
                "dim": [
                  { "size": "3" },
                  { "size": "3" },
                  { "size": "128" },
                  { "size": "128" }
                ]
              }
            }
          },
          "dtype": { "type": "DT_FLOAT" }
        }
      },
      {
        "name": "StatefulPartitionedCall/boundary_detector_1/conv2d_2_1/Squeeze",
        "op": "Const",
        "attr": {
          "value": {
            "tensor": {
              "dtype": "DT_FLOAT",
              "tensorShape": { "dim": [{ "size": "128" }] }
            }
          },
          "dtype": { "type": "DT_FLOAT" }
        }
      },
      {
        "name": "StatefulPartitionedCall/boundary_detector_1/up_sampling2d_1_2/Repeat/strided_slice_2/stack",
        "op": "Const",
        "attr": {
          "value": {
            "tensor": {
              "dtype": "DT_INT32",
              "tensorShape": { "dim": [{ "size": "1" }] }
            }
          },
          "dtype": { "type": "DT_INT32" }
        }
      },
      {
        "name": "StatefulPartitionedCall/boundary_detector_1/up_sampling2d_1_2/Repeat/strided_slice_2/stack_1",
        "op": "Const",
        "attr": {
          "value": {
            "tensor": {
              "dtype": "DT_INT32",
              "tensorShape": { "dim": [{ "size": "1" }] }
            }
          },
          "dtype": { "type": "DT_INT32" }
        }
      },
      {
        "name": "StatefulPartitionedCall/boundary_detector_1/up_sampling2d_1_2/Repeat/strided_slice_2/stack_2",
        "op": "Const",
        "attr": {
          "value": {
            "tensor": {
              "dtype": "DT_INT32",
              "tensorShape": { "dim": [{ "size": "1" }] }
            }
          },
          "dtype": { "type": "DT_INT32" }
        }
      },
      {
        "name": "StatefulPartitionedCall/boundary_detector_1/up_sampling2d_1_2/Repeat/concat/axis",
        "op": "Const",
        "attr": {
          "value": { "tensor": { "dtype": "DT_INT32", "tensorShape": {} } },
          "dtype": { "type": "DT_INT32" }
        }
      },
      {
        "name": "StatefulPartitionedCall/boundary_detector_1/up_sampling2d_1_2/Repeat_1/strided_slice_2/stack",
        "op": "Const",
        "attr": {
          "value": {
            "tensor": {
              "dtype": "DT_INT32",
              "tensorShape": { "dim": [{ "size": "1" }] }
            }
          },
          "dtype": { "type": "DT_INT32" }
        }
      },
      {
        "name": "StatefulPartitionedCall/boundary_detector_1/up_sampling2d_1_2/Repeat_1/strided_slice_2/stack_1",
        "op": "Const",
        "attr": {
          "value": {
            "tensor": {
              "dtype": "DT_INT32",
              "tensorShape": { "dim": [{ "size": "1" }] }
            }
          },
          "dtype": { "type": "DT_INT32" }
        }
      },
      {
        "name": "StatefulPartitionedCall/boundary_detector_1/up_sampling2d_1_2/Repeat_1/strided_slice_2/stack_2",
        "op": "Const",
        "attr": {
          "value": {
            "tensor": {
              "dtype": "DT_INT32",
              "tensorShape": { "dim": [{ "size": "1" }] }
            }
          },
          "dtype": { "type": "DT_INT32" }
        }
      },
      {
        "name": "StatefulPartitionedCall/boundary_detector_1/up_sampling2d_1_2/Repeat_1/concat/axis",
        "op": "Const",
        "attr": {
          "value": { "tensor": { "dtype": "DT_INT32", "tensorShape": {} } },
          "dtype": { "type": "DT_INT32" }
        }
      },
      {
        "name": "StatefulPartitionedCall/boundary_detector_1/conv2d_4_1/convolution/ReadVariableOp",
        "op": "Const",
        "attr": {
          "value": {
            "tensor": {
              "dtype": "DT_FLOAT",
              "tensorShape": {
                "dim": [
                  { "size": "3" },
                  { "size": "3" },
                  { "size": "128" },
                  { "size": "128" }
                ]
              }
            }
          },
          "dtype": { "type": "DT_FLOAT" }
        }
      },
      {
        "name": "StatefulPartitionedCall/boundary_detector_1/conv2d_4_1/Squeeze",
        "op": "Const",
        "attr": {
          "value": {
            "tensor": {
              "dtype": "DT_FLOAT",
              "tensorShape": { "dim": [{ "size": "128" }] }
            }
          },
          "dtype": { "type": "DT_FLOAT" }
        }
      },
      {
        "name": "StatefulPartitionedCall/boundary_detector_1/conv2d_5_1/convolution/ReadVariableOp",
        "op": "Const",
        "attr": {
          "value": {
            "tensor": {
              "dtype": "DT_FLOAT",
              "tensorShape": {
                "dim": [
                  { "size": "3" },
                  { "size": "3" },
                  { "size": "128" },
                  { "size": "128" }
                ]
              }
            }
          },
          "dtype": { "type": "DT_FLOAT" }
        }
      },
      {
        "name": "StatefulPartitionedCall/boundary_detector_1/conv2d_5_1/Squeeze",
        "op": "Const",
        "attr": {
          "value": {
            "tensor": {
              "dtype": "DT_FLOAT",
              "tensorShape": { "dim": [{ "size": "128" }] }
            }
          },
          "dtype": { "type": "DT_FLOAT" }
        }
      },
      {
        "name": "StatefulPartitionedCall/boundary_detector_1/batch_normalization_1/batchnorm/mul",
        "op": "Const",
        "attr": {
          "value": {
            "tensor": {
              "dtype": "DT_FLOAT",
              "tensorShape": { "dim": [{ "size": "128" }] }
            }
          },
          "dtype": { "type": "DT_FLOAT" }
        }
      },
      {
        "name": "StatefulPartitionedCall/boundary_detector_1/batch_normalization_1/batchnorm/sub",
        "op": "Const",
        "attr": {
          "value": {
            "tensor": {
              "dtype": "DT_FLOAT",
              "tensorShape": { "dim": [{ "size": "128" }] }
            }
          },
          "dtype": { "type": "DT_FLOAT" }
        }
      },
      {
        "name": "StatefulPartitionedCall/boundary_detector_1/conv2d_6_1/convolution/ReadVariableOp",
        "op": "Const",
        "attr": {
          "value": {
            "tensor": {
              "dtype": "DT_FLOAT",
              "tensorShape": {
                "dim": [
                  { "size": "3" },
                  { "size": "3" },
                  { "size": "128" },
                  { "size": "64" }
                ]
              }
            }
          },
          "dtype": { "type": "DT_FLOAT" }
        }
      },
      {
        "name": "StatefulPartitionedCall/boundary_detector_1/conv2d_6_1/Squeeze",
        "op": "Const",
        "attr": {
          "value": {
            "tensor": {
              "dtype": "DT_FLOAT",
              "tensorShape": { "dim": [{ "size": "64" }] }
            }
          },
          "dtype": { "type": "DT_FLOAT" }
        }
      },
      {
        "name": "StatefulPartitionedCall/boundary_detector_1/batch_normalization_1_2/batchnorm/mul",
        "op": "Const",
        "attr": {
          "value": {
            "tensor": {
              "dtype": "DT_FLOAT",
              "tensorShape": { "dim": [{ "size": "64" }] }
            }
          },
          "dtype": { "type": "DT_FLOAT" }
        }
      },
      {
        "name": "StatefulPartitionedCall/boundary_detector_1/batch_normalization_1_2/batchnorm/sub",
        "op": "Const",
        "attr": {
          "value": {
            "tensor": {
              "dtype": "DT_FLOAT",
              "tensorShape": { "dim": [{ "size": "64" }] }
            }
          },
          "dtype": { "type": "DT_FLOAT" }
        }
      },
      {
        "name": "StatefulPartitionedCall/boundary_detector_1/heatmaps_1/convolution/ReadVariableOp",
        "op": "Const",
        "attr": {
          "value": {
            "tensor": {
              "dtype": "DT_FLOAT",
              "tensorShape": {
                "dim": [
                  { "size": "1" },
                  { "size": "1" },
                  { "size": "64" },
                  { "size": "4" }
                ]
              }
            }
          },
          "dtype": { "type": "DT_FLOAT" }
        }
      },
      {
        "name": "StatefulPartitionedCall/boundary_detector_1/heatmaps_1/Squeeze",
        "op": "Const",
        "attr": {
          "value": {
            "tensor": {
              "dtype": "DT_FLOAT",
              "tensorShape": { "dim": [{ "size": "4" }] }
            }
          },
          "dtype": { "type": "DT_FLOAT" }
        }
      },
      {
        "name": "x",
        "op": "Placeholder",
        "attr": {
          "shape": {
            "shape": {
              "dim": [
                { "size": "-1" },
                { "size": "224" },
                { "size": "224" },
                { "size": "3" }
              ]
            }
          },
          "dtype": { "type": "DT_FLOAT" }
        }
      },
      {
        "name": "StatefulPartitionedCall/boundary_detector_1/rescaling_1/mul",
        "op": "Mul",
        "input": [
          "x",
          "StatefulPartitionedCall/boundary_detector_1/rescaling_1/Cast/x"
        ],
        "attr": { "T": { "type": "DT_FLOAT" } }
      },
      {
        "name": "StatefulPartitionedCall/boundary_detector_1/rescaling_1/add",
        "op": "AddV2",
        "input": [
          "StatefulPartitionedCall/boundary_detector_1/rescaling_1/mul",
          "StatefulPartitionedCall/boundary_detector_1/rescaling_1/Cast_1/x"
        ],
        "attr": { "T": { "type": "DT_FLOAT" } }
      },
      {
        "name": "StatefulPartitionedCall/boundary_detector_1/functional_1/Conv1_relu_1/Relu6",
        "op": "_FusedConv2D",
        "input": [
          "StatefulPartitionedCall/boundary_detector_1/rescaling_1/add",
          "StatefulPartitionedCall/boundary_detector_1/functional_1/Conv1_1/convolution/merged_input",
          "StatefulPartitionedCall/boundary_detector_1/functional_1/bn_Conv1_1/batchnorm/sub"
        ],
        "device": "/device:CPU:0",
        "attr": {
          "num_host_args": { "i": "0" },
          "data_format": { "s": "TkhXQw==" },
          "filter_format": { "s": "SFdJTw==" },
          "fused_ops": { "list": { "s": ["Qmlhc0FkZA==", "UmVsdTY="] } },
          "num_args": { "i": "1" },
          "strides": { "list": { "i": ["1", "2", "2", "1"] } },
          "TArgs": { "list": { "type": ["DT_FLOAT"] } },
          "padding": { "s": "U0FNRQ==" },
          "use_cudnn_on_gpu": { "b": true },
          "leakyrelu_alpha": { "f": 0.2 },
          "epsilon": { "f": 0.0 },
          "T": { "type": "DT_FLOAT" },
          "explicit_paddings": { "list": {} },
          "dilations": { "list": { "i": ["1", "1", "1", "1"] } }
        }
      },
      {
        "name": "StatefulPartitionedCall/boundary_detector_1/functional_1/expanded_conv_depthwise_1/depthwise",
        "op": "DepthwiseConv2dNative",
        "input": [
          "StatefulPartitionedCall/boundary_detector_1/functional_1/Conv1_relu_1/Relu6",
          "StatefulPartitionedCall/boundary_detector_1/functional_1/expanded_conv_depthwise_1/depthwise/ReadVariableOp"
        ],
        "attr": {
          "padding": { "s": "U0FNRQ==" },
          "data_format": { "s": "TkhXQw==" },
          "T": { "type": "DT_FLOAT" },
          "explicit_paddings": { "list": {} },
          "dilations": { "list": { "i": ["1", "1", "1", "1"] } },
          "strides": { "list": { "i": ["1", "1", "1", "1"] } }
        }
      },
      {
        "name": "StatefulPartitionedCall/boundary_detector_1/functional_1/expanded_conv_depthwise_BN_1/batchnorm/mul_1",
        "op": "Mul",
        "input": [
          "StatefulPartitionedCall/boundary_detector_1/functional_1/expanded_conv_depthwise_1/depthwise",
          "StatefulPartitionedCall/boundary_detector_1/functional_1/expanded_conv_depthwise_BN_1/batchnorm/mul"
        ],
        "attr": { "T": { "type": "DT_FLOAT" } }
      },
      {
        "name": "StatefulPartitionedCall/boundary_detector_1/functional_1/expanded_conv_depthwise_BN_1/batchnorm/add_1",
        "op": "AddV2",
        "input": [
          "StatefulPartitionedCall/boundary_detector_1/functional_1/expanded_conv_depthwise_BN_1/batchnorm/mul_1",
          "StatefulPartitionedCall/boundary_detector_1/functional_1/expanded_conv_depthwise_BN_1/batchnorm/sub"
        ],
        "attr": { "T": { "type": "DT_FLOAT" } }
      },
      {
        "name": "StatefulPartitionedCall/boundary_detector_1/functional_1/expanded_conv_depthwise_relu_1/Relu6",
        "op": "Relu6",
        "input": [
          "StatefulPartitionedCall/boundary_detector_1/functional_1/expanded_conv_depthwise_BN_1/batchnorm/add_1"
        ],
        "attr": { "T": { "type": "DT_FLOAT" } }
      },
      {
        "name": "StatefulPartitionedCall/boundary_detector_1/functional_1/expanded_conv_project_BN_1/batchnorm/add_1",
        "op": "_FusedConv2D",
        "input": [
          "StatefulPartitionedCall/boundary_detector_1/functional_1/expanded_conv_depthwise_relu_1/Relu6",
          "StatefulPartitionedCall/boundary_detector_1/functional_1/expanded_conv_project_1/convolution/merged_input",
          "StatefulPartitionedCall/boundary_detector_1/functional_1/expanded_conv_project_BN_1/batchnorm/sub"
        ],
        "device": "/device:CPU:0",
        "attr": {
          "num_host_args": { "i": "0" },
          "data_format": { "s": "TkhXQw==" },
          "filter_format": { "s": "SFdJTw==" },
          "fused_ops": { "list": { "s": ["Qmlhc0FkZA=="] } },
          "num_args": { "i": "1" },
          "strides": { "list": { "i": ["1", "1", "1", "1"] } },
          "TArgs": { "list": { "type": ["DT_FLOAT"] } },
          "padding": { "s": "U0FNRQ==" },
          "use_cudnn_on_gpu": { "b": true },
          "leakyrelu_alpha": { "f": 0.2 },
          "epsilon": { "f": 0.0 },
          "T": { "type": "DT_FLOAT" },
          "explicit_paddings": { "list": {} },
          "dilations": { "list": { "i": ["1", "1", "1", "1"] } }
        }
      },
      {
        "name": "StatefulPartitionedCall/boundary_detector_1/functional_1/block_1_expand_relu_1/Relu6",
        "op": "_FusedConv2D",
        "input": [
          "StatefulPartitionedCall/boundary_detector_1/functional_1/expanded_conv_project_BN_1/batchnorm/add_1",
          "StatefulPartitionedCall/boundary_detector_1/functional_1/block_1_expand_1/convolution/merged_input",
          "StatefulPartitionedCall/boundary_detector_1/functional_1/block_1_expand_BN_1/batchnorm/sub"
        ],
        "device": "/device:CPU:0",
        "attr": {
          "num_host_args": { "i": "0" },
          "data_format": { "s": "TkhXQw==" },
          "filter_format": { "s": "SFdJTw==" },
          "fused_ops": { "list": { "s": ["Qmlhc0FkZA==", "UmVsdTY="] } },
          "num_args": { "i": "1" },
          "strides": { "list": { "i": ["1", "1", "1", "1"] } },
          "TArgs": { "list": { "type": ["DT_FLOAT"] } },
          "padding": { "s": "U0FNRQ==" },
          "use_cudnn_on_gpu": { "b": true },
          "leakyrelu_alpha": { "f": 0.2 },
          "epsilon": { "f": 0.0 },
          "T": { "type": "DT_FLOAT" },
          "explicit_paddings": { "list": {} },
          "dilations": { "list": { "i": ["1", "1", "1", "1"] } }
        }
      },
      {
        "name": "StatefulPartitionedCall/boundary_detector_1/functional_1/block_1_pad_1/Pad",
        "op": "Pad",
        "input": [
          "StatefulPartitionedCall/boundary_detector_1/functional_1/block_1_expand_relu_1/Relu6",
          "StatefulPartitionedCall/boundary_detector_1/functional_1/block_1_pad_1/Const"
        ],
        "attr": {
          "Tpaddings": { "type": "DT_INT32" },
          "T": { "type": "DT_FLOAT" }
        }
      },
      {
        "name": "StatefulPartitionedCall/boundary_detector_1/functional_1/block_1_depthwise_1/depthwise",
        "op": "DepthwiseConv2dNative",
        "input": [
          "StatefulPartitionedCall/boundary_detector_1/functional_1/block_1_pad_1/Pad",
          "StatefulPartitionedCall/boundary_detector_1/functional_1/block_1_depthwise_1/depthwise/ReadVariableOp"
        ],
        "attr": {
          "padding": { "s": "VkFMSUQ=" },
          "data_format": { "s": "TkhXQw==" },
          "T": { "type": "DT_FLOAT" },
          "explicit_paddings": { "list": {} },
          "dilations": { "list": { "i": ["1", "1", "1", "1"] } },
          "strides": { "list": { "i": ["1", "2", "2", "1"] } }
        }
      },
      {
        "name": "StatefulPartitionedCall/boundary_detector_1/functional_1/block_1_depthwise_BN_1/batchnorm/mul_1",
        "op": "Mul",
        "input": [
          "StatefulPartitionedCall/boundary_detector_1/functional_1/block_1_depthwise_1/depthwise",
          "StatefulPartitionedCall/boundary_detector_1/functional_1/block_1_depthwise_BN_1/batchnorm/mul"
        ],
        "attr": { "T": { "type": "DT_FLOAT" } }
      },
      {
        "name": "StatefulPartitionedCall/boundary_detector_1/functional_1/block_1_depthwise_BN_1/batchnorm/add_1",
        "op": "AddV2",
        "input": [
          "StatefulPartitionedCall/boundary_detector_1/functional_1/block_1_depthwise_BN_1/batchnorm/mul_1",
          "StatefulPartitionedCall/boundary_detector_1/functional_1/block_1_depthwise_BN_1/batchnorm/sub"
        ],
        "attr": { "T": { "type": "DT_FLOAT" } }
      },
      {
        "name": "StatefulPartitionedCall/boundary_detector_1/functional_1/block_1_depthwise_relu_1/Relu6",
        "op": "Relu6",
        "input": [
          "StatefulPartitionedCall/boundary_detector_1/functional_1/block_1_depthwise_BN_1/batchnorm/add_1"
        ],
        "attr": { "T": { "type": "DT_FLOAT" } }
      },
      {
        "name": "StatefulPartitionedCall/boundary_detector_1/functional_1/block_1_project_BN_1/batchnorm/add_1",
        "op": "_FusedConv2D",
        "input": [
          "StatefulPartitionedCall/boundary_detector_1/functional_1/block_1_depthwise_relu_1/Relu6",
          "StatefulPartitionedCall/boundary_detector_1/functional_1/block_1_project_1/convolution/merged_input",
          "StatefulPartitionedCall/boundary_detector_1/functional_1/block_1_project_BN_1/batchnorm/sub"
        ],
        "device": "/device:CPU:0",
        "attr": {
          "num_host_args": { "i": "0" },
          "data_format": { "s": "TkhXQw==" },
          "filter_format": { "s": "SFdJTw==" },
          "strides": { "list": { "i": ["1", "1", "1", "1"] } },
          "num_args": { "i": "1" },
          "fused_ops": { "list": { "s": ["Qmlhc0FkZA=="] } },
          "TArgs": { "list": { "type": ["DT_FLOAT"] } },
          "padding": { "s": "U0FNRQ==" },
          "use_cudnn_on_gpu": { "b": true },
          "leakyrelu_alpha": { "f": 0.2 },
          "epsilon": { "f": 0.0 },
          "T": { "type": "DT_FLOAT" },
          "explicit_paddings": { "list": {} },
          "dilations": { "list": { "i": ["1", "1", "1", "1"] } }
        }
      },
      {
        "name": "StatefulPartitionedCall/boundary_detector_1/functional_1/block_2_expand_relu_1/Relu6",
        "op": "_FusedConv2D",
        "input": [
          "StatefulPartitionedCall/boundary_detector_1/functional_1/block_1_project_BN_1/batchnorm/add_1",
          "StatefulPartitionedCall/boundary_detector_1/functional_1/block_2_expand_1/convolution/merged_input",
          "StatefulPartitionedCall/boundary_detector_1/functional_1/block_2_expand_BN_1/batchnorm/sub"
        ],
        "device": "/device:CPU:0",
        "attr": {
          "num_host_args": { "i": "0" },
          "data_format": { "s": "TkhXQw==" },
          "filter_format": { "s": "SFdJTw==" },
          "strides": { "list": { "i": ["1", "1", "1", "1"] } },
          "num_args": { "i": "1" },
          "fused_ops": { "list": { "s": ["Qmlhc0FkZA==", "UmVsdTY="] } },
          "TArgs": { "list": { "type": ["DT_FLOAT"] } },
          "padding": { "s": "U0FNRQ==" },
          "use_cudnn_on_gpu": { "b": true },
          "leakyrelu_alpha": { "f": 0.2 },
          "epsilon": { "f": 0.0 },
          "T": { "type": "DT_FLOAT" },
          "explicit_paddings": { "list": {} },
          "dilations": { "list": { "i": ["1", "1", "1", "1"] } }
        }
      },
      {
        "name": "StatefulPartitionedCall/boundary_detector_1/functional_1/block_2_depthwise_1/depthwise",
        "op": "DepthwiseConv2dNative",
        "input": [
          "StatefulPartitionedCall/boundary_detector_1/functional_1/block_2_expand_relu_1/Relu6",
          "StatefulPartitionedCall/boundary_detector_1/functional_1/block_2_depthwise_1/depthwise/ReadVariableOp"
        ],
        "attr": {
          "padding": { "s": "U0FNRQ==" },
          "data_format": { "s": "TkhXQw==" },
          "T": { "type": "DT_FLOAT" },
          "explicit_paddings": { "list": {} },
          "dilations": { "list": { "i": ["1", "1", "1", "1"] } },
          "strides": { "list": { "i": ["1", "1", "1", "1"] } }
        }
      },
      {
        "name": "StatefulPartitionedCall/boundary_detector_1/functional_1/block_2_depthwise_BN_1/batchnorm/mul_1",
        "op": "Mul",
        "input": [
          "StatefulPartitionedCall/boundary_detector_1/functional_1/block_2_depthwise_1/depthwise",
          "StatefulPartitionedCall/boundary_detector_1/functional_1/block_2_depthwise_BN_1/batchnorm/mul"
        ],
        "attr": { "T": { "type": "DT_FLOAT" } }
      },
      {
        "name": "StatefulPartitionedCall/boundary_detector_1/functional_1/block_2_depthwise_BN_1/batchnorm/add_1",
        "op": "AddV2",
        "input": [
          "StatefulPartitionedCall/boundary_detector_1/functional_1/block_2_depthwise_BN_1/batchnorm/mul_1",
          "StatefulPartitionedCall/boundary_detector_1/functional_1/block_2_depthwise_BN_1/batchnorm/sub"
        ],
        "attr": { "T": { "type": "DT_FLOAT" } }
      },
      {
        "name": "StatefulPartitionedCall/boundary_detector_1/functional_1/block_2_depthwise_relu_1/Relu6",
        "op": "Relu6",
        "input": [
          "StatefulPartitionedCall/boundary_detector_1/functional_1/block_2_depthwise_BN_1/batchnorm/add_1"
        ],
        "attr": { "T": { "type": "DT_FLOAT" } }
      },
      {
        "name": "StatefulPartitionedCall/boundary_detector_1/functional_1/block_2_project_BN_1/batchnorm/mul_1",
        "op": "Conv2D",
        "input": [
          "StatefulPartitionedCall/boundary_detector_1/functional_1/block_2_depthwise_relu_1/Relu6",
          "StatefulPartitionedCall/boundary_detector_1/functional_1/block_2_project_1/convolution/merged_input"
        ],
        "device": "/device:CPU:0",
        "attr": {
          "padding": { "s": "U0FNRQ==" },
          "data_format": { "s": "TkhXQw==" },
          "strides": { "list": { "i": ["1", "1", "1", "1"] } },
          "use_cudnn_on_gpu": { "b": true },
          "T": { "type": "DT_FLOAT" },
          "explicit_paddings": { "list": {} },
          "dilations": { "list": { "i": ["1", "1", "1", "1"] } }
        }
      },
      {
        "name": "StatefulPartitionedCall/boundary_detector_1/functional_1/block_2_add_1/ArithmeticOptimizer/AddOpsRewrite_Leaf_1_Add",
        "op": "AddN",
        "input": [
          "StatefulPartitionedCall/boundary_detector_1/functional_1/block_1_project_BN_1/batchnorm/add_1",
          "StatefulPartitionedCall/boundary_detector_1/functional_1/block_2_project_BN_1/batchnorm/mul_1"
        ],
        "attr": {
          "N": { "i": "2" },
          "T": { "type": "DT_FLOAT" },
          "_grappler_ArithmeticOptimizer_AddOpsRewriteStage": { "b": true }
        }
      },
      {
        "name": "StatefulPartitionedCall/boundary_detector_1/functional_1/block_2_add_1/ArithmeticOptimizer/AddOpsRewrite_Add",
        "op": "AddV2",
        "input": [
          "StatefulPartitionedCall/boundary_detector_1/functional_1/block_2_project_BN_1/batchnorm/sub",
          "StatefulPartitionedCall/boundary_detector_1/functional_1/block_2_add_1/ArithmeticOptimizer/AddOpsRewrite_Leaf_1_Add"
        ],
        "attr": {
          "T": { "type": "DT_FLOAT" },
          "_grappler_ArithmeticOptimizer_AddOpsRewriteStage": { "b": true }
        }
      },
      {
        "name": "StatefulPartitionedCall/boundary_detector_1/functional_1/block_3_expand_relu_1/Relu6",
        "op": "_FusedConv2D",
        "input": [
          "StatefulPartitionedCall/boundary_detector_1/functional_1/block_2_add_1/ArithmeticOptimizer/AddOpsRewrite_Add",
          "StatefulPartitionedCall/boundary_detector_1/functional_1/block_3_expand_1/convolution/merged_input",
          "StatefulPartitionedCall/boundary_detector_1/functional_1/block_3_expand_BN_1/batchnorm/sub"
        ],
        "device": "/device:CPU:0",
        "attr": {
          "num_host_args": { "i": "0" },
          "data_format": { "s": "TkhXQw==" },
          "filter_format": { "s": "SFdJTw==" },
          "strides": { "list": { "i": ["1", "1", "1", "1"] } },
          "num_args": { "i": "1" },
          "fused_ops": { "list": { "s": ["Qmlhc0FkZA==", "UmVsdTY="] } },
          "TArgs": { "list": { "type": ["DT_FLOAT"] } },
          "padding": { "s": "U0FNRQ==" },
          "use_cudnn_on_gpu": { "b": true },
          "leakyrelu_alpha": { "f": 0.2 },
          "epsilon": { "f": 0.0 },
          "T": { "type": "DT_FLOAT" },
          "explicit_paddings": { "list": {} },
          "dilations": { "list": { "i": ["1", "1", "1", "1"] } }
        }
      },
      {
        "name": "StatefulPartitionedCall/boundary_detector_1/conv2d_3_1/Relu",
        "op": "_FusedConv2D",
        "input": [
          "StatefulPartitionedCall/boundary_detector_1/functional_1/block_3_expand_relu_1/Relu6",
          "StatefulPartitionedCall/boundary_detector_1/conv2d_3_1/convolution/ReadVariableOp",
          "StatefulPartitionedCall/boundary_detector_1/conv2d_3_1/Squeeze"
        ],
        "device": "/device:CPU:0",
        "attr": {
          "num_host_args": { "i": "0" },
          "data_format": { "s": "TkhXQw==" },
          "filter_format": { "s": "SFdJTw==" },
          "fused_ops": { "list": { "s": ["Qmlhc0FkZA==", "UmVsdQ=="] } },
          "num_args": { "i": "1" },
          "strides": { "list": { "i": ["1", "1", "1", "1"] } },
          "TArgs": { "list": { "type": ["DT_FLOAT"] } },
          "padding": { "s": "U0FNRQ==" },
          "use_cudnn_on_gpu": { "b": true },
          "leakyrelu_alpha": { "f": 0.2 },
          "epsilon": { "f": 0.0 },
          "T": { "type": "DT_FLOAT" },
          "explicit_paddings": { "list": {} },
          "dilations": { "list": { "i": ["1", "1", "1", "1"] } }
        }
      },
      {
        "name": "StatefulPartitionedCall/boundary_detector_1/functional_1/block_3_pad_1/Pad",
        "op": "Pad",
        "input": [
          "StatefulPartitionedCall/boundary_detector_1/functional_1/block_3_expand_relu_1/Relu6",
          "StatefulPartitionedCall/boundary_detector_1/functional_1/block_3_pad_1/Const"
        ],
        "attr": {
          "Tpaddings": { "type": "DT_INT32" },
          "T": { "type": "DT_FLOAT" }
        }
      },
      {
        "name": "StatefulPartitionedCall/boundary_detector_1/functional_1/block_3_depthwise_1/depthwise",
        "op": "DepthwiseConv2dNative",
        "input": [
          "StatefulPartitionedCall/boundary_detector_1/functional_1/block_3_pad_1/Pad",
          "StatefulPartitionedCall/boundary_detector_1/functional_1/block_3_depthwise_1/depthwise/ReadVariableOp"
        ],
        "attr": {
          "padding": { "s": "VkFMSUQ=" },
          "data_format": { "s": "TkhXQw==" },
          "T": { "type": "DT_FLOAT" },
          "explicit_paddings": { "list": {} },
          "dilations": { "list": { "i": ["1", "1", "1", "1"] } },
          "strides": { "list": { "i": ["1", "2", "2", "1"] } }
        }
      },
      {
        "name": "StatefulPartitionedCall/boundary_detector_1/functional_1/block_3_depthwise_BN_1/batchnorm/mul_1",
        "op": "Mul",
        "input": [
          "StatefulPartitionedCall/boundary_detector_1/functional_1/block_3_depthwise_1/depthwise",
          "StatefulPartitionedCall/boundary_detector_1/functional_1/block_3_depthwise_BN_1/batchnorm/mul"
        ],
        "attr": { "T": { "type": "DT_FLOAT" } }
      },
      {
        "name": "StatefulPartitionedCall/boundary_detector_1/functional_1/block_3_depthwise_BN_1/batchnorm/add_1",
        "op": "AddV2",
        "input": [
          "StatefulPartitionedCall/boundary_detector_1/functional_1/block_3_depthwise_BN_1/batchnorm/mul_1",
          "StatefulPartitionedCall/boundary_detector_1/functional_1/block_3_depthwise_BN_1/batchnorm/sub"
        ],
        "attr": { "T": { "type": "DT_FLOAT" } }
      },
      {
        "name": "StatefulPartitionedCall/boundary_detector_1/functional_1/block_3_depthwise_relu_1/Relu6",
        "op": "Relu6",
        "input": [
          "StatefulPartitionedCall/boundary_detector_1/functional_1/block_3_depthwise_BN_1/batchnorm/add_1"
        ],
        "attr": { "T": { "type": "DT_FLOAT" } }
      },
      {
        "name": "StatefulPartitionedCall/boundary_detector_1/functional_1/block_3_project_BN_1/batchnorm/add_1",
        "op": "_FusedConv2D",
        "input": [
          "StatefulPartitionedCall/boundary_detector_1/functional_1/block_3_depthwise_relu_1/Relu6",
          "StatefulPartitionedCall/boundary_detector_1/functional_1/block_3_project_1/convolution/merged_input",
          "StatefulPartitionedCall/boundary_detector_1/functional_1/block_3_project_BN_1/batchnorm/sub"
        ],
        "device": "/device:CPU:0",
        "attr": {
          "num_host_args": { "i": "0" },
          "data_format": { "s": "TkhXQw==" },
          "filter_format": { "s": "SFdJTw==" },
          "fused_ops": { "list": { "s": ["Qmlhc0FkZA=="] } },
          "num_args": { "i": "1" },
          "strides": { "list": { "i": ["1", "1", "1", "1"] } },
          "TArgs": { "list": { "type": ["DT_FLOAT"] } },
          "padding": { "s": "U0FNRQ==" },
          "use_cudnn_on_gpu": { "b": true },
          "leakyrelu_alpha": { "f": 0.2 },
          "epsilon": { "f": 0.0 },
          "T": { "type": "DT_FLOAT" },
          "explicit_paddings": { "list": {} },
          "dilations": { "list": { "i": ["1", "1", "1", "1"] } }
        }
      },
      {
        "name": "StatefulPartitionedCall/boundary_detector_1/functional_1/block_4_expand_relu_1/Relu6",
        "op": "_FusedConv2D",
        "input": [
          "StatefulPartitionedCall/boundary_detector_1/functional_1/block_3_project_BN_1/batchnorm/add_1",
          "StatefulPartitionedCall/boundary_detector_1/functional_1/block_4_expand_1/convolution/merged_input",
          "StatefulPartitionedCall/boundary_detector_1/functional_1/block_4_expand_BN_1/batchnorm/sub"
        ],
        "device": "/device:CPU:0",
        "attr": {
          "num_host_args": { "i": "0" },
          "data_format": { "s": "TkhXQw==" },
          "filter_format": { "s": "SFdJTw==" },
          "fused_ops": { "list": { "s": ["Qmlhc0FkZA==", "UmVsdTY="] } },
          "num_args": { "i": "1" },
          "strides": { "list": { "i": ["1", "1", "1", "1"] } },
          "TArgs": { "list": { "type": ["DT_FLOAT"] } },
          "padding": { "s": "U0FNRQ==" },
          "use_cudnn_on_gpu": { "b": true },
          "leakyrelu_alpha": { "f": 0.2 },
          "epsilon": { "f": 0.0 },
          "T": { "type": "DT_FLOAT" },
          "explicit_paddings": { "list": {} },
          "dilations": { "list": { "i": ["1", "1", "1", "1"] } }
        }
      },
      {
        "name": "StatefulPartitionedCall/boundary_detector_1/functional_1/block_4_depthwise_1/depthwise",
        "op": "DepthwiseConv2dNative",
        "input": [
          "StatefulPartitionedCall/boundary_detector_1/functional_1/block_4_expand_relu_1/Relu6",
          "StatefulPartitionedCall/boundary_detector_1/functional_1/block_4_depthwise_1/depthwise/ReadVariableOp"
        ],
        "attr": {
          "padding": { "s": "U0FNRQ==" },
          "data_format": { "s": "TkhXQw==" },
          "T": { "type": "DT_FLOAT" },
          "explicit_paddings": { "list": {} },
          "dilations": { "list": { "i": ["1", "1", "1", "1"] } },
          "strides": { "list": { "i": ["1", "1", "1", "1"] } }
        }
      },
      {
        "name": "StatefulPartitionedCall/boundary_detector_1/functional_1/block_4_depthwise_BN_1/batchnorm/mul_1",
        "op": "Mul",
        "input": [
          "StatefulPartitionedCall/boundary_detector_1/functional_1/block_4_depthwise_1/depthwise",
          "StatefulPartitionedCall/boundary_detector_1/functional_1/block_4_depthwise_BN_1/batchnorm/mul"
        ],
        "attr": { "T": { "type": "DT_FLOAT" } }
      },
      {
        "name": "StatefulPartitionedCall/boundary_detector_1/functional_1/block_4_depthwise_BN_1/batchnorm/add_1",
        "op": "AddV2",
        "input": [
          "StatefulPartitionedCall/boundary_detector_1/functional_1/block_4_depthwise_BN_1/batchnorm/mul_1",
          "StatefulPartitionedCall/boundary_detector_1/functional_1/block_4_depthwise_BN_1/batchnorm/sub"
        ],
        "attr": { "T": { "type": "DT_FLOAT" } }
      },
      {
        "name": "StatefulPartitionedCall/boundary_detector_1/functional_1/block_4_depthwise_relu_1/Relu6",
        "op": "Relu6",
        "input": [
          "StatefulPartitionedCall/boundary_detector_1/functional_1/block_4_depthwise_BN_1/batchnorm/add_1"
        ],
        "attr": { "T": { "type": "DT_FLOAT" } }
      },
      {
        "name": "StatefulPartitionedCall/boundary_detector_1/functional_1/block_4_project_BN_1/batchnorm/mul_1",
        "op": "Conv2D",
        "input": [
          "StatefulPartitionedCall/boundary_detector_1/functional_1/block_4_depthwise_relu_1/Relu6",
          "StatefulPartitionedCall/boundary_detector_1/functional_1/block_4_project_1/convolution/merged_input"
        ],
        "device": "/device:CPU:0",
        "attr": {
          "padding": { "s": "U0FNRQ==" },
          "data_format": { "s": "TkhXQw==" },
          "strides": { "list": { "i": ["1", "1", "1", "1"] } },
          "use_cudnn_on_gpu": { "b": true },
          "T": { "type": "DT_FLOAT" },
          "explicit_paddings": { "list": {} },
          "dilations": { "list": { "i": ["1", "1", "1", "1"] } }
        }
      },
      {
        "name": "StatefulPartitionedCall/boundary_detector_1/functional_1/block_4_add_1/ArithmeticOptimizer/AddOpsRewrite_Leaf_1_Add",
        "op": "AddN",
        "input": [
          "StatefulPartitionedCall/boundary_detector_1/functional_1/block_3_project_BN_1/batchnorm/add_1",
          "StatefulPartitionedCall/boundary_detector_1/functional_1/block_4_project_BN_1/batchnorm/mul_1"
        ],
        "attr": {
          "N": { "i": "2" },
          "T": { "type": "DT_FLOAT" },
          "_grappler_ArithmeticOptimizer_AddOpsRewriteStage": { "b": true }
        }
      },
      {
        "name": "StatefulPartitionedCall/boundary_detector_1/functional_1/block_4_add_1/ArithmeticOptimizer/AddOpsRewrite_Add",
        "op": "AddV2",
        "input": [
          "StatefulPartitionedCall/boundary_detector_1/functional_1/block_4_project_BN_1/batchnorm/sub",
          "StatefulPartitionedCall/boundary_detector_1/functional_1/block_4_add_1/ArithmeticOptimizer/AddOpsRewrite_Leaf_1_Add"
        ],
        "attr": {
          "T": { "type": "DT_FLOAT" },
          "_grappler_ArithmeticOptimizer_AddOpsRewriteStage": { "b": true }
        }
      },
      {
        "name": "StatefulPartitionedCall/boundary_detector_1/functional_1/block_5_expand_relu_1/Relu6",
        "op": "_FusedConv2D",
        "input": [
          "StatefulPartitionedCall/boundary_detector_1/functional_1/block_4_add_1/ArithmeticOptimizer/AddOpsRewrite_Add",
          "StatefulPartitionedCall/boundary_detector_1/functional_1/block_5_expand_1/convolution/merged_input",
          "StatefulPartitionedCall/boundary_detector_1/functional_1/block_5_expand_BN_1/batchnorm/sub"
        ],
        "device": "/device:CPU:0",
        "attr": {
          "num_host_args": { "i": "0" },
          "data_format": { "s": "TkhXQw==" },
          "filter_format": { "s": "SFdJTw==" },
          "strides": { "list": { "i": ["1", "1", "1", "1"] } },
          "num_args": { "i": "1" },
          "fused_ops": { "list": { "s": ["Qmlhc0FkZA==", "UmVsdTY="] } },
          "TArgs": { "list": { "type": ["DT_FLOAT"] } },
          "padding": { "s": "U0FNRQ==" },
          "use_cudnn_on_gpu": { "b": true },
          "leakyrelu_alpha": { "f": 0.2 },
          "epsilon": { "f": 0.0 },
          "T": { "type": "DT_FLOAT" },
          "explicit_paddings": { "list": {} },
          "dilations": { "list": { "i": ["1", "1", "1", "1"] } }
        }
      },
      {
        "name": "StatefulPartitionedCall/boundary_detector_1/functional_1/block_5_depthwise_1/depthwise",
        "op": "DepthwiseConv2dNative",
        "input": [
          "StatefulPartitionedCall/boundary_detector_1/functional_1/block_5_expand_relu_1/Relu6",
          "StatefulPartitionedCall/boundary_detector_1/functional_1/block_5_depthwise_1/depthwise/ReadVariableOp"
        ],
        "attr": {
          "padding": { "s": "U0FNRQ==" },
          "data_format": { "s": "TkhXQw==" },
          "T": { "type": "DT_FLOAT" },
          "explicit_paddings": { "list": {} },
          "dilations": { "list": { "i": ["1", "1", "1", "1"] } },
          "strides": { "list": { "i": ["1", "1", "1", "1"] } }
        }
      },
      {
        "name": "StatefulPartitionedCall/boundary_detector_1/functional_1/block_5_depthwise_BN_1/batchnorm/mul_1",
        "op": "Mul",
        "input": [
          "StatefulPartitionedCall/boundary_detector_1/functional_1/block_5_depthwise_1/depthwise",
          "StatefulPartitionedCall/boundary_detector_1/functional_1/block_5_depthwise_BN_1/batchnorm/mul"
        ],
        "attr": { "T": { "type": "DT_FLOAT" } }
      },
      {
        "name": "StatefulPartitionedCall/boundary_detector_1/functional_1/block_5_depthwise_BN_1/batchnorm/add_1",
        "op": "AddV2",
        "input": [
          "StatefulPartitionedCall/boundary_detector_1/functional_1/block_5_depthwise_BN_1/batchnorm/mul_1",
          "StatefulPartitionedCall/boundary_detector_1/functional_1/block_5_depthwise_BN_1/batchnorm/sub"
        ],
        "attr": { "T": { "type": "DT_FLOAT" } }
      },
      {
        "name": "StatefulPartitionedCall/boundary_detector_1/functional_1/block_5_depthwise_relu_1/Relu6",
        "op": "Relu6",
        "input": [
          "StatefulPartitionedCall/boundary_detector_1/functional_1/block_5_depthwise_BN_1/batchnorm/add_1"
        ],
        "attr": { "T": { "type": "DT_FLOAT" } }
      },
      {
        "name": "StatefulPartitionedCall/boundary_detector_1/functional_1/block_5_project_BN_1/batchnorm/mul_1",
        "op": "Conv2D",
        "input": [
          "StatefulPartitionedCall/boundary_detector_1/functional_1/block_5_depthwise_relu_1/Relu6",
          "StatefulPartitionedCall/boundary_detector_1/functional_1/block_5_project_1/convolution/merged_input"
        ],
        "device": "/device:CPU:0",
        "attr": {
          "padding": { "s": "U0FNRQ==" },
          "data_format": { "s": "TkhXQw==" },
          "strides": { "list": { "i": ["1", "1", "1", "1"] } },
          "use_cudnn_on_gpu": { "b": true },
          "T": { "type": "DT_FLOAT" },
          "explicit_paddings": { "list": {} },
          "dilations": { "list": { "i": ["1", "1", "1", "1"] } }
        }
      },
      {
        "name": "StatefulPartitionedCall/boundary_detector_1/functional_1/block_5_add_1/ArithmeticOptimizer/AddOpsRewrite_Leaf_1_Add",
        "op": "AddN",
        "input": [
          "StatefulPartitionedCall/boundary_detector_1/functional_1/block_4_add_1/ArithmeticOptimizer/AddOpsRewrite_Add",
          "StatefulPartitionedCall/boundary_detector_1/functional_1/block_5_project_BN_1/batchnorm/mul_1"
        ],
        "attr": {
          "N": { "i": "2" },
          "T": { "type": "DT_FLOAT" },
          "_grappler_ArithmeticOptimizer_AddOpsRewriteStage": { "b": true }
        }
      },
      {
        "name": "StatefulPartitionedCall/boundary_detector_1/functional_1/block_5_add_1/ArithmeticOptimizer/AddOpsRewrite_Add",
        "op": "AddV2",
        "input": [
          "StatefulPartitionedCall/boundary_detector_1/functional_1/block_5_project_BN_1/batchnorm/sub",
          "StatefulPartitionedCall/boundary_detector_1/functional_1/block_5_add_1/ArithmeticOptimizer/AddOpsRewrite_Leaf_1_Add"
        ],
        "attr": {
          "T": { "type": "DT_FLOAT" },
          "_grappler_ArithmeticOptimizer_AddOpsRewriteStage": { "b": true }
        }
      },
      {
        "name": "StatefulPartitionedCall/boundary_detector_1/functional_1/block_6_expand_relu_1/Relu6",
        "op": "_FusedConv2D",
        "input": [
          "StatefulPartitionedCall/boundary_detector_1/functional_1/block_5_add_1/ArithmeticOptimizer/AddOpsRewrite_Add",
          "StatefulPartitionedCall/boundary_detector_1/functional_1/block_6_expand_1/convolution/merged_input",
          "StatefulPartitionedCall/boundary_detector_1/functional_1/block_6_expand_BN_1/batchnorm/sub"
        ],
        "device": "/device:CPU:0",
        "attr": {
          "num_host_args": { "i": "0" },
          "data_format": { "s": "TkhXQw==" },
          "filter_format": { "s": "SFdJTw==" },
          "fused_ops": { "list": { "s": ["Qmlhc0FkZA==", "UmVsdTY="] } },
          "num_args": { "i": "1" },
          "strides": { "list": { "i": ["1", "1", "1", "1"] } },
          "TArgs": { "list": { "type": ["DT_FLOAT"] } },
          "padding": { "s": "U0FNRQ==" },
          "use_cudnn_on_gpu": { "b": true },
          "leakyrelu_alpha": { "f": 0.2 },
          "epsilon": { "f": 0.0 },
          "T": { "type": "DT_FLOAT" },
          "explicit_paddings": { "list": {} },
          "dilations": { "list": { "i": ["1", "1", "1", "1"] } }
        }
      },
      {
        "name": "StatefulPartitionedCall/boundary_detector_1/conv2d_1_2/Relu",
        "op": "_FusedConv2D",
        "input": [
          "StatefulPartitionedCall/boundary_detector_1/functional_1/block_6_expand_relu_1/Relu6",
          "StatefulPartitionedCall/boundary_detector_1/conv2d_1_2/convolution/ReadVariableOp",
          "StatefulPartitionedCall/boundary_detector_1/conv2d_1_2/Squeeze"
        ],
        "device": "/device:CPU:0",
        "attr": {
          "num_host_args": { "i": "0" },
          "data_format": { "s": "TkhXQw==" },
          "filter_format": { "s": "SFdJTw==" },
          "fused_ops": { "list": { "s": ["Qmlhc0FkZA==", "UmVsdQ=="] } },
          "num_args": { "i": "1" },
          "strides": { "list": { "i": ["1", "1", "1", "1"] } },
          "TArgs": { "list": { "type": ["DT_FLOAT"] } },
          "padding": { "s": "U0FNRQ==" },
          "use_cudnn_on_gpu": { "b": true },
          "leakyrelu_alpha": { "f": 0.2 },
          "epsilon": { "f": 0.0 },
          "T": { "type": "DT_FLOAT" },
          "explicit_paddings": { "list": {} },
          "dilations": { "list": { "i": ["1", "1", "1", "1"] } }
        }
      },
      {
        "name": "StatefulPartitionedCall/boundary_detector_1/functional_1/block_6_pad_1/Pad",
        "op": "Pad",
        "input": [
          "StatefulPartitionedCall/boundary_detector_1/functional_1/block_6_expand_relu_1/Relu6",
          "StatefulPartitionedCall/boundary_detector_1/functional_1/block_6_pad_1/Const"
        ],
        "attr": {
          "Tpaddings": { "type": "DT_INT32" },
          "T": { "type": "DT_FLOAT" }
        }
      },
      {
        "name": "StatefulPartitionedCall/boundary_detector_1/functional_1/block_6_depthwise_1/depthwise",
        "op": "DepthwiseConv2dNative",
        "input": [
          "StatefulPartitionedCall/boundary_detector_1/functional_1/block_6_pad_1/Pad",
          "StatefulPartitionedCall/boundary_detector_1/functional_1/block_6_depthwise_1/depthwise/ReadVariableOp"
        ],
        "attr": {
          "padding": { "s": "VkFMSUQ=" },
          "data_format": { "s": "TkhXQw==" },
          "T": { "type": "DT_FLOAT" },
          "explicit_paddings": { "list": {} },
          "dilations": { "list": { "i": ["1", "1", "1", "1"] } },
          "strides": { "list": { "i": ["1", "2", "2", "1"] } }
        }
      },
      {
        "name": "StatefulPartitionedCall/boundary_detector_1/functional_1/block_6_depthwise_BN_1/batchnorm/mul_1",
        "op": "Mul",
        "input": [
          "StatefulPartitionedCall/boundary_detector_1/functional_1/block_6_depthwise_1/depthwise",
          "StatefulPartitionedCall/boundary_detector_1/functional_1/block_6_depthwise_BN_1/batchnorm/mul"
        ],
        "attr": { "T": { "type": "DT_FLOAT" } }
      },
      {
        "name": "StatefulPartitionedCall/boundary_detector_1/functional_1/block_6_depthwise_BN_1/batchnorm/add_1",
        "op": "AddV2",
        "input": [
          "StatefulPartitionedCall/boundary_detector_1/functional_1/block_6_depthwise_BN_1/batchnorm/mul_1",
          "StatefulPartitionedCall/boundary_detector_1/functional_1/block_6_depthwise_BN_1/batchnorm/sub"
        ],
        "attr": { "T": { "type": "DT_FLOAT" } }
      },
      {
        "name": "StatefulPartitionedCall/boundary_detector_1/functional_1/block_6_depthwise_relu_1/Relu6",
        "op": "Relu6",
        "input": [
          "StatefulPartitionedCall/boundary_detector_1/functional_1/block_6_depthwise_BN_1/batchnorm/add_1"
        ],
        "attr": { "T": { "type": "DT_FLOAT" } }
      },
      {
        "name": "StatefulPartitionedCall/boundary_detector_1/functional_1/block_6_project_BN_1/batchnorm/add_1",
        "op": "_FusedConv2D",
        "input": [
          "StatefulPartitionedCall/boundary_detector_1/functional_1/block_6_depthwise_relu_1/Relu6",
          "StatefulPartitionedCall/boundary_detector_1/functional_1/block_6_project_1/convolution/merged_input",
          "StatefulPartitionedCall/boundary_detector_1/functional_1/block_6_project_BN_1/batchnorm/sub"
        ],
        "device": "/device:CPU:0",
        "attr": {
          "num_host_args": { "i": "0" },
          "data_format": { "s": "TkhXQw==" },
          "filter_format": { "s": "SFdJTw==" },
          "fused_ops": { "list": { "s": ["Qmlhc0FkZA=="] } },
          "num_args": { "i": "1" },
          "strides": { "list": { "i": ["1", "1", "1", "1"] } },
          "TArgs": { "list": { "type": ["DT_FLOAT"] } },
          "padding": { "s": "U0FNRQ==" },
          "use_cudnn_on_gpu": { "b": true },
          "leakyrelu_alpha": { "f": 0.2 },
          "epsilon": { "f": 0.0 },
          "T": { "type": "DT_FLOAT" },
          "explicit_paddings": { "list": {} },
          "dilations": { "list": { "i": ["1", "1", "1", "1"] } }
        }
      },
      {
        "name": "StatefulPartitionedCall/boundary_detector_1/functional_1/block_7_expand_relu_1/Relu6",
        "op": "_FusedConv2D",
        "input": [
          "StatefulPartitionedCall/boundary_detector_1/functional_1/block_6_project_BN_1/batchnorm/add_1",
          "StatefulPartitionedCall/boundary_detector_1/functional_1/block_7_expand_1/convolution/merged_input",
          "StatefulPartitionedCall/boundary_detector_1/functional_1/block_7_expand_BN_1/batchnorm/sub"
        ],
        "device": "/device:CPU:0",
        "attr": {
          "num_host_args": { "i": "0" },
          "data_format": { "s": "TkhXQw==" },
          "filter_format": { "s": "SFdJTw==" },
          "strides": { "list": { "i": ["1", "1", "1", "1"] } },
          "num_args": { "i": "1" },
          "fused_ops": { "list": { "s": ["Qmlhc0FkZA==", "UmVsdTY="] } },
          "TArgs": { "list": { "type": ["DT_FLOAT"] } },
          "padding": { "s": "U0FNRQ==" },
          "use_cudnn_on_gpu": { "b": true },
          "leakyrelu_alpha": { "f": 0.2 },
          "epsilon": { "f": 0.0 },
          "T": { "type": "DT_FLOAT" },
          "explicit_paddings": { "list": {} },
          "dilations": { "list": { "i": ["1", "1", "1", "1"] } }
        }
      },
      {
        "name": "StatefulPartitionedCall/boundary_detector_1/functional_1/block_7_depthwise_1/depthwise",
        "op": "DepthwiseConv2dNative",
        "input": [
          "StatefulPartitionedCall/boundary_detector_1/functional_1/block_7_expand_relu_1/Relu6",
          "StatefulPartitionedCall/boundary_detector_1/functional_1/block_7_depthwise_1/depthwise/ReadVariableOp"
        ],
        "attr": {
          "padding": { "s": "U0FNRQ==" },
          "data_format": { "s": "TkhXQw==" },
          "T": { "type": "DT_FLOAT" },
          "explicit_paddings": { "list": {} },
          "dilations": { "list": { "i": ["1", "1", "1", "1"] } },
          "strides": { "list": { "i": ["1", "1", "1", "1"] } }
        }
      },
      {
        "name": "StatefulPartitionedCall/boundary_detector_1/functional_1/block_7_depthwise_BN_1/batchnorm/mul_1",
        "op": "Mul",
        "input": [
          "StatefulPartitionedCall/boundary_detector_1/functional_1/block_7_depthwise_1/depthwise",
          "StatefulPartitionedCall/boundary_detector_1/functional_1/block_7_depthwise_BN_1/batchnorm/mul"
        ],
        "attr": { "T": { "type": "DT_FLOAT" } }
      },
      {
        "name": "StatefulPartitionedCall/boundary_detector_1/functional_1/block_7_depthwise_BN_1/batchnorm/add_1",
        "op": "AddV2",
        "input": [
          "StatefulPartitionedCall/boundary_detector_1/functional_1/block_7_depthwise_BN_1/batchnorm/mul_1",
          "StatefulPartitionedCall/boundary_detector_1/functional_1/block_7_depthwise_BN_1/batchnorm/sub"
        ],
        "attr": { "T": { "type": "DT_FLOAT" } }
      },
      {
        "name": "StatefulPartitionedCall/boundary_detector_1/functional_1/block_7_depthwise_relu_1/Relu6",
        "op": "Relu6",
        "input": [
          "StatefulPartitionedCall/boundary_detector_1/functional_1/block_7_depthwise_BN_1/batchnorm/add_1"
        ],
        "attr": { "T": { "type": "DT_FLOAT" } }
      },
      {
        "name": "StatefulPartitionedCall/boundary_detector_1/functional_1/block_7_project_BN_1/batchnorm/mul_1",
        "op": "Conv2D",
        "input": [
          "StatefulPartitionedCall/boundary_detector_1/functional_1/block_7_depthwise_relu_1/Relu6",
          "StatefulPartitionedCall/boundary_detector_1/functional_1/block_7_project_1/convolution/merged_input"
        ],
        "device": "/device:CPU:0",
        "attr": {
          "padding": { "s": "U0FNRQ==" },
          "data_format": { "s": "TkhXQw==" },
          "strides": { "list": { "i": ["1", "1", "1", "1"] } },
          "use_cudnn_on_gpu": { "b": true },
          "T": { "type": "DT_FLOAT" },
          "explicit_paddings": { "list": {} },
          "dilations": { "list": { "i": ["1", "1", "1", "1"] } }
        }
      },
      {
        "name": "StatefulPartitionedCall/boundary_detector_1/functional_1/block_7_add_1/ArithmeticOptimizer/AddOpsRewrite_Leaf_1_Add",
        "op": "AddN",
        "input": [
          "StatefulPartitionedCall/boundary_detector_1/functional_1/block_6_project_BN_1/batchnorm/add_1",
          "StatefulPartitionedCall/boundary_detector_1/functional_1/block_7_project_BN_1/batchnorm/mul_1"
        ],
        "attr": {
          "N": { "i": "2" },
          "T": { "type": "DT_FLOAT" },
          "_grappler_ArithmeticOptimizer_AddOpsRewriteStage": { "b": true }
        }
      },
      {
        "name": "StatefulPartitionedCall/boundary_detector_1/functional_1/block_7_add_1/ArithmeticOptimizer/AddOpsRewrite_Add",
        "op": "AddV2",
        "input": [
          "StatefulPartitionedCall/boundary_detector_1/functional_1/block_7_project_BN_1/batchnorm/sub",
          "StatefulPartitionedCall/boundary_detector_1/functional_1/block_7_add_1/ArithmeticOptimizer/AddOpsRewrite_Leaf_1_Add"
        ],
        "attr": {
          "T": { "type": "DT_FLOAT" },
          "_grappler_ArithmeticOptimizer_AddOpsRewriteStage": { "b": true }
        }
      },
      {
        "name": "StatefulPartitionedCall/boundary_detector_1/functional_1/block_8_expand_relu_1/Relu6",
        "op": "_FusedConv2D",
        "input": [
          "StatefulPartitionedCall/boundary_detector_1/functional_1/block_7_add_1/ArithmeticOptimizer/AddOpsRewrite_Add",
          "StatefulPartitionedCall/boundary_detector_1/functional_1/block_8_expand_1/convolution/merged_input",
          "StatefulPartitionedCall/boundary_detector_1/functional_1/block_8_expand_BN_1/batchnorm/sub"
        ],
        "device": "/device:CPU:0",
        "attr": {
          "num_host_args": { "i": "0" },
          "data_format": { "s": "TkhXQw==" },
          "filter_format": { "s": "SFdJTw==" },
          "strides": { "list": { "i": ["1", "1", "1", "1"] } },
          "num_args": { "i": "1" },
          "fused_ops": { "list": { "s": ["Qmlhc0FkZA==", "UmVsdTY="] } },
          "TArgs": { "list": { "type": ["DT_FLOAT"] } },
          "padding": { "s": "U0FNRQ==" },
          "use_cudnn_on_gpu": { "b": true },
          "leakyrelu_alpha": { "f": 0.2 },
          "epsilon": { "f": 0.0 },
          "T": { "type": "DT_FLOAT" },
          "explicit_paddings": { "list": {} },
          "dilations": { "list": { "i": ["1", "1", "1", "1"] } }
        }
      },
      {
        "name": "StatefulPartitionedCall/boundary_detector_1/functional_1/block_8_depthwise_1/depthwise",
        "op": "DepthwiseConv2dNative",
        "input": [
          "StatefulPartitionedCall/boundary_detector_1/functional_1/block_8_expand_relu_1/Relu6",
          "StatefulPartitionedCall/boundary_detector_1/functional_1/block_8_depthwise_1/depthwise/ReadVariableOp"
        ],
        "attr": {
          "padding": { "s": "U0FNRQ==" },
          "data_format": { "s": "TkhXQw==" },
          "T": { "type": "DT_FLOAT" },
          "explicit_paddings": { "list": {} },
          "dilations": { "list": { "i": ["1", "1", "1", "1"] } },
          "strides": { "list": { "i": ["1", "1", "1", "1"] } }
        }
      },
      {
        "name": "StatefulPartitionedCall/boundary_detector_1/functional_1/block_8_depthwise_BN_1/batchnorm/mul_1",
        "op": "Mul",
        "input": [
          "StatefulPartitionedCall/boundary_detector_1/functional_1/block_8_depthwise_1/depthwise",
          "StatefulPartitionedCall/boundary_detector_1/functional_1/block_8_depthwise_BN_1/batchnorm/mul"
        ],
        "attr": { "T": { "type": "DT_FLOAT" } }
      },
      {
        "name": "StatefulPartitionedCall/boundary_detector_1/functional_1/block_8_depthwise_BN_1/batchnorm/add_1",
        "op": "AddV2",
        "input": [
          "StatefulPartitionedCall/boundary_detector_1/functional_1/block_8_depthwise_BN_1/batchnorm/mul_1",
          "StatefulPartitionedCall/boundary_detector_1/functional_1/block_8_depthwise_BN_1/batchnorm/sub"
        ],
        "attr": { "T": { "type": "DT_FLOAT" } }
      },
      {
        "name": "StatefulPartitionedCall/boundary_detector_1/functional_1/block_8_depthwise_relu_1/Relu6",
        "op": "Relu6",
        "input": [
          "StatefulPartitionedCall/boundary_detector_1/functional_1/block_8_depthwise_BN_1/batchnorm/add_1"
        ],
        "attr": { "T": { "type": "DT_FLOAT" } }
      },
      {
        "name": "StatefulPartitionedCall/boundary_detector_1/functional_1/block_8_project_BN_1/batchnorm/mul_1",
        "op": "Conv2D",
        "input": [
          "StatefulPartitionedCall/boundary_detector_1/functional_1/block_8_depthwise_relu_1/Relu6",
          "StatefulPartitionedCall/boundary_detector_1/functional_1/block_8_project_1/convolution/merged_input"
        ],
        "device": "/device:CPU:0",
        "attr": {
          "padding": { "s": "U0FNRQ==" },
          "data_format": { "s": "TkhXQw==" },
          "strides": { "list": { "i": ["1", "1", "1", "1"] } },
          "use_cudnn_on_gpu": { "b": true },
          "T": { "type": "DT_FLOAT" },
          "explicit_paddings": { "list": {} },
          "dilations": { "list": { "i": ["1", "1", "1", "1"] } }
        }
      },
      {
        "name": "StatefulPartitionedCall/boundary_detector_1/functional_1/block_8_add_1/ArithmeticOptimizer/AddOpsRewrite_Leaf_1_Add",
        "op": "AddN",
        "input": [
          "StatefulPartitionedCall/boundary_detector_1/functional_1/block_7_add_1/ArithmeticOptimizer/AddOpsRewrite_Add",
          "StatefulPartitionedCall/boundary_detector_1/functional_1/block_8_project_BN_1/batchnorm/mul_1"
        ],
        "attr": {
          "N": { "i": "2" },
          "T": { "type": "DT_FLOAT" },
          "_grappler_ArithmeticOptimizer_AddOpsRewriteStage": { "b": true }
        }
      },
      {
        "name": "StatefulPartitionedCall/boundary_detector_1/functional_1/block_8_add_1/ArithmeticOptimizer/AddOpsRewrite_Add",
        "op": "AddV2",
        "input": [
          "StatefulPartitionedCall/boundary_detector_1/functional_1/block_8_project_BN_1/batchnorm/sub",
          "StatefulPartitionedCall/boundary_detector_1/functional_1/block_8_add_1/ArithmeticOptimizer/AddOpsRewrite_Leaf_1_Add"
        ],
        "attr": {
          "T": { "type": "DT_FLOAT" },
          "_grappler_ArithmeticOptimizer_AddOpsRewriteStage": { "b": true }
        }
      },
      {
        "name": "StatefulPartitionedCall/boundary_detector_1/functional_1/block_9_expand_relu_1/Relu6",
        "op": "_FusedConv2D",
        "input": [
          "StatefulPartitionedCall/boundary_detector_1/functional_1/block_8_add_1/ArithmeticOptimizer/AddOpsRewrite_Add",
          "StatefulPartitionedCall/boundary_detector_1/functional_1/block_9_expand_1/convolution/merged_input",
          "StatefulPartitionedCall/boundary_detector_1/functional_1/block_9_expand_BN_1/batchnorm/sub"
        ],
        "device": "/device:CPU:0",
        "attr": {
          "num_host_args": { "i": "0" },
          "data_format": { "s": "TkhXQw==" },
          "filter_format": { "s": "SFdJTw==" },
          "strides": { "list": { "i": ["1", "1", "1", "1"] } },
          "num_args": { "i": "1" },
          "fused_ops": { "list": { "s": ["Qmlhc0FkZA==", "UmVsdTY="] } },
          "TArgs": { "list": { "type": ["DT_FLOAT"] } },
          "padding": { "s": "U0FNRQ==" },
          "use_cudnn_on_gpu": { "b": true },
          "leakyrelu_alpha": { "f": 0.2 },
          "epsilon": { "f": 0.0 },
          "T": { "type": "DT_FLOAT" },
          "explicit_paddings": { "list": {} },
          "dilations": { "list": { "i": ["1", "1", "1", "1"] } }
        }
      },
      {
        "name": "StatefulPartitionedCall/boundary_detector_1/functional_1/block_9_depthwise_1/depthwise",
        "op": "DepthwiseConv2dNative",
        "input": [
          "StatefulPartitionedCall/boundary_detector_1/functional_1/block_9_expand_relu_1/Relu6",
          "StatefulPartitionedCall/boundary_detector_1/functional_1/block_9_depthwise_1/depthwise/ReadVariableOp"
        ],
        "attr": {
          "padding": { "s": "U0FNRQ==" },
          "data_format": { "s": "TkhXQw==" },
          "T": { "type": "DT_FLOAT" },
          "explicit_paddings": { "list": {} },
          "dilations": { "list": { "i": ["1", "1", "1", "1"] } },
          "strides": { "list": { "i": ["1", "1", "1", "1"] } }
        }
      },
      {
        "name": "StatefulPartitionedCall/boundary_detector_1/functional_1/block_9_depthwise_BN_1/batchnorm/mul_1",
        "op": "Mul",
        "input": [
          "StatefulPartitionedCall/boundary_detector_1/functional_1/block_9_depthwise_1/depthwise",
          "StatefulPartitionedCall/boundary_detector_1/functional_1/block_9_depthwise_BN_1/batchnorm/mul"
        ],
        "attr": { "T": { "type": "DT_FLOAT" } }
      },
      {
        "name": "StatefulPartitionedCall/boundary_detector_1/functional_1/block_9_depthwise_BN_1/batchnorm/add_1",
        "op": "AddV2",
        "input": [
          "StatefulPartitionedCall/boundary_detector_1/functional_1/block_9_depthwise_BN_1/batchnorm/mul_1",
          "StatefulPartitionedCall/boundary_detector_1/functional_1/block_9_depthwise_BN_1/batchnorm/sub"
        ],
        "attr": { "T": { "type": "DT_FLOAT" } }
      },
      {
        "name": "StatefulPartitionedCall/boundary_detector_1/functional_1/block_9_depthwise_relu_1/Relu6",
        "op": "Relu6",
        "input": [
          "StatefulPartitionedCall/boundary_detector_1/functional_1/block_9_depthwise_BN_1/batchnorm/add_1"
        ],
        "attr": { "T": { "type": "DT_FLOAT" } }
      },
      {
        "name": "StatefulPartitionedCall/boundary_detector_1/functional_1/block_9_project_BN_1/batchnorm/mul_1",
        "op": "Conv2D",
        "input": [
          "StatefulPartitionedCall/boundary_detector_1/functional_1/block_9_depthwise_relu_1/Relu6",
          "StatefulPartitionedCall/boundary_detector_1/functional_1/block_9_project_1/convolution/merged_input"
        ],
        "device": "/device:CPU:0",
        "attr": {
          "padding": { "s": "U0FNRQ==" },
          "data_format": { "s": "TkhXQw==" },
          "use_cudnn_on_gpu": { "b": true },
          "strides": { "list": { "i": ["1", "1", "1", "1"] } },
          "T": { "type": "DT_FLOAT" },
          "explicit_paddings": { "list": {} },
          "dilations": { "list": { "i": ["1", "1", "1", "1"] } }
        }
      },
      {
        "name": "StatefulPartitionedCall/boundary_detector_1/functional_1/block_9_add_1/ArithmeticOptimizer/AddOpsRewrite_Leaf_1_Add",
        "op": "AddN",
        "input": [
          "StatefulPartitionedCall/boundary_detector_1/functional_1/block_8_add_1/ArithmeticOptimizer/AddOpsRewrite_Add",
          "StatefulPartitionedCall/boundary_detector_1/functional_1/block_9_project_BN_1/batchnorm/mul_1"
        ],
        "attr": {
          "N": { "i": "2" },
          "T": { "type": "DT_FLOAT" },
          "_grappler_ArithmeticOptimizer_AddOpsRewriteStage": { "b": true }
        }
      },
      {
        "name": "StatefulPartitionedCall/boundary_detector_1/functional_1/block_9_add_1/ArithmeticOptimizer/AddOpsRewrite_Add",
        "op": "AddV2",
        "input": [
          "StatefulPartitionedCall/boundary_detector_1/functional_1/block_9_project_BN_1/batchnorm/sub",
          "StatefulPartitionedCall/boundary_detector_1/functional_1/block_9_add_1/ArithmeticOptimizer/AddOpsRewrite_Leaf_1_Add"
        ],
        "attr": {
          "T": { "type": "DT_FLOAT" },
          "_grappler_ArithmeticOptimizer_AddOpsRewriteStage": { "b": true }
        }
      },
      {
        "name": "StatefulPartitionedCall/boundary_detector_1/functional_1/block_10_expand_relu_1/Relu6",
        "op": "_FusedConv2D",
        "input": [
          "StatefulPartitionedCall/boundary_detector_1/functional_1/block_9_add_1/ArithmeticOptimizer/AddOpsRewrite_Add",
          "StatefulPartitionedCall/boundary_detector_1/functional_1/block_10_expand_1/convolution/merged_input",
          "StatefulPartitionedCall/boundary_detector_1/functional_1/block_10_expand_BN_1/batchnorm/sub"
        ],
        "device": "/device:CPU:0",
        "attr": {
          "num_host_args": { "i": "0" },
          "data_format": { "s": "TkhXQw==" },
          "filter_format": { "s": "SFdJTw==" },
          "strides": { "list": { "i": ["1", "1", "1", "1"] } },
          "num_args": { "i": "1" },
          "fused_ops": { "list": { "s": ["Qmlhc0FkZA==", "UmVsdTY="] } },
          "TArgs": { "list": { "type": ["DT_FLOAT"] } },
          "padding": { "s": "U0FNRQ==" },
          "use_cudnn_on_gpu": { "b": true },
          "leakyrelu_alpha": { "f": 0.2 },
          "epsilon": { "f": 0.0 },
          "T": { "type": "DT_FLOAT" },
          "explicit_paddings": { "list": {} },
          "dilations": { "list": { "i": ["1", "1", "1", "1"] } }
        }
      },
      {
        "name": "StatefulPartitionedCall/boundary_detector_1/functional_1/block_10_depthwise_1/depthwise",
        "op": "DepthwiseConv2dNative",
        "input": [
          "StatefulPartitionedCall/boundary_detector_1/functional_1/block_10_expand_relu_1/Relu6",
          "StatefulPartitionedCall/boundary_detector_1/functional_1/block_10_depthwise_1/depthwise/ReadVariableOp"
        ],
        "attr": {
          "padding": { "s": "U0FNRQ==" },
          "data_format": { "s": "TkhXQw==" },
          "T": { "type": "DT_FLOAT" },
          "explicit_paddings": { "list": {} },
          "dilations": { "list": { "i": ["1", "1", "1", "1"] } },
          "strides": { "list": { "i": ["1", "1", "1", "1"] } }
        }
      },
      {
        "name": "StatefulPartitionedCall/boundary_detector_1/functional_1/block_10_depthwise_BN_1/batchnorm/mul_1",
        "op": "Mul",
        "input": [
          "StatefulPartitionedCall/boundary_detector_1/functional_1/block_10_depthwise_1/depthwise",
          "StatefulPartitionedCall/boundary_detector_1/functional_1/block_10_depthwise_BN_1/batchnorm/mul"
        ],
        "attr": { "T": { "type": "DT_FLOAT" } }
      },
      {
        "name": "StatefulPartitionedCall/boundary_detector_1/functional_1/block_10_depthwise_BN_1/batchnorm/add_1",
        "op": "AddV2",
        "input": [
          "StatefulPartitionedCall/boundary_detector_1/functional_1/block_10_depthwise_BN_1/batchnorm/mul_1",
          "StatefulPartitionedCall/boundary_detector_1/functional_1/block_10_depthwise_BN_1/batchnorm/sub"
        ],
        "attr": { "T": { "type": "DT_FLOAT" } }
      },
      {
        "name": "StatefulPartitionedCall/boundary_detector_1/functional_1/block_10_depthwise_relu_1/Relu6",
        "op": "Relu6",
        "input": [
          "StatefulPartitionedCall/boundary_detector_1/functional_1/block_10_depthwise_BN_1/batchnorm/add_1"
        ],
        "attr": { "T": { "type": "DT_FLOAT" } }
      },
      {
        "name": "StatefulPartitionedCall/boundary_detector_1/functional_1/block_10_project_BN_1/batchnorm/add_1",
        "op": "_FusedConv2D",
        "input": [
          "StatefulPartitionedCall/boundary_detector_1/functional_1/block_10_depthwise_relu_1/Relu6",
          "StatefulPartitionedCall/boundary_detector_1/functional_1/block_10_project_1/convolution/merged_input",
          "StatefulPartitionedCall/boundary_detector_1/functional_1/block_10_project_BN_1/batchnorm/sub"
        ],
        "device": "/device:CPU:0",
        "attr": {
          "num_host_args": { "i": "0" },
          "data_format": { "s": "TkhXQw==" },
          "filter_format": { "s": "SFdJTw==" },
          "strides": { "list": { "i": ["1", "1", "1", "1"] } },
          "num_args": { "i": "1" },
          "fused_ops": { "list": { "s": ["Qmlhc0FkZA=="] } },
          "TArgs": { "list": { "type": ["DT_FLOAT"] } },
          "padding": { "s": "U0FNRQ==" },
          "use_cudnn_on_gpu": { "b": true },
          "leakyrelu_alpha": { "f": 0.2 },
          "epsilon": { "f": 0.0 },
          "T": { "type": "DT_FLOAT" },
          "explicit_paddings": { "list": {} },
          "dilations": { "list": { "i": ["1", "1", "1", "1"] } }
        }
      },
      {
        "name": "StatefulPartitionedCall/boundary_detector_1/functional_1/block_11_expand_relu_1/Relu6",
        "op": "_FusedConv2D",
        "input": [
          "StatefulPartitionedCall/boundary_detector_1/functional_1/block_10_project_BN_1/batchnorm/add_1",
          "StatefulPartitionedCall/boundary_detector_1/functional_1/block_11_expand_1/convolution/merged_input",
          "StatefulPartitionedCall/boundary_detector_1/functional_1/block_11_expand_BN_1/batchnorm/sub"
        ],
        "device": "/device:CPU:0",
        "attr": {
          "num_host_args": { "i": "0" },
          "data_format": { "s": "TkhXQw==" },
          "filter_format": { "s": "SFdJTw==" },
          "strides": { "list": { "i": ["1", "1", "1", "1"] } },
          "num_args": { "i": "1" },
          "fused_ops": { "list": { "s": ["Qmlhc0FkZA==", "UmVsdTY="] } },
          "TArgs": { "list": { "type": ["DT_FLOAT"] } },
          "padding": { "s": "U0FNRQ==" },
          "use_cudnn_on_gpu": { "b": true },
          "leakyrelu_alpha": { "f": 0.2 },
          "epsilon": { "f": 0.0 },
          "T": { "type": "DT_FLOAT" },
          "explicit_paddings": { "list": {} },
          "dilations": { "list": { "i": ["1", "1", "1", "1"] } }
        }
      },
      {
        "name": "StatefulPartitionedCall/boundary_detector_1/functional_1/block_11_depthwise_1/depthwise",
        "op": "DepthwiseConv2dNative",
        "input": [
          "StatefulPartitionedCall/boundary_detector_1/functional_1/block_11_expand_relu_1/Relu6",
          "StatefulPartitionedCall/boundary_detector_1/functional_1/block_11_depthwise_1/depthwise/ReadVariableOp"
        ],
        "attr": {
          "padding": { "s": "U0FNRQ==" },
          "data_format": { "s": "TkhXQw==" },
          "T": { "type": "DT_FLOAT" },
          "explicit_paddings": { "list": {} },
          "dilations": { "list": { "i": ["1", "1", "1", "1"] } },
          "strides": { "list": { "i": ["1", "1", "1", "1"] } }
        }
      },
      {
        "name": "StatefulPartitionedCall/boundary_detector_1/functional_1/block_11_depthwise_BN_1/batchnorm/mul_1",
        "op": "Mul",
        "input": [
          "StatefulPartitionedCall/boundary_detector_1/functional_1/block_11_depthwise_1/depthwise",
          "StatefulPartitionedCall/boundary_detector_1/functional_1/block_11_depthwise_BN_1/batchnorm/mul"
        ],
        "attr": { "T": { "type": "DT_FLOAT" } }
      },
      {
        "name": "StatefulPartitionedCall/boundary_detector_1/functional_1/block_11_depthwise_BN_1/batchnorm/add_1",
        "op": "AddV2",
        "input": [
          "StatefulPartitionedCall/boundary_detector_1/functional_1/block_11_depthwise_BN_1/batchnorm/mul_1",
          "StatefulPartitionedCall/boundary_detector_1/functional_1/block_11_depthwise_BN_1/batchnorm/sub"
        ],
        "attr": { "T": { "type": "DT_FLOAT" } }
      },
      {
        "name": "StatefulPartitionedCall/boundary_detector_1/functional_1/block_11_depthwise_relu_1/Relu6",
        "op": "Relu6",
        "input": [
          "StatefulPartitionedCall/boundary_detector_1/functional_1/block_11_depthwise_BN_1/batchnorm/add_1"
        ],
        "attr": { "T": { "type": "DT_FLOAT" } }
      },
      {
        "name": "StatefulPartitionedCall/boundary_detector_1/functional_1/block_11_project_BN_1/batchnorm/mul_1",
        "op": "Conv2D",
        "input": [
          "StatefulPartitionedCall/boundary_detector_1/functional_1/block_11_depthwise_relu_1/Relu6",
          "StatefulPartitionedCall/boundary_detector_1/functional_1/block_11_project_1/convolution/merged_input"
        ],
        "device": "/device:CPU:0",
        "attr": {
          "padding": { "s": "U0FNRQ==" },
          "data_format": { "s": "TkhXQw==" },
          "use_cudnn_on_gpu": { "b": true },
          "strides": { "list": { "i": ["1", "1", "1", "1"] } },
          "T": { "type": "DT_FLOAT" },
          "explicit_paddings": { "list": {} },
          "dilations": { "list": { "i": ["1", "1", "1", "1"] } }
        }
      },
      {
        "name": "StatefulPartitionedCall/boundary_detector_1/functional_1/block_11_add_1/ArithmeticOptimizer/AddOpsRewrite_Leaf_1_Add",
        "op": "AddN",
        "input": [
          "StatefulPartitionedCall/boundary_detector_1/functional_1/block_10_project_BN_1/batchnorm/add_1",
          "StatefulPartitionedCall/boundary_detector_1/functional_1/block_11_project_BN_1/batchnorm/mul_1"
        ],
        "attr": {
          "N": { "i": "2" },
          "T": { "type": "DT_FLOAT" },
          "_grappler_ArithmeticOptimizer_AddOpsRewriteStage": { "b": true }
        }
      },
      {
        "name": "StatefulPartitionedCall/boundary_detector_1/functional_1/block_11_add_1/ArithmeticOptimizer/AddOpsRewrite_Add",
        "op": "AddV2",
        "input": [
          "StatefulPartitionedCall/boundary_detector_1/functional_1/block_11_project_BN_1/batchnorm/sub",
          "StatefulPartitionedCall/boundary_detector_1/functional_1/block_11_add_1/ArithmeticOptimizer/AddOpsRewrite_Leaf_1_Add"
        ],
        "attr": {
          "T": { "type": "DT_FLOAT" },
          "_grappler_ArithmeticOptimizer_AddOpsRewriteStage": { "b": true }
        }
      },
      {
        "name": "StatefulPartitionedCall/boundary_detector_1/functional_1/block_12_expand_relu_1/Relu6",
        "op": "_FusedConv2D",
        "input": [
          "StatefulPartitionedCall/boundary_detector_1/functional_1/block_11_add_1/ArithmeticOptimizer/AddOpsRewrite_Add",
          "StatefulPartitionedCall/boundary_detector_1/functional_1/block_12_expand_1/convolution/merged_input",
          "StatefulPartitionedCall/boundary_detector_1/functional_1/block_12_expand_BN_1/batchnorm/sub"
        ],
        "device": "/device:CPU:0",
        "attr": {
          "num_host_args": { "i": "0" },
          "data_format": { "s": "TkhXQw==" },
          "filter_format": { "s": "SFdJTw==" },
          "fused_ops": { "list": { "s": ["Qmlhc0FkZA==", "UmVsdTY="] } },
          "num_args": { "i": "1" },
          "strides": { "list": { "i": ["1", "1", "1", "1"] } },
          "TArgs": { "list": { "type": ["DT_FLOAT"] } },
          "padding": { "s": "U0FNRQ==" },
          "use_cudnn_on_gpu": { "b": true },
          "leakyrelu_alpha": { "f": 0.2 },
          "epsilon": { "f": 0.0 },
          "T": { "type": "DT_FLOAT" },
          "explicit_paddings": { "list": {} },
          "dilations": { "list": { "i": ["1", "1", "1", "1"] } }
        }
      },
      {
        "name": "StatefulPartitionedCall/boundary_detector_1/functional_1/block_12_depthwise_1/depthwise",
        "op": "DepthwiseConv2dNative",
        "input": [
          "StatefulPartitionedCall/boundary_detector_1/functional_1/block_12_expand_relu_1/Relu6",
          "StatefulPartitionedCall/boundary_detector_1/functional_1/block_12_depthwise_1/depthwise/ReadVariableOp"
        ],
        "attr": {
          "padding": { "s": "U0FNRQ==" },
          "data_format": { "s": "TkhXQw==" },
          "T": { "type": "DT_FLOAT" },
          "explicit_paddings": { "list": {} },
          "dilations": { "list": { "i": ["1", "1", "1", "1"] } },
          "strides": { "list": { "i": ["1", "1", "1", "1"] } }
        }
      },
      {
        "name": "StatefulPartitionedCall/boundary_detector_1/functional_1/block_12_depthwise_BN_1/batchnorm/mul_1",
        "op": "Mul",
        "input": [
          "StatefulPartitionedCall/boundary_detector_1/functional_1/block_12_depthwise_1/depthwise",
          "StatefulPartitionedCall/boundary_detector_1/functional_1/block_12_depthwise_BN_1/batchnorm/mul"
        ],
        "attr": { "T": { "type": "DT_FLOAT" } }
      },
      {
        "name": "StatefulPartitionedCall/boundary_detector_1/functional_1/block_12_depthwise_BN_1/batchnorm/add_1",
        "op": "AddV2",
        "input": [
          "StatefulPartitionedCall/boundary_detector_1/functional_1/block_12_depthwise_BN_1/batchnorm/mul_1",
          "StatefulPartitionedCall/boundary_detector_1/functional_1/block_12_depthwise_BN_1/batchnorm/sub"
        ],
        "attr": { "T": { "type": "DT_FLOAT" } }
      },
      {
        "name": "StatefulPartitionedCall/boundary_detector_1/functional_1/block_12_depthwise_relu_1/Relu6",
        "op": "Relu6",
        "input": [
          "StatefulPartitionedCall/boundary_detector_1/functional_1/block_12_depthwise_BN_1/batchnorm/add_1"
        ],
        "attr": { "T": { "type": "DT_FLOAT" } }
      },
      {
        "name": "StatefulPartitionedCall/boundary_detector_1/functional_1/block_12_project_BN_1/batchnorm/mul_1",
        "op": "Conv2D",
        "input": [
          "StatefulPartitionedCall/boundary_detector_1/functional_1/block_12_depthwise_relu_1/Relu6",
          "StatefulPartitionedCall/boundary_detector_1/functional_1/block_12_project_1/convolution/merged_input"
        ],
        "device": "/device:CPU:0",
        "attr": {
          "padding": { "s": "U0FNRQ==" },
          "data_format": { "s": "TkhXQw==" },
          "strides": { "list": { "i": ["1", "1", "1", "1"] } },
          "use_cudnn_on_gpu": { "b": true },
          "T": { "type": "DT_FLOAT" },
          "explicit_paddings": { "list": {} },
          "dilations": { "list": { "i": ["1", "1", "1", "1"] } }
        }
      },
      {
        "name": "StatefulPartitionedCall/boundary_detector_1/functional_1/block_12_add_1/ArithmeticOptimizer/AddOpsRewrite_Leaf_1_Add",
        "op": "AddN",
        "input": [
          "StatefulPartitionedCall/boundary_detector_1/functional_1/block_11_add_1/ArithmeticOptimizer/AddOpsRewrite_Add",
          "StatefulPartitionedCall/boundary_detector_1/functional_1/block_12_project_BN_1/batchnorm/mul_1"
        ],
        "attr": {
          "N": { "i": "2" },
          "T": { "type": "DT_FLOAT" },
          "_grappler_ArithmeticOptimizer_AddOpsRewriteStage": { "b": true }
        }
      },
      {
        "name": "StatefulPartitionedCall/boundary_detector_1/functional_1/block_12_add_1/ArithmeticOptimizer/AddOpsRewrite_Add",
        "op": "AddV2",
        "input": [
          "StatefulPartitionedCall/boundary_detector_1/functional_1/block_12_project_BN_1/batchnorm/sub",
          "StatefulPartitionedCall/boundary_detector_1/functional_1/block_12_add_1/ArithmeticOptimizer/AddOpsRewrite_Leaf_1_Add"
        ],
        "attr": {
          "T": { "type": "DT_FLOAT" },
          "_grappler_ArithmeticOptimizer_AddOpsRewriteStage": { "b": true }
        }
      },
      {
        "name": "StatefulPartitionedCall/boundary_detector_1/functional_1/block_13_expand_relu_1/Relu6",
        "op": "_FusedConv2D",
        "input": [
          "StatefulPartitionedCall/boundary_detector_1/functional_1/block_12_add_1/ArithmeticOptimizer/AddOpsRewrite_Add",
          "StatefulPartitionedCall/boundary_detector_1/functional_1/block_13_expand_1/convolution/merged_input",
          "StatefulPartitionedCall/boundary_detector_1/functional_1/block_13_expand_BN_1/batchnorm/sub"
        ],
        "device": "/device:CPU:0",
        "attr": {
          "num_host_args": { "i": "0" },
          "data_format": { "s": "TkhXQw==" },
          "filter_format": { "s": "SFdJTw==" },
          "strides": { "list": { "i": ["1", "1", "1", "1"] } },
          "num_args": { "i": "1" },
          "fused_ops": { "list": { "s": ["Qmlhc0FkZA==", "UmVsdTY="] } },
          "TArgs": { "list": { "type": ["DT_FLOAT"] } },
          "padding": { "s": "U0FNRQ==" },
          "use_cudnn_on_gpu": { "b": true },
          "leakyrelu_alpha": { "f": 0.2 },
          "epsilon": { "f": 0.0 },
          "T": { "type": "DT_FLOAT" },
          "explicit_paddings": { "list": {} },
          "dilations": { "list": { "i": ["1", "1", "1", "1"] } }
        }
      },
      {
        "name": "StatefulPartitionedCall/boundary_detector_1/conv2d_1/Relu",
        "op": "_FusedConv2D",
        "input": [
          "StatefulPartitionedCall/boundary_detector_1/functional_1/block_13_expand_relu_1/Relu6",
          "StatefulPartitionedCall/boundary_detector_1/conv2d_1/convolution/ReadVariableOp",
          "StatefulPartitionedCall/boundary_detector_1/conv2d_1/Squeeze"
        ],
        "device": "/device:CPU:0",
        "attr": {
          "num_host_args": { "i": "0" },
          "data_format": { "s": "TkhXQw==" },
          "filter_format": { "s": "SFdJTw==" },
          "fused_ops": { "list": { "s": ["Qmlhc0FkZA==", "UmVsdQ=="] } },
          "num_args": { "i": "1" },
          "strides": { "list": { "i": ["1", "1", "1", "1"] } },
          "TArgs": { "list": { "type": ["DT_FLOAT"] } },
          "padding": { "s": "U0FNRQ==" },
          "use_cudnn_on_gpu": { "b": true },
          "leakyrelu_alpha": { "f": 0.2 },
          "epsilon": { "f": 0.0 },
          "T": { "type": "DT_FLOAT" },
          "explicit_paddings": { "list": {} },
          "dilations": { "list": { "i": ["1", "1", "1", "1"] } }
        }
      },
      {
        "name": "StatefulPartitionedCall/boundary_detector_1/up_sampling2d_1/Repeat/ExpandDims",
        "op": "ExpandDims",
        "input": [
          "StatefulPartitionedCall/boundary_detector_1/conv2d_1/Relu",
          "StatefulPartitionedCall/boundary_detector_1/up_sampling2d_1/Repeat/ExpandDims/dim"
        ],
        "attr": { "Tdim": { "type": "DT_INT32" }, "T": { "type": "DT_FLOAT" } }
      },
      {
        "name": "StatefulPartitionedCall/boundary_detector_1/up_sampling2d_1/Repeat/Shape",
        "op": "Shape",
        "input": ["StatefulPartitionedCall/boundary_detector_1/conv2d_1/Relu"],
        "attr": {
          "T": { "type": "DT_FLOAT" },
          "out_type": { "type": "DT_INT32" }
        },
        "experimentalType": {
          "typeId": "TFT_PRODUCT",
          "args": [
            {
              "typeId": "TFT_SHAPE_TENSOR",
              "args": [{ "typeId": "TFT_INT32" }]
            }
          ]
        }
      },
      {
        "name": "StatefulPartitionedCall/boundary_detector_1/up_sampling2d_1/Repeat/Tile",
        "op": "Tile",
        "input": [
          "StatefulPartitionedCall/boundary_detector_1/up_sampling2d_1/Repeat/ExpandDims",
          "StatefulPartitionedCall/boundary_detector_1/up_sampling2d_1/Repeat/Tile/multiples"
        ],
        "attr": {
          "T": { "type": "DT_FLOAT" },
          "Tmultiples": { "type": "DT_INT32" }
        }
      },
      {
        "name": "StatefulPartitionedCall/boundary_detector_1/up_sampling2d_1/Repeat/strided_slice",
        "op": "StridedSlice",
        "input": [
          "StatefulPartitionedCall/boundary_detector_1/up_sampling2d_1/Repeat/Shape",
          "StatefulPartitionedCall/boundary_detector_1/up_sampling2d_1/Repeat/strided_slice/stack",
          "StatefulPartitionedCall/boundary_detector_1/up_sampling2d_1/Repeat/strided_slice/stack_1",
          "StatefulPartitionedCall/boundary_detector_1/up_sampling2d_1/Repeat/strided_slice/stack_2"
        ],
        "attr": {
          "shrink_axis_mask": { "i": "0" },
          "new_axis_mask": { "i": "0" },
          "Index": { "type": "DT_INT32" },
          "begin_mask": { "i": "1" },
          "end_mask": { "i": "0" },
          "T": { "type": "DT_INT32" },
          "ellipsis_mask": { "i": "0" }
        }
      },
      {
        "name": "StatefulPartitionedCall/boundary_detector_1/up_sampling2d_1/Repeat/strided_slice_1",
        "op": "StridedSlice",
        "input": [
          "StatefulPartitionedCall/boundary_detector_1/up_sampling2d_1/Repeat/Shape",
          "StatefulPartitionedCall/boundary_detector_1/up_sampling2d_1/Repeat/strided_slice_1/stack",
          "StatefulPartitionedCall/boundary_detector_1/up_sampling2d_1/Repeat/strided_slice_1/stack_1",
          "StatefulPartitionedCall/boundary_detector_1/up_sampling2d_1/Repeat/strided_slice_1/stack_2"
        ],
        "attr": {
          "shrink_axis_mask": { "i": "1" },
          "Index": { "type": "DT_INT32" },
          "new_axis_mask": { "i": "0" },
          "begin_mask": { "i": "0" },
          "end_mask": { "i": "0" },
          "T": { "type": "DT_INT32" },
          "ellipsis_mask": { "i": "0" }
        }
      },
      {
        "name": "StatefulPartitionedCall/boundary_detector_1/up_sampling2d_1/Repeat/strided_slice_2",
        "op": "StridedSlice",
        "input": [
          "StatefulPartitionedCall/boundary_detector_1/up_sampling2d_1/Repeat/Shape",
          "StatefulPartitionedCall/boundary_detector_1/up_sampling2d_1/Repeat/strided_slice_2/stack",
          "StatefulPartitionedCall/boundary_detector_1/up_sampling2d_1/Repeat/strided_slice_2/stack_1",
          "StatefulPartitionedCall/boundary_detector_1/up_sampling2d_1/Repeat/strided_slice_2/stack_2"
        ],
        "attr": {
          "shrink_axis_mask": { "i": "0" },
          "Index": { "type": "DT_INT32" },
          "new_axis_mask": { "i": "0" },
          "begin_mask": { "i": "0" },
          "end_mask": { "i": "1" },
          "T": { "type": "DT_INT32" },
          "ellipsis_mask": { "i": "0" }
        }
      },
      {
        "name": "StatefulPartitionedCall/boundary_detector_1/up_sampling2d_1/Repeat/mul",
        "op": "Mul",
        "input": [
          "StatefulPartitionedCall/boundary_detector_1/up_sampling2d_1/Repeat/Reshape",
          "StatefulPartitionedCall/boundary_detector_1/up_sampling2d_1/Repeat/strided_slice_1"
        ],
        "attr": { "T": { "type": "DT_INT32" } }
      },
      {
        "name": "ConstantFolding/StatefulPartitionedCall/boundary_detector_1/up_sampling2d_1/Repeat/concat/values_1_const_axis",
        "op": "Const",
        "input": [
          "^StatefulPartitionedCall/boundary_detector_1/up_sampling2d_1/Repeat/mul"
        ],
        "attr": {
          "value": { "tensor": { "dtype": "DT_INT32", "tensorShape": {} } },
          "dtype": { "type": "DT_INT32" }
        }
      },
      {
        "name": "StatefulPartitionedCall/boundary_detector_1/up_sampling2d_1/Repeat/concat/values_1",
        "op": "ExpandDims",
        "input": [
          "StatefulPartitionedCall/boundary_detector_1/up_sampling2d_1/Repeat/mul",
          "ConstantFolding/StatefulPartitionedCall/boundary_detector_1/up_sampling2d_1/Repeat/concat/values_1_const_axis"
        ],
        "attr": { "Tdim": { "type": "DT_INT32" }, "T": { "type": "DT_INT32" } }
      },
      {
        "name": "StatefulPartitionedCall/boundary_detector_1/up_sampling2d_1/Repeat/concat",
        "op": "ConcatV2",
        "input": [
          "StatefulPartitionedCall/boundary_detector_1/up_sampling2d_1/Repeat/strided_slice",
…
          "StatefulPartitionedCall/boundary_detector_1/up_sampling2d_1_2/Repeat/Shape",
          "StatefulPartitionedCall/boundary_detector_1/up_sampling2d_1_2/Repeat/strided_slice_2/stack",
          "StatefulPartitionedCall/boundary_detector_1/up_sampling2d_1_2/Repeat/strided_slice_2/stack_1",
          "StatefulPartitionedCall/boundary_detector_1/up_sampling2d_1_2/Repeat/strided_slice_2/stack_2"
        ],
        "attr": {
          "shrink_axis_mask": { "i": "0" },
          "Index": { "type": "DT_INT32" },
          "new_axis_mask": { "i": "0" },
          "begin_mask": { "i": "0" },
          "T": { "type": "DT_INT32" },
          "end_mask": { "i": "1" },
          "ellipsis_mask": { "i": "0" }
        }
      },
      {
        "name": "StatefulPartitionedCall/boundary_detector_1/up_sampling2d_1_2/Repeat/mul",
        "op": "Mul",
        "input": [
          "StatefulPartitionedCall/boundary_detector_1/up_sampling2d_1_2/Repeat/Reshape",
          "StatefulPartitionedCall/boundary_detector_1/up_sampling2d_1_2/Repeat/strided_slice_1"
        ],
        "attr": { "T": { "type": "DT_INT32" } }
      },
      {
        "name": "ConstantFolding/StatefulPartitionedCall/boundary_detector_1/up_sampling2d_1_2/Repeat/concat/values_1_const_axis",
        "op": "Const",
        "input": [
          "^StatefulPartitionedCall/boundary_detector_1/up_sampling2d_1_2/Repeat/mul"
        ],
        "attr": {
          "value": { "tensor": { "dtype": "DT_INT32", "tensorShape": {} } },
          "dtype": { "type": "DT_INT32" }
        }
      },
      {
        "name": "StatefulPartitionedCall/boundary_detector_1/up_sampling2d_1_2/Repeat/concat/values_1",
        "op": "ExpandDims",
        "input": [
          "StatefulPartitionedCall/boundary_detector_1/up_sampling2d_1_2/Repeat/mul",
          "ConstantFolding/StatefulPartitionedCall/boundary_detector_1/up_sampling2d_1_2/Repeat/concat/values_1_const_axis"
        ],
        "attr": { "Tdim": { "type": "DT_INT32" }, "T": { "type": "DT_INT32" } }
      },
      {
        "name": "StatefulPartitionedCall/boundary_detector_1/up_sampling2d_1_2/Repeat/concat",
        "op": "ConcatV2",
        "input": [
          "StatefulPartitionedCall/boundary_detector_1/up_sampling2d_1_2/Repeat/strided_slice",
          "StatefulPartitionedCall/boundary_detector_1/up_sampling2d_1_2/Repeat/concat/values_1",
          "StatefulPartitionedCall/boundary_detector_1/up_sampling2d_1_2/Repeat/strided_slice_2",
          "StatefulPartitionedCall/boundary_detector_1/up_sampling2d_1_2/Repeat/concat/axis"
        ],
        "attr": {
          "N": { "i": "3" },
          "T": { "type": "DT_INT32" },
          "Tidx": { "type": "DT_INT32" }
        }
      },
      {
        "name": "StatefulPartitionedCall/boundary_detector_1/up_sampling2d_1_2/Repeat/Reshape_1",
        "op": "Reshape",
        "input": [
          "StatefulPartitionedCall/boundary_detector_1/up_sampling2d_1_2/Repeat/Tile",
          "StatefulPartitionedCall/boundary_detector_1/up_sampling2d_1_2/Repeat/concat"
        ],
        "attr": {
          "T": { "type": "DT_FLOAT" },
          "Tshape": { "type": "DT_INT32" }
        }
      },
      {
        "name": "StatefulPartitionedCall/boundary_detector_1/up_sampling2d_1_2/Repeat_1/ExpandDims",
        "op": "ExpandDims",
        "input": [
          "StatefulPartitionedCall/boundary_detector_1/up_sampling2d_1_2/Repeat/Reshape_1",
          "StatefulPartitionedCall/boundary_detector_1/up_sampling2d_1_2/Repeat_1/ExpandDims/dim"
        ],
        "attr": { "Tdim": { "type": "DT_INT32" }, "T": { "type": "DT_FLOAT" } }
      },
      {
        "name": "StatefulPartitionedCall/boundary_detector_1/up_sampling2d_1_2/Repeat_1/Shape",
        "op": "Shape",
        "input": [
          "StatefulPartitionedCall/boundary_detector_1/up_sampling2d_1_2/Repeat/Reshape_1"
        ],
        "attr": {
          "T": { "type": "DT_FLOAT" },
          "out_type": { "type": "DT_INT32" }
        },
        "experimentalType": {
          "typeId": "TFT_PRODUCT",
          "args": [
            {
              "typeId": "TFT_SHAPE_TENSOR",
              "args": [{ "typeId": "TFT_INT32" }]
            }
          ]
        }
      },
      {
        "name": "StatefulPartitionedCall/boundary_detector_1/up_sampling2d_1_2/Repeat_1/Tile",
        "op": "Tile",
        "input": [
          "StatefulPartitionedCall/boundary_detector_1/up_sampling2d_1_2/Repeat_1/ExpandDims",
          "StatefulPartitionedCall/boundary_detector_1/up_sampling2d_1_2/Repeat_1/Tile/multiples"
        ],
        "attr": {
          "T": { "type": "DT_FLOAT" },
          "Tmultiples": { "type": "DT_INT32" }
        }
      },
      {
        "name": "StatefulPartitionedCall/boundary_detector_1/up_sampling2d_1_2/Repeat_1/strided_slice",
        "op": "StridedSlice",
        "input": [
          "StatefulPartitionedCall/boundary_detector_1/up_sampling2d_1_2/Repeat_1/Shape",
          "StatefulPartitionedCall/boundary_detector_1/up_sampling2d_1_2/Repeat_1/strided_slice/stack",
          "StatefulPartitionedCall/boundary_detector_1/up_sampling2d_1_2/Repeat_1/strided_slice/stack_1",
          "StatefulPartitionedCall/boundary_detector_1/up_sampling2d_1_2/Repeat_1/strided_slice/stack_2"
        ],
        "attr": {
          "shrink_axis_mask": { "i": "0" },
          "Index": { "type": "DT_INT32" },
          "new_axis_mask": { "i": "0" },
          "begin_mask": { "i": "1" },
          "T": { "type": "DT_INT32" },
          "end_mask": { "i": "0" },
          "ellipsis_mask": { "i": "0" }
        }
      },
      {
        "name": "StatefulPartitionedCall/boundary_detector_1/up_sampling2d_1_2/Repeat_1/strided_slice_1",
        "op": "StridedSlice",
        "input": [
          "StatefulPartitionedCall/boundary_detector_1/up_sampling2d_1_2/Repeat_1/Shape",
          "StatefulPartitionedCall/boundary_detector_1/up_sampling2d_1_2/Repeat_1/strided_slice_1/stack",
          "StatefulPartitionedCall/boundary_detector_1/up_sampling2d_1_2/Repeat_1/strided_slice_1/stack_1",
          "StatefulPartitionedCall/boundary_detector_1/up_sampling2d_1_2/Repeat_1/strided_slice_1/stack_2"
        ],
        "attr": {
          "shrink_axis_mask": { "i": "1" },
          "new_axis_mask": { "i": "0" },
          "Index": { "type": "DT_INT32" },
          "begin_mask": { "i": "0" },
          "end_mask": { "i": "0" },
          "T": { "type": "DT_INT32" },
          "ellipsis_mask": { "i": "0" }
        }
      },
      {
        "name": "StatefulPartitionedCall/boundary_detector_1/up_sampling2d_1_2/Repeat_1/strided_slice_2",
        "op": "StridedSlice",
        "input": [
          "StatefulPartitionedCall/boundary_detector_1/up_sampling2d_1_2/Repeat_1/Shape",
          "StatefulPartitionedCall/boundary_detector_1/up_sampling2d_1_2/Repeat_1/strided_slice_2/stack",
          "StatefulPartitionedCall/boundary_detector_1/up_sampling2d_1_2/Repeat_1/strided_slice_2/stack_1",
          "StatefulPartitionedCall/boundary_detector_1/up_sampling2d_1_2/Repeat_1/strided_slice_2/stack_2"
        ],
        "attr": {
          "shrink_axis_mask": { "i": "0" },
          "new_axis_mask": { "i": "0" },
          "Index": { "type": "DT_INT32" },
          "begin_mask": { "i": "0" },
          "end_mask": { "i": "1" },
          "T": { "type": "DT_INT32" },
          "ellipsis_mask": { "i": "0" }
        }
      },
      {
        "name": "StatefulPartitionedCall/boundary_detector_1/up_sampling2d_1_2/Repeat_1/mul",
        "op": "Mul",
        "input": [
          "StatefulPartitionedCall/boundary_detector_1/up_sampling2d_1_2/Repeat_1/Reshape",
          "StatefulPartitionedCall/boundary_detector_1/up_sampling2d_1_2/Repeat_1/strided_slice_1"
        ],
        "attr": { "T": { "type": "DT_INT32" } }
      },
      {
        "name": "ConstantFolding/StatefulPartitionedCall/boundary_detector_1/up_sampling2d_1_2/Repeat_1/concat/values_1_const_axis",
        "op": "Const",
        "input": [
          "^StatefulPartitionedCall/boundary_detector_1/up_sampling2d_1_2/Repeat_1/mul"
        ],
        "attr": {
          "value": { "tensor": { "dtype": "DT_INT32", "tensorShape": {} } },
          "dtype": { "type": "DT_INT32" }
        }
      },
      {
        "name": "StatefulPartitionedCall/boundary_detector_1/up_sampling2d_1_2/Repeat_1/concat/values_1",
        "op": "ExpandDims",
        "input": [
          "StatefulPartitionedCall/boundary_detector_1/up_sampling2d_1_2/Repeat_1/mul",
          "ConstantFolding/StatefulPartitionedCall/boundary_detector_1/up_sampling2d_1_2/Repeat_1/concat/values_1_const_axis"
        ],
        "attr": { "Tdim": { "type": "DT_INT32" }, "T": { "type": "DT_INT32" } }
      },
      {
        "name": "StatefulPartitionedCall/boundary_detector_1/up_sampling2d_1_2/Repeat_1/concat",
        "op": "ConcatV2",
        "input": [
          "StatefulPartitionedCall/boundary_detector_1/up_sampling2d_1_2/Repeat_1/strided_slice",
          "StatefulPartitionedCall/boundary_detector_1/up_sampling2d_1_2/Repeat_1/concat/values_1",
          "StatefulPartitionedCall/boundary_detector_1/up_sampling2d_1_2/Repeat_1/strided_slice_2",
          "StatefulPartitionedCall/boundary_detector_1/up_sampling2d_1_2/Repeat_1/concat/axis"
        ],
        "attr": {
          "N": { "i": "3" },
          "T": { "type": "DT_INT32" },
          "Tidx": { "type": "DT_INT32" }
        }
      },
      {
        "name": "StatefulPartitionedCall/boundary_detector_1/up_sampling2d_1_2/Repeat_1/Reshape_1",
        "op": "Reshape",
        "input": [
          "StatefulPartitionedCall/boundary_detector_1/up_sampling2d_1_2/Repeat_1/Tile",
          "StatefulPartitionedCall/boundary_detector_1/up_sampling2d_1_2/Repeat_1/concat"
        ],
        "attr": {
          "T": { "type": "DT_FLOAT" },
          "Tshape": { "type": "DT_INT32" }
        }
      },
      {
        "name": "StatefulPartitionedCall/boundary_detector_1/add_1_2/Add",
        "op": "AddV2",
        "input": [
          "StatefulPartitionedCall/boundary_detector_1/conv2d_3_1/Relu",
          "StatefulPartitionedCall/boundary_detector_1/up_sampling2d_1_2/Repeat_1/Reshape_1"
        ],
        "attr": { "T": { "type": "DT_FLOAT" } }
      },
      {
        "name": "StatefulPartitionedCall/boundary_detector_1/conv2d_4_1/Relu",
        "op": "_FusedConv2D",
        "input": [
          "StatefulPartitionedCall/boundary_detector_1/add_1_2/Add",
          "StatefulPartitionedCall/boundary_detector_1/conv2d_4_1/convolution/ReadVariableOp",
          "StatefulPartitionedCall/boundary_detector_1/conv2d_4_1/Squeeze"
        ],
        "device": "/device:CPU:0",
        "attr": {
          "num_host_args": { "i": "0" },
          "data_format": { "s": "TkhXQw==" },
          "filter_format": { "s": "SFdJTw==" },
          "fused_ops": { "list": { "s": ["Qmlhc0FkZA==", "UmVsdQ=="] } },
          "num_args": { "i": "1" },
          "strides": { "list": { "i": ["1", "1", "1", "1"] } },
          "TArgs": { "list": { "type": ["DT_FLOAT"] } },
          "padding": { "s": "U0FNRQ==" },
          "use_cudnn_on_gpu": { "b": true },
          "leakyrelu_alpha": { "f": 0.2 },
          "epsilon": { "f": 0.0 },
          "T": { "type": "DT_FLOAT" },
          "explicit_paddings": { "list": {} },
          "dilations": { "list": { "i": ["1", "1", "1", "1"] } }
        }
      },
      {
        "name": "StatefulPartitionedCall/boundary_detector_1/conv2d_5_1/Relu",
        "op": "_FusedConv2D",
        "input": [
          "StatefulPartitionedCall/boundary_detector_1/conv2d_4_1/Relu",
          "StatefulPartitionedCall/boundary_detector_1/conv2d_5_1/convolution/ReadVariableOp",
          "StatefulPartitionedCall/boundary_detector_1/conv2d_5_1/Squeeze"
        ],
        "device": "/device:CPU:0",
        "attr": {
          "num_host_args": { "i": "0" },
          "data_format": { "s": "TkhXQw==" },
          "filter_format": { "s": "SFdJTw==" },
          "strides": { "list": { "i": ["1", "1", "1", "1"] } },
          "num_args": { "i": "1" },
          "fused_ops": { "list": { "s": ["Qmlhc0FkZA==", "UmVsdQ=="] } },
          "TArgs": { "list": { "type": ["DT_FLOAT"] } },
          "padding": { "s": "U0FNRQ==" },
          "use_cudnn_on_gpu": { "b": true },
          "leakyrelu_alpha": { "f": 0.2 },
          "epsilon": { "f": 0.0 },
          "T": { "type": "DT_FLOAT" },
          "explicit_paddings": { "list": {} },
          "dilations": { "list": { "i": ["1", "1", "1", "1"] } }
        }
      },
      {
        "name": "StatefulPartitionedCall/boundary_detector_1/batch_normalization_1/batchnorm/mul_1",
        "op": "Mul",
        "input": [
          "StatefulPartitionedCall/boundary_detector_1/conv2d_5_1/Relu",
          "StatefulPartitionedCall/boundary_detector_1/batch_normalization_1/batchnorm/mul"
        ],
        "attr": { "T": { "type": "DT_FLOAT" } }
      },
      {
        "name": "StatefulPartitionedCall/boundary_detector_1/batch_normalization_1/batchnorm/add_1",
        "op": "AddV2",
        "input": [
          "StatefulPartitionedCall/boundary_detector_1/batch_normalization_1/batchnorm/mul_1",
          "StatefulPartitionedCall/boundary_detector_1/batch_normalization_1/batchnorm/sub"
        ],
        "attr": { "T": { "type": "DT_FLOAT" } }
      },
      {
        "name": "StatefulPartitionedCall/boundary_detector_1/conv2d_6_1/Relu",
        "op": "_FusedConv2D",
        "input": [
          "StatefulPartitionedCall/boundary_detector_1/batch_normalization_1/batchnorm/add_1",
          "StatefulPartitionedCall/boundary_detector_1/conv2d_6_1/convolution/ReadVariableOp",
          "StatefulPartitionedCall/boundary_detector_1/conv2d_6_1/Squeeze"
        ],
        "device": "/device:CPU:0",
        "attr": {
          "num_host_args": { "i": "0" },
          "data_format": { "s": "TkhXQw==" },
          "filter_format": { "s": "SFdJTw==" },
          "strides": { "list": { "i": ["1", "1", "1", "1"] } },
          "num_args": { "i": "1" },
          "fused_ops": { "list": { "s": ["Qmlhc0FkZA==", "UmVsdQ=="] } },
          "TArgs": { "list": { "type": ["DT_FLOAT"] } },
          "padding": { "s": "U0FNRQ==" },
          "use_cudnn_on_gpu": { "b": true },
          "leakyrelu_alpha": { "f": 0.2 },
          "epsilon": { "f": 0.0 },
          "T": { "type": "DT_FLOAT" },
          "explicit_paddings": { "list": {} },
          "dilations": { "list": { "i": ["1", "1", "1", "1"] } }
        }
      },
      {
        "name": "StatefulPartitionedCall/boundary_detector_1/batch_normalization_1_2/batchnorm/mul_1",
        "op": "Mul",
        "input": [
          "StatefulPartitionedCall/boundary_detector_1/conv2d_6_1/Relu",
          "StatefulPartitionedCall/boundary_detector_1/batch_normalization_1_2/batchnorm/mul"
        ],
        "attr": { "T": { "type": "DT_FLOAT" } }
      },
      {
        "name": "StatefulPartitionedCall/boundary_detector_1/batch_normalization_1_2/batchnorm/add_1",
        "op": "AddV2",
        "input": [
          "StatefulPartitionedCall/boundary_detector_1/batch_normalization_1_2/batchnorm/mul_1",
          "StatefulPartitionedCall/boundary_detector_1/batch_normalization_1_2/batchnorm/sub"
        ],
        "attr": { "T": { "type": "DT_FLOAT" } }
      },
      {
        "name": "StatefulPartitionedCall/boundary_detector_1/heatmaps_1/BiasAdd",
        "op": "_FusedConv2D",
        "input": [
          "StatefulPartitionedCall/boundary_detector_1/batch_normalization_1_2/batchnorm/add_1",
          "StatefulPartitionedCall/boundary_detector_1/heatmaps_1/convolution/ReadVariableOp",
          "StatefulPartitionedCall/boundary_detector_1/heatmaps_1/Squeeze"
        ],
        "device": "/device:CPU:0",
        "attr": {
          "num_host_args": { "i": "0" },
          "data_format": { "s": "TkhXQw==" },
          "filter_format": { "s": "SFdJTw==" },
          "strides": { "list": { "i": ["1", "1", "1", "1"] } },
          "num_args": { "i": "1" },
          "fused_ops": { "list": { "s": ["Qmlhc0FkZA=="] } },
          "TArgs": { "list": { "type": ["DT_FLOAT"] } },
          "padding": { "s": "U0FNRQ==" },
          "use_cudnn_on_gpu": { "b": true },
          "leakyrelu_alpha": { "f": 0.2 },
          "epsilon": { "f": 0.0 },
          "T": { "type": "DT_FLOAT" },
          "explicit_paddings": { "list": {} },
          "dilations": { "list": { "i": ["1", "1", "1", "1"] } }
        }
      },
      {
        "name": "StatefulPartitionedCall/boundary_detector_1/heatmaps_1/Sigmoid",
        "op": "Sigmoid",
        "input": [
          "StatefulPartitionedCall/boundary_detector_1/heatmaps_1/BiasAdd"
        ],
        "attr": { "T": { "type": "DT_FLOAT" } }
      },
      {
        "name": "Identity",
        "op": "Identity",
        "input": [
          "StatefulPartitionedCall/boundary_detector_1/heatmaps_1/Sigmoid"
        ],
        "attr": { "T": { "type": "DT_FLOAT" } }
      }
    ],
    "library": {},
    "versions": { "producer": 2129 }
  },
  "weightsManifest": [
    {
      "paths": ["group1-shard1of2.bin", "group1-shard2of2.bin"],
      "weights": [
        {
          "name": "StatefulPartitionedCall/boundary_detector_1/conv2d_3_1/convolution/ReadVariableOp",
          "shape": [1, 1, 144, 128],
          "dtype": "float32"
        },
        {
          "name": "StatefulPartitionedCall/boundary_detector_1/conv2d_3_1/Squeeze",
          "shape": [128],
          "dtype": "float32"
        },
        {
          "name": "StatefulPartitionedCall/boundary_detector_1/up_sampling2d_1_2/Repeat_1/ExpandDims/dim",
          "shape": [],
          "dtype": "int32"
        },
        {
          "name": "StatefulPartitionedCall/boundary_detector_1/up_sampling2d_1_2/Repeat_1/Tile/multiples",
          "shape": [5],
          "dtype": "int32"
        },
        {
          "name": "StatefulPartitionedCall/boundary_detector_1/up_sampling2d_1_2/Repeat_1/strided_slice/stack",
          "shape": [1],
          "dtype": "int32"
        },
        {
          "name": "StatefulPartitionedCall/boundary_detector_1/up_sampling2d_1_2/Repeat_1/strided_slice/stack_1",
          "shape": [1],
          "dtype": "int32"
        },
        {
          "name": "StatefulPartitionedCall/boundary_detector_1/up_sampling2d_1_2/Repeat_1/strided_slice/stack_2",
          "shape": [1],
          "dtype": "int32"
        },
        {
          "name": "StatefulPartitionedCall/boundary_detector_1/up_sampling2d_1_2/Repeat_1/Reshape",
          "shape": [],
          "dtype": "int32"
        },
        {
          "name": "StatefulPartitionedCall/boundary_detector_1/up_sampling2d_1_2/Repeat_1/strided_slice_1/stack",
          "shape": [1],
          "dtype": "int32"
        },
        {
          "name": "StatefulPartitionedCall/boundary_detector_1/up_sampling2d_1_2/Repeat_1/strided_slice_1/stack_1",
          "shape": [1],
          "dtype": "int32"
        },
        {
          "name": "StatefulPartitionedCall/boundary_detector_1/up_sampling2d_1_2/Repeat_1/strided_slice_1/stack_2",
          "shape": [1],
          "dtype": "int32"
        },
        {
          "name": "StatefulPartitionedCall/boundary_detector_1/up_sampling2d_1_2/Repeat/ExpandDims/dim",
          "shape": [],
          "dtype": "int32"
        },
        {
          "name": "StatefulPartitionedCall/boundary_detector_1/up_sampling2d_1_2/Repeat/Tile/multiples",
          "shape": [5],
          "dtype": "int32"
        },
        {
          "name": "StatefulPartitionedCall/boundary_detector_1/up_sampling2d_1_2/Repeat/strided_slice/stack",
          "shape": [1],
          "dtype": "int32"
        },
        {
          "name": "StatefulPartitionedCall/boundary_detector_1/up_sampling2d_1_2/Repeat/strided_slice/stack_1",
          "shape": [1],
          "dtype": "int32"
        },
        {
          "name": "StatefulPartitionedCall/boundary_detector_1/up_sampling2d_1_2/Repeat/strided_slice/stack_2",
          "shape": [1],
          "dtype": "int32"
        },
        {
          "name": "StatefulPartitionedCall/boundary_detector_1/up_sampling2d_1_2/Repeat/Reshape",
          "shape": [],
          "dtype": "int32"
        },
        {
          "name": "StatefulPartitionedCall/boundary_detector_1/up_sampling2d_1_2/Repeat/strided_slice_1/stack",
          "shape": [1],
          "dtype": "int32"
        },
        {
          "name": "StatefulPartitionedCall/boundary_detector_1/up_sampling2d_1_2/Repeat/strided_slice_1/stack_1",
          "shape": [1],
          "dtype": "int32"
        },
        {
          "name": "StatefulPartitionedCall/boundary_detector_1/up_sampling2d_1_2/Repeat/strided_slice_1/stack_2",
          "shape": [1],
          "dtype": "int32"
        },
        {
          "name": "StatefulPartitionedCall/boundary_detector_1/conv2d_1_2/convolution/ReadVariableOp",
          "shape": [1, 1, 192, 128],
          "dtype": "float32"
        },
        {
          "name": "StatefulPartitionedCall/boundary_detector_1/conv2d_1_2/Squeeze",
          "shape": [128],
          "dtype": "float32"
        },
        {
          "name": "StatefulPartitionedCall/boundary_detector_1/up_sampling2d_1/Repeat_1/ExpandDims/dim",
          "shape": [],
          "dtype": "int32"
        },
        {
          "name": "StatefulPartitionedCall/boundary_detector_1/up_sampling2d_1/Repeat_1/Tile/multiples",
          "shape": [5],
          "dtype": "int32"
        },
        {
          "name": "StatefulPartitionedCall/boundary_detector_1/up_sampling2d_1/Repeat_1/strided_slice/stack",
          "shape": [1],
          "dtype": "int32"
        },
        {
          "name": "StatefulPartitionedCall/boundary_detector_1/up_sampling2d_1/Repeat_1/strided_slice/stack_1",
          "shape": [1],
          "dtype": "int32"
        },
        {
          "name": "StatefulPartitionedCall/boundary_detector_1/up_sampling2d_1/Repeat_1/strided_slice/stack_2",
          "shape": [1],
          "dtype": "int32"
        },
        {
          "name": "StatefulPartitionedCall/boundary_detector_1/up_sampling2d_1/Repeat_1/Reshape",
          "shape": [],
          "dtype": "int32"
        },
        {
          "name": "StatefulPartitionedCall/boundary_detector_1/up_sampling2d_1/Repeat_1/strided_slice_1/stack",
          "shape": [1],
          "dtype": "int32"
        },
        {
          "name": "StatefulPartitionedCall/boundary_detector_1/up_sampling2d_1/Repeat_1/strided_slice_1/stack_1",
          "shape": [1],
          "dtype": "int32"
        },
        {
          "name": "StatefulPartitionedCall/boundary_detector_1/up_sampling2d_1/Repeat_1/strided_slice_1/stack_2",
          "shape": [1],
          "dtype": "int32"
        },
        {
          "name": "StatefulPartitionedCall/boundary_detector_1/up_sampling2d_1/Repeat/ExpandDims/dim",
          "shape": [],
          "dtype": "int32"
        },
        {
          "name": "StatefulPartitionedCall/boundary_detector_1/up_sampling2d_1/Repeat/Tile/multiples",
          "shape": [5],
          "dtype": "int32"
        },
        {
          "name": "StatefulPartitionedCall/boundary_detector_1/up_sampling2d_1/Repeat/strided_slice/stack",
          "shape": [1],
          "dtype": "int32"
        },
        {
          "name": "StatefulPartitionedCall/boundary_detector_1/up_sampling2d_1/Repeat/strided_slice/stack_1",
          "shape": [1],
          "dtype": "int32"
        },
        {
          "name": "StatefulPartitionedCall/boundary_detector_1/up_sampling2d_1/Repeat/strided_slice/stack_2",
          "shape": [1],
          "dtype": "int32"
        },
        {
          "name": "StatefulPartitionedCall/boundary_detector_1/up_sampling2d_1/Repeat/Reshape",
          "shape": [],
          "dtype": "int32"
        },
        {
          "name": "StatefulPartitionedCall/boundary_detector_1/up_sampling2d_1/Repeat/strided_slice_1/stack",
          "shape": [1],
          "dtype": "int32"
        },
        {
          "name": "StatefulPartitionedCall/boundary_detector_1/up_sampling2d_1/Repeat/strided_slice_1/stack_1",
          "shape": [1],
          "dtype": "int32"
        },
        {
          "name": "StatefulPartitionedCall/boundary_detector_1/up_sampling2d_1/Repeat/strided_slice_1/stack_2",
          "shape": [1],
          "dtype": "int32"
        },
        {
          "name": "StatefulPartitionedCall/boundary_detector_1/functional_1/block_12_project_BN_1/batchnorm/sub",
          "shape": [96],
          "dtype": "float32"
        },
        {
          "name": "StatefulPartitionedCall/boundary_detector_1/functional_1/block_11_project_BN_1/batchnorm/sub",
          "shape": [96],
          "dtype": "float32"
        },
        {
          "name": "StatefulPartitionedCall/boundary_detector_1/functional_1/block_9_project_BN_1/batchnorm/sub",
          "shape": [64],
          "dtype": "float32"
        },
        {
          "name": "StatefulPartitionedCall/boundary_detector_1/functional_1/block_8_project_BN_1/batchnorm/sub",
          "shape": [64],
          "dtype": "float32"
        },
        {
          "name": "StatefulPartitionedCall/boundary_detector_1/functional_1/block_7_project_BN_1/batchnorm/sub",
          "shape": [64],
          "dtype": "float32"
        },
        {
          "name": "StatefulPartitionedCall/boundary_detector_1/functional_1/block_5_project_BN_1/batchnorm/sub",
          "shape": [32],
          "dtype": "float32"
        },
        {
          "name": "StatefulPartitionedCall/boundary_detector_1/functional_1/block_4_project_BN_1/batchnorm/sub",
          "shape": [32],
          "dtype": "float32"
        },
        {
          "name": "StatefulPartitionedCall/boundary_detector_1/functional_1/block_2_project_BN_1/batchnorm/sub",
          "shape": [24],
          "dtype": "float32"
        },
        {
          "name": "StatefulPartitionedCall/boundary_detector_1/rescaling_1/Cast/x",
          "shape": [],
          "dtype": "float32"
        },
        {
          "name": "StatefulPartitionedCall/boundary_detector_1/rescaling_1/Cast_1/x",
          "shape": [],
          "dtype": "float32"
        },
        {
          "name": "StatefulPartitionedCall/boundary_detector_1/functional_1/Conv1_1/convolution/merged_input",
          "shape": [3, 3, 3, 32],
          "dtype": "float32"
        },
        {
          "name": "StatefulPartitionedCall/boundary_detector_1/functional_1/bn_Conv1_1/batchnorm/sub",
          "shape": [32],
          "dtype": "float32"
        },
        {
          "name": "StatefulPartitionedCall/boundary_detector_1/functional_1/expanded_conv_depthwise_1/depthwise/ReadVariableOp",
          "shape": [3, 3, 32, 1],
          "dtype": "float32"
        },
        {
          "name": "StatefulPartitionedCall/boundary_detector_1/functional_1/expanded_conv_depthwise_BN_1/batchnorm/mul",
          "shape": [32],
          "dtype": "float32"
        },
        {
          "name": "StatefulPartitionedCall/boundary_detector_1/functional_1/expanded_conv_depthwise_BN_1/batchnorm/sub",
          "shape": [32],
          "dtype": "float32"
        },
        {
          "name": "StatefulPartitionedCall/boundary_detector_1/functional_1/expanded_conv_project_1/convolution/merged_input",
          "shape": [1, 1, 32, 16],
          "dtype": "float32"
        },
        {
          "name": "StatefulPartitionedCall/boundary_detector_1/functional_1/expanded_conv_project_BN_1/batchnorm/sub",
          "shape": [16],
          "dtype": "float32"
        },
        {
          "name": "StatefulPartitionedCall/boundary_detector_1/functional_1/block_1_expand_1/convolution/merged_input",
          "shape": [1, 1, 16, 96],
          "dtype": "float32"
        },
        {
          "name": "StatefulPartitionedCall/boundary_detector_1/functional_1/block_1_expand_BN_1/batchnorm/sub",
          "shape": [96],
          "dtype": "float32"
        },
        {
          "name": "StatefulPartitionedCall/boundary_detector_1/functional_1/block_1_pad_1/Const",
          "shape": [4, 2],
          "dtype": "int32"
        },
        {
          "name": "StatefulPartitionedCall/boundary_detector_1/functional_1/block_1_depthwise_1/depthwise/ReadVariableOp",
          "shape": [3, 3, 96, 1],
          "dtype": "float32"
        },
        {
          "name": "StatefulPartitionedCall/boundary_detector_1/functional_1/block_1_depthwise_BN_1/batchnorm/mul",
          "shape": [96],
          "dtype": "float32"
        },
        {
          "name": "StatefulPartitionedCall/boundary_detector_1/functional_1/block_1_depthwise_BN_1/batchnorm/sub",
          "shape": [96],
          "dtype": "float32"
        },
        {
          "name": "StatefulPartitionedCall/boundary_detector_1/functional_1/block_1_project_1/convolution/merged_input",
          "shape": [1, 1, 96, 24],
          "dtype": "float32"
        },
        {
          "name": "StatefulPartitionedCall/boundary_detector_1/functional_1/block_1_project_BN_1/batchnorm/sub",
          "shape": [24],
          "dtype": "float32"
        },
        {
          "name": "StatefulPartitionedCall/boundary_detector_1/functional_1/block_2_expand_1/convolution/merged_input",
          "shape": [1, 1, 24, 144],
          "dtype": "float32"
        },
        {
          "name": "StatefulPartitionedCall/boundary_detector_1/functional_1/block_2_expand_BN_1/batchnorm/sub",
          "shape": [144],
          "dtype": "float32"
        },
        {
          "name": "StatefulPartitionedCall/boundary_detector_1/functional_1/block_2_depthwise_1/depthwise/ReadVariableOp",
          "shape": [3, 3, 144, 1],
          "dtype": "float32"
        },
        {
          "name": "StatefulPartitionedCall/boundary_detector_1/functional_1/block_2_depthwise_BN_1/batchnorm/mul",
          "shape": [144],
          "dtype": "float32"
        },
        {
          "name": "StatefulPartitionedCall/boundary_detector_1/functional_1/block_2_depthwise_BN_1/batchnorm/sub",
          "shape": [144],
          "dtype": "float32"
        },
        {
          "name": "StatefulPartitionedCall/boundary_detector_1/functional_1/block_2_project_1/convolution/merged_input",
          "shape": [1, 1, 144, 24],
          "dtype": "float32"
        },
        {
          "name": "StatefulPartitionedCall/boundary_detector_1/functional_1/block_3_expand_1/convolution/merged_input",
          "shape": [1, 1, 24, 144],
          "dtype": "float32"
        },
        {
          "name": "StatefulPartitionedCall/boundary_detector_1/functional_1/block_3_expand_BN_1/batchnorm/sub",
          "shape": [144],
          "dtype": "float32"
        },
        {
          "name": "StatefulPartitionedCall/boundary_detector_1/functional_1/block_3_pad_1/Const",
          "shape": [4, 2],
          "dtype": "int32"
        },
        {
          "name": "StatefulPartitionedCall/boundary_detector_1/functional_1/block_3_depthwise_1/depthwise/ReadVariableOp",
          "shape": [3, 3, 144, 1],
          "dtype": "float32"
        },
        {
          "name": "StatefulPartitionedCall/boundary_detector_1/functional_1/block_3_depthwise_BN_1/batchnorm/mul",
          "shape": [144],
          "dtype": "float32"
        },
        {
          "name": "StatefulPartitionedCall/boundary_detector_1/functional_1/block_3_depthwise_BN_1/batchnorm/sub",
          "shape": [144],
          "dtype": "float32"
        },
        {
          "name": "StatefulPartitionedCall/boundary_detector_1/functional_1/block_3_project_1/convolution/merged_input",
          "shape": [1, 1, 144, 32],
          "dtype": "float32"
        },
        {
          "name": "StatefulPartitionedCall/boundary_detector_1/functional_1/block_3_project_BN_1/batchnorm/sub",
          "shape": [32],
          "dtype": "float32"
        },
        {
          "name": "StatefulPartitionedCall/boundary_detector_1/functional_1/block_4_expand_1/convolution/merged_input",
          "shape": [1, 1, 32, 192],
          "dtype": "float32"
        },
        {
          "name": "StatefulPartitionedCall/boundary_detector_1/functional_1/block_4_expand_BN_1/batchnorm/sub",
          "shape": [192],
          "dtype": "float32"
        },
        {
          "name": "StatefulPartitionedCall/boundary_detector_1/functional_1/block_4_depthwise_1/depthwise/ReadVariableOp",
          "shape": [3, 3, 192, 1],
          "dtype": "float32"
        },
        {
          "name": "StatefulPartitionedCall/boundary_detector_1/functional_1/block_4_depthwise_BN_1/batchnorm/mul",
          "shape": [192],
          "dtype": "float32"
        },
        {
          "name": "StatefulPartitionedCall/boundary_detector_1/functional_1/block_4_depthwise_BN_1/batchnorm/sub",
          "shape": [192],
          "dtype": "float32"
        },
        {
          "name": "StatefulPartitionedCall/boundary_detector_1/functional_1/block_4_project_1/convolution/merged_input",
          "shape": [1, 1, 192, 32],
          "dtype": "float32"
        },
        {
          "name": "StatefulPartitionedCall/boundary_detector_1/functional_1/block_5_expand_1/convolution/merged_input",
          "shape": [1, 1, 32, 192],
          "dtype": "float32"
        },
        {
          "name": "StatefulPartitionedCall/boundary_detector_1/functional_1/block_5_expand_BN_1/batchnorm/sub",
          "shape": [192],
          "dtype": "float32"
        },
        {
          "name": "StatefulPartitionedCall/boundary_detector_1/functional_1/block_5_depthwise_1/depthwise/ReadVariableOp",
          "shape": [3, 3, 192, 1],
          "dtype": "float32"
        },
        {
          "name": "StatefulPartitionedCall/boundary_detector_1/functional_1/block_5_depthwise_BN_1/batchnorm/mul",
          "shape": [192],
          "dtype": "float32"
        },
        {
          "name": "StatefulPartitionedCall/boundary_detector_1/functional_1/block_5_depthwise_BN_1/batchnorm/sub",
          "shape": [192],
          "dtype": "float32"
        },
        {
          "name": "StatefulPartitionedCall/boundary_detector_1/functional_1/block_5_project_1/convolution/merged_input",
          "shape": [1, 1, 192, 32],
          "dtype": "float32"
        },
        {
          "name": "StatefulPartitionedCall/boundary_detector_1/functional_1/block_6_expand_1/convolution/merged_input",
          "shape": [1, 1, 32, 192],
          "dtype": "float32"
        },
        {
          "name": "StatefulPartitionedCall/boundary_detector_1/functional_1/block_6_expand_BN_1/batchnorm/sub",
          "shape": [192],
          "dtype": "float32"
        },
        {
          "name": "StatefulPartitionedCall/boundary_detector_1/functional_1/block_6_pad_1/Const",
          "shape": [4, 2],
          "dtype": "int32"
        },
        {
          "name": "StatefulPartitionedCall/boundary_detector_1/functional_1/block_6_depthwise_1/depthwise/ReadVariableOp",
          "shape": [3, 3, 192, 1],
          "dtype": "float32"
        },
        {
          "name": "StatefulPartitionedCall/boundary_detector_1/functional_1/block_6_depthwise_BN_1/batchnorm/mul",
          "shape": [192],
          "dtype": "float32"
        },
        {
          "name": "StatefulPartitionedCall/boundary_detector_1/functional_1/block_6_depthwise_BN_1/batchnorm/sub",
          "shape": [192],
          "dtype": "float32"
        },
        {
          "name": "StatefulPartitionedCall/boundary_detector_1/functional_1/block_6_project_1/convolution/merged_input",
          "shape": [1, 1, 192, 64],
          "dtype": "float32"
        },
        {
          "name": "StatefulPartitionedCall/boundary_detector_1/functional_1/block_6_project_BN_1/batchnorm/sub",
          "shape": [64],
          "dtype": "float32"
        },
        {
          "name": "StatefulPartitionedCall/boundary_detector_1/functional_1/block_7_expand_1/convolution/merged_input",
          "shape": [1, 1, 64, 384],
          "dtype": "float32"
        },
        {
          "name": "StatefulPartitionedCall/boundary_detector_1/functional_1/block_7_expand_BN_1/batchnorm/sub",
          "shape": [384],
          "dtype": "float32"
        },
        {
          "name": "StatefulPartitionedCall/boundary_detector_1/functional_1/block_7_depthwise_1/depthwise/ReadVariableOp",
          "shape": [3, 3, 384, 1],
          "dtype": "float32"
        },
        {
          "name": "StatefulPartitionedCall/boundary_detector_1/functional_1/block_7_depthwise_BN_1/batchnorm/mul",
          "shape": [384],
          "dtype": "float32"
        },
        {
          "name": "StatefulPartitionedCall/boundary_detector_1/functional_1/block_7_depthwise_BN_1/batchnorm/sub",
          "shape": [384],
          "dtype": "float32"
        },
        {
          "name": "StatefulPartitionedCall/boundary_detector_1/functional_1/block_7_project_1/convolution/merged_input",
          "shape": [1, 1, 384, 64],
          "dtype": "float32"
        },
        {
          "name": "StatefulPartitionedCall/boundary_detector_1/functional_1/block_8_expand_1/convolution/merged_input",
          "shape": [1, 1, 64, 384],
          "dtype": "float32"
        },
        {
          "name": "StatefulPartitionedCall/boundary_detector_1/functional_1/block_8_expand_BN_1/batchnorm/sub",
          "shape": [384],
          "dtype": "float32"
        },
        {
          "name": "StatefulPartitionedCall/boundary_detector_1/functional_1/block_8_depthwise_1/depthwise/ReadVariableOp",
          "shape": [3, 3, 384, 1],
          "dtype": "float32"
        },
        {
          "name": "StatefulPartitionedCall/boundary_detector_1/functional_1/block_8_depthwise_BN_1/batchnorm/mul",
          "shape": [384],
          "dtype": "float32"
        },
        {
          "name": "StatefulPartitionedCall/boundary_detector_1/functional_1/block_8_depthwise_BN_1/batchnorm/sub",
          "shape": [384],
          "dtype": "float32"
        },
        {
          "name": "StatefulPartitionedCall/boundary_detector_1/functional_1/block_8_project_1/convolution/merged_input",
          "shape": [1, 1, 384, 64],
          "dtype": "float32"
        },
        {
          "name": "StatefulPartitionedCall/boundary_detector_1/functional_1/block_9_expand_1/convolution/merged_input",
          "shape": [1, 1, 64, 384],
          "dtype": "float32"
        },
        {
          "name": "StatefulPartitionedCall/boundary_detector_1/functional_1/block_9_expand_BN_1/batchnorm/sub",
          "shape": [384],
          "dtype": "float32"
        },
        {
          "name": "StatefulPartitionedCall/boundary_detector_1/functional_1/block_9_depthwise_1/depthwise/ReadVariableOp",
          "shape": [3, 3, 384, 1],
          "dtype": "float32"
        },
        {
          "name": "StatefulPartitionedCall/boundary_detector_1/functional_1/block_9_depthwise_BN_1/batchnorm/mul",
          "shape": [384],
          "dtype": "float32"
        },
        {
          "name": "StatefulPartitionedCall/boundary_detector_1/functional_1/block_9_depthwise_BN_1/batchnorm/sub",
          "shape": [384],
          "dtype": "float32"
        },
        {
          "name": "StatefulPartitionedCall/boundary_detector_1/functional_1/block_9_project_1/convolution/merged_input",
          "shape": [1, 1, 384, 64],
          "dtype": "float32"
        },
        {
          "name": "StatefulPartitionedCall/boundary_detector_1/functional_1/block_10_expand_1/convolution/merged_input",
          "shape": [1, 1, 64, 384],
          "dtype": "float32"
        },
        {
          "name": "StatefulPartitionedCall/boundary_detector_1/functional_1/block_10_expand_BN_1/batchnorm/sub",
          "shape": [384],
          "dtype": "float32"
        },
        {
          "name": "StatefulPartitionedCall/boundary_detector_1/functional_1/block_10_depthwise_1/depthwise/ReadVariableOp",
          "shape": [3, 3, 384, 1],
          "dtype": "float32"
        },
        {
          "name": "StatefulPartitionedCall/boundary_detector_1/functional_1/block_10_depthwise_BN_1/batchnorm/mul",
          "shape": [384],
          "dtype": "float32"
        },
        {
          "name": "StatefulPartitionedCall/boundary_detector_1/functional_1/block_10_depthwise_BN_1/batchnorm/sub",
          "shape": [384],
          "dtype": "float32"
        },
        {
          "name": "StatefulPartitionedCall/boundary_detector_1/functional_1/block_10_project_1/convolution/merged_input",
          "shape": [1, 1, 384, 96],
          "dtype": "float32"
        },
        {
          "name": "StatefulPartitionedCall/boundary_detector_1/functional_1/block_10_project_BN_1/batchnorm/sub",
          "shape": [96],
          "dtype": "float32"
        },
        {
          "name": "StatefulPartitionedCall/boundary_detector_1/functional_1/block_11_expand_1/convolution/merged_input",
          "shape": [1, 1, 96, 576],
          "dtype": "float32"
        },
        {
          "name": "StatefulPartitionedCall/boundary_detector_1/functional_1/block_11_expand_BN_1/batchnorm/sub",
          "shape": [576],
          "dtype": "float32"
        },
        {
          "name": "StatefulPartitionedCall/boundary_detector_1/functional_1/block_11_depthwise_1/depthwise/ReadVariableOp",
          "shape": [3, 3, 576, 1],
          "dtype": "float32"
        },
        {
          "name": "StatefulPartitionedCall/boundary_detector_1/functional_1/block_11_depthwise_BN_1/batchnorm/mul",
          "shape": [576],
          "dtype": "float32"
        },
        {
          "name": "StatefulPartitionedCall/boundary_detector_1/functional_1/block_11_depthwise_BN_1/batchnorm/sub",
          "shape": [576],
          "dtype": "float32"
        },
        {
          "name": "StatefulPartitionedCall/boundary_detector_1/functional_1/block_11_project_1/convolution/merged_input",
          "shape": [1, 1, 576, 96],
          "dtype": "float32"
        },
        {
          "name": "StatefulPartitionedCall/boundary_detector_1/functional_1/block_12_expand_1/convolution/merged_input",
          "shape": [1, 1, 96, 576],
          "dtype": "float32"
        },
        {
          "name": "StatefulPartitionedCall/boundary_detector_1/functional_1/block_12_expand_BN_1/batchnorm/sub",
          "shape": [576],
          "dtype": "float32"
        },
        {
          "name": "StatefulPartitionedCall/boundary_detector_1/functional_1/block_12_depthwise_1/depthwise/ReadVariableOp",
          "shape": [3, 3, 576, 1],
          "dtype": "float32"
        },
        {
          "name": "StatefulPartitionedCall/boundary_detector_1/functional_1/block_12_depthwise_BN_1/batchnorm/mul",
          "shape": [576],
          "dtype": "float32"
        },
        {
          "name": "StatefulPartitionedCall/boundary_detector_1/functional_1/block_12_depthwise_BN_1/batchnorm/sub",
          "shape": [576],
          "dtype": "float32"
        },
        {
          "name": "StatefulPartitionedCall/boundary_detector_1/functional_1/block_12_project_1/convolution/merged_input",
          "shape": [1, 1, 576, 96],
          "dtype": "float32"
        },
        {
          "name": "StatefulPartitionedCall/boundary_detector_1/functional_1/block_13_expand_1/convolution/merged_input",
          "shape": [1, 1, 96, 576],
          "dtype": "float32"
        },
        {
          "name": "StatefulPartitionedCall/boundary_detector_1/functional_1/block_13_expand_BN_1/batchnorm/sub",
          "shape": [576],
          "dtype": "float32"
        },
        {
          "name": "StatefulPartitionedCall/boundary_detector_1/conv2d_1/convolution/ReadVariableOp",
          "shape": [1, 1, 576, 128],
          "dtype": "float32"
        },
        {
          "name": "StatefulPartitionedCall/boundary_detector_1/conv2d_1/Squeeze",
          "shape": [128],
          "dtype": "float32"
        },
        {
          "name": "StatefulPartitionedCall/boundary_detector_1/up_sampling2d_1/Repeat/strided_slice_2/stack",
          "shape": [1],
          "dtype": "int32"
        },
        {
          "name": "StatefulPartitionedCall/boundary_detector_1/up_sampling2d_1/Repeat/strided_slice_2/stack_1",
          "shape": [1],
          "dtype": "int32"
        },
        {
          "name": "StatefulPartitionedCall/boundary_detector_1/up_sampling2d_1/Repeat/strided_slice_2/stack_2",
          "shape": [1],
          "dtype": "int32"
        },
        {
          "name": "StatefulPartitionedCall/boundary_detector_1/up_sampling2d_1/Repeat/concat/axis",
          "shape": [],
          "dtype": "int32"
        },
        {
          "name": "StatefulPartitionedCall/boundary_detector_1/up_sampling2d_1/Repeat_1/strided_slice_2/stack",
          "shape": [1],
          "dtype": "int32"
        },
        {
          "name": "StatefulPartitionedCall/boundary_detector_1/up_sampling2d_1/Repeat_1/strided_slice_2/stack_1",
          "shape": [1],
          "dtype": "int32"
        },
        {
          "name": "StatefulPartitionedCall/boundary_detector_1/up_sampling2d_1/Repeat_1/strided_slice_2/stack_2",
          "shape": [1],
          "dtype": "int32"
        },
        {
          "name": "StatefulPartitionedCall/boundary_detector_1/up_sampling2d_1/Repeat_1/concat/axis",
          "shape": [],
          "dtype": "int32"
        },
        {
          "name": "StatefulPartitionedCall/boundary_detector_1/conv2d_2_1/convolution/ReadVariableOp",
          "shape": [3, 3, 128, 128],
          "dtype": "float32"
        },
        {
          "name": "StatefulPartitionedCall/boundary_detector_1/conv2d_2_1/Squeeze",
          "shape": [128],
          "dtype": "float32"
        },
        {
          "name": "StatefulPartitionedCall/boundary_detector_1/up_sampling2d_1_2/Repeat/strided_slice_2/stack",
          "shape": [1],
          "dtype": "int32"
        },
        {
          "name": "StatefulPartitionedCall/boundary_detector_1/up_sampling2d_1_2/Repeat/strided_slice_2/stack_1",
          "shape": [1],
          "dtype": "int32"
        },
        {
          "name": "StatefulPartitionedCall/boundary_detector_1/up_sampling2d_1_2/Repeat/strided_slice_2/stack_2",
          "shape": [1],
          "dtype": "int32"
        },
        {
          "name": "StatefulPartitionedCall/boundary_detector_1/up_sampling2d_1_2/Repeat/concat/axis",
          "shape": [],
          "dtype": "int32"
        },
        {
          "name": "StatefulPartitionedCall/boundary_detector_1/up_sampling2d_1_2/Repeat_1/strided_slice_2/stack",
          "shape": [1],
          "dtype": "int32"
        },
        {
          "name": "StatefulPartitionedCall/boundary_detector_1/up_sampling2d_1_2/Repeat_1/strided_slice_2/stack_1",
          "shape": [1],
          "dtype": "int32"
        },
        {
          "name": "StatefulPartitionedCall/boundary_detector_1/up_sampling2d_1_2/Repeat_1/strided_slice_2/stack_2",
          "shape": [1],
          "dtype": "int32"
        },
        {
          "name": "StatefulPartitionedCall/boundary_detector_1/up_sampling2d_1_2/Repeat_1/concat/axis",
          "shape": [],
          "dtype": "int32"
        },
        {
          "name": "StatefulPartitionedCall/boundary_detector_1/conv2d_4_1/convolution/ReadVariableOp",
          "shape": [3, 3, 128, 128],
          "dtype": "float32"
        },
        {
          "name": "StatefulPartitionedCall/boundary_detector_1/conv2d_4_1/Squeeze",
          "shape": [128],
          "dtype": "float32"
        },
        {
          "name": "StatefulPartitionedCall/boundary_detector_1/conv2d_5_1/convolution/ReadVariableOp",
          "shape": [3, 3, 128, 128],
          "dtype": "float32"
        },
        {
          "name": "StatefulPartitionedCall/boundary_detector_1/conv2d_5_1/Squeeze",
          "shape": [128],
          "dtype": "float32"
        },
        {
          "name": "StatefulPartitionedCall/boundary_detector_1/batch_normalization_1/batchnorm/mul",
          "shape": [128],
          "dtype": "float32"
        },
        {
          "name": "StatefulPartitionedCall/boundary_detector_1/batch_normalization_1/batchnorm/sub",
          "shape": [128],
          "dtype": "float32"
        },
        {
          "name": "StatefulPartitionedCall/boundary_detector_1/conv2d_6_1/convolution/ReadVariableOp",
          "shape": [3, 3, 128, 64],
          "dtype": "float32"
        },
        {
          "name": "StatefulPartitionedCall/boundary_detector_1/conv2d_6_1/Squeeze",
          "shape": [64],
          "dtype": "float32"
        },
        {
          "name": "StatefulPartitionedCall/boundary_detector_1/batch_normalization_1_2/batchnorm/mul",
          "shape": [64],
          "dtype": "float32"
        },
        {
          "name": "StatefulPartitionedCall/boundary_detector_1/batch_normalization_1_2/batchnorm/sub",
          "shape": [64],
          "dtype": "float32"
        },
        {
          "name": "StatefulPartitionedCall/boundary_detector_1/heatmaps_1/convolution/ReadVariableOp",
          "shape": [1, 1, 64, 4],
          "dtype": "float32"
        },
        {
          "name": "StatefulPartitionedCall/boundary_detector_1/heatmaps_1/Squeeze",
          "shape": [4],
          "dtype": "float32"
        },
        {
          "name": "ConstantFolding/StatefulPartitionedCall/boundary_detector_1/up_sampling2d_1/Repeat/concat/values_1_const_axis",
          "shape": [],
          "dtype": "int32"
        },
        {
          "name": "ConstantFolding/StatefulPartitionedCall/boundary_detector_1/up_sampling2d_1/Repeat_1/concat/values_1_const_axis",
          "shape": [],
          "dtype": "int32"
        },
        {
          "name": "ConstantFolding/StatefulPartitionedCall/boundary_detector_1/up_sampling2d_1_2/Repeat/concat/values_1_const_axis",
          "shape": [],
          "dtype": "int32"
        },
        {
          "name": "ConstantFolding/StatefulPartitionedCall/boundary_detector_1/up_sampling2d_1_2/Repeat_1/concat/values_1_const_axis",
          "shape": [],
          "dtype": "int32"
        }
      ]
    }
  ]
}
